heuristic_net_residual.pt (torch, 21513 bytes, 5 tensors)

net.0.weight f4 [64, 4]
0.12821653 0.9410489 0.0054640756 -0.2657328 -0.0016509037 0.61357456 0.75595707 -0.11173972
0.013291748 -0.09426441 -0.096953474 -0.9310441 -1.0196605 0.43352383 -0.09607085 -0.5734221
-0.16406178 -0.05176658 0.8659369 -0.08478987 -0.40054148 0.6226746 0.37345076 -0.65694326
0.18442857 -0.75310314 0.79102397 -0.0012932033 0.063532405 -0.64869785 -0.9117521 0.3578962
-0.38597488 0.7308016 -0.12333826 0.1952981 -0.2424926 0.07746631 -0.20451643 -0.6053467
-0.5636221 -0.41339654 0.20776805 1.0111092 0.7482046 -1.123507 0.10039469 0.4858064
0.8080207 0.37010413 -0.9894954 -0.11814261 -0.902603 -0.054525394 0.37310582 0.20119856
1.2424797 0.047333702 0.13429475 0.027482497 0.03401249 0.9884035 0.009993107 -0.37077758
-0.17003924 -0.54690397 0.510724 -0.05199239 0.51603043 -1.0830874 -0.28835714 -0.3315235
-0.6575831 -0.04264658 0.90516806 -0.38456705 0.23103777 -1.3279746 0.13045295 -0.044537336
-0.20867507 -1.2371866 -0.016468978 -0.10991314 -0.7973956 -0.026374068 1.003387 -0.04457955
0.9035108 -0.1857388 0.16118468 -0.009710864 1.0037507 -0.3793819 -0.399088 -0.056976497
0.12791158 -1.1154194 -0.0059571015 -0.086668186 0.72513115 0.071742535 -0.31630582 -0.7861164
-1.2011461 -0.40279225 -0.13856299 0.009283378 0.5264806 -0.54678684 0.5185 -0.59306526
-0.23660883 -0.25875568 0.43605736 -0.9552976 0.042647094 0.033904284 -0.2992866 0.041339554
-0.085830875 0.46643043 -0.59531933 -0.49973398 -0.0009073943 -0.12858328 -0.084879495 -0.78366876
-0.12470585 -0.035995465 -0.8873589 0.17144151 0.14959721 0.014817121 1.5515714 0.11738722
0.009714199 -0.747334 0.01195762 0.80876243 -0.099356234 -0.038901273 -0.7235781 -0.7468358
0.13877577 0.39938775 0.57088983 -0.94762045 -0.03991775 0.12332373 -0.5614955 0.71394515
-0.5860762 0.75948143 -0.10586841 0.12583357 -0.45301268 -0.1356929 0.8719718 0.79041666
-0.07479441 0.010035115 -0.17861839 0.10550567 0.15418546 0.15563764 -0.43577605 0.8166548
0.7849932 -0.1103098 -0.34798104 0.07482172 -0.68644404 -0.47058544 -0.21974126 0.56880337
0.12755147 0.029734042 0.6433366 0.3208201 -0.17666073 0.17720708 -0.31225303 -0.69485676
0.9645741 -0.08928939 -0.8872011 -0.09881325 0.20727578 0.36149374 -0.049405053 0.3424085
0.94331515 -0.04864295 0.29826155 -0.16681094 -0.04887638 -0.7845225 -0.5061855 -0.04872094
0.78006536 -0.14120777 0.34566593 -0.47554824 -0.73864824 -0.118066944 -0.9052729 -0.55727726
-0.19155324 0.004853343 -0.32402867 -0.33434927 -0.77793354 -0.287763 0.6972199 0.31271002
0.5434033 0.033137795 -0.32701614 -0.93258977 0.43193644 0.95060986 -0.45824105 -0.61791795
-0.7644242 -0.85885775 -0.08134308 -0.23868869 0.6406106 0.51205915 0.18708418 0.3058727
-0.22486162 -0.16502963 -0.17076038 0.81641126 -0.013556284 -0.124317005 0.34912977 -0.8906729
-0.00045358628 0.6566722 -0.00171095 -0.6876301 -0.3275951 -0.7598007 -0.54722804 0.24455997
-0.15941937 0.49214557 -0.1418137 -0.37113354 0.005125764 0.68836933 -0.19550067 -0.51225585
00000000: 324b 033e 95e8 703f fd0b b33b 210e 88be
00000010: 2363 d8ba 3913 1d3f 6786 413f cbd7 e4bd
00000020: a2c5 593c b30d c1bd 8b8f c6bd e858 6ebf
00000030: 3c84 82bf d6f6 dd3e cbc0 c4bd cacb 12bf
00000040: d0ff 27be 3209 54bd 0aae 5d3f 50a6 adbd
00000050: c613 cdbe 9a67 1f3f f034 bf3e 6f2d 28bf
00000060: d8da 3c3e 5ecb 40bf 8c80 4a3f b480 a9ba
00000070: 471d 823d 1011 26bf 9668 69bf 2c3e b73e
00000080: 809e c5be d015 3b3f c598 fcbd 3afc 473e
00000090: fb4f 78be a8a6 9e3d c16c 51be 00f8 1abf
000000a0: 8a49 10bf b6a8 d3be 26c1 543e 076c 813f
000000b0: 568a 3f3f 14cf 8fbf bb9b cd3d 9ebb f83e
000000c0: 72da 4e3f 4a7e bd3e 924f 7dbf c1f4 f1bd
000000d0: fd10 67bf 0556 5fbd ba07 bf3e ff06 4e3e
000000e0: 9309 9f3f fce0 413d 9084 093e f922 e13c
000000f0: ae50 0b3d 0308 7d3f 21ba 233c 8fd6 bdbe
00000100: c41e 2ebe e601 0cbf cfbe 023f f9f5 54bd
00000110: 921a 043f 9ca2 8abf 8ca3 93be 73bd a9be
00000120: 5e57 28bf 2eae 2ebd 18b9 673f f9e5 c4be
00000130: 2a95 6c3e 12fb a9bf 7595 053e c86c 36bd
00000140: ebae 55be 215c 9ebf f3e9 86bc 241a e1bd
00000150: 1e22 4cbf 6e0e d8bc fc6e 803f 0c99 36bd
00000160: 7c4c 673f 5032 3ebe 990d 253e 511a 1fbc
00000170: e77a 803f 583e c2be 4355 ccbe 3060 69bd
00000180: 41fb 023e 10c6 8ebf ca33 c3bb 177f b1bd
00000190: 32a2 393f c0ed 923d d6f2 a1be ed3e 49bf
000001a0: 28bf 99bf c93a cebe 75e3 0dbe 4f19 183c
000001b0: 6fc7 063f 39fa 0bbf 6abc 043f 20d3 17bf
000001c0: 9649 72be a07b 84be e942 df3e 628e 74bf
000001d0: b8ae 2e3d 38df 0a3d 183c 99be aa53 293d
000001e0: 19c8 afbd f8cf ee3e d966 18bf 22dd ffbe
000001f0: 33de 6dba 56ab 03be 4dd5 adbd 849e 48bf
00000200: c865 ffbd fb6f 13bd f429 63bf 5d8e 2f3e
00000210: 0330 193e 83c3 723c e499 c63f b668 f03d
00000220: 4e28 1f3c 4851 3fbf e5e9 433c 0e0b 4f3f
00000230: 487b cbbd f156 1fbd 6a3c 39bf a230 3fbf
00000240: 3c1b 0e3e 8d7c cc3e d625 123f 4197 72bf
00000250: cb80 23bd 2791 fc3d 2bbe 0fbf 1cc5 363f
00000260: 1709 16bf 606d 423f 89d1 d8bd 84da 003e
00000270: 47f1 e7be 14f3 0abe 8b39 5f3f bf58 4a3f
00000280: d02d 99bd 536a 243c bde7 36be 5b13 d83d
00000290: cbe2 1d3e 795f 1f3e 0a1e dfbe 4a10 513f
000002a0: 50f5 483f 1bea e1bd 922a b2be 213c 993d
000002b0: ccba 2fbf 93f0 f0be da03 61be 199d 113f
000002c0: da9c 023e ce94 f33c b5b1 243f 8842 a43e
000002d0: 8de6 34be c675 353e a1df 9fbe 22e2 31bf
000002e0: 54ee 763f 5bdd b6bd 9c1f 63bf 9a5e cabd
000002f0: 1a40 543e b515 b93e f45c 4abd 2b50 af3e
00000300: 1a7d 713f d43d 47bd bdb5 983e 7dd0 2abe
00000310: 9932 48bd 77d6 48bf 5f95 01bf 9c8f 47bd
00000320: 5db2 473f c598 10be 20fb b03e 0f7b f3be
00000330: 0d18 3dbf 15cd f1bd f7bf 67bf b9a9 0ebf
00000340: 8826 44be cb08 9f3b 16e7 a5be d42f abbe
00000350: a726 47bf ac55 93be 017d 323f 871b a03e
00000360: 7b1c 0b3f 7fbb 073d a96e a7be 34be 6ebf
00000370: c626 dd3e 2b5b 733f 929e eabe df2f 1ebf
00000380: 4eb1 43bf 1ade 5bbf 3397 a6bd cf6a 74be
00000390: 0eff 233f 4f16 033f ff92 3f3e 599b 9c3e
000003a0: 2042 66be 87fd 28be cfdb 2ebe 5400 513f
000003b0: 2d1b 5ebc ea99 febd 23c1 b23e 2403 64bf
000003c0: 52cf edb9 ab1b 283f f541 e0ba 8708 30bf
000003d0: 8cba a7be 4c82 42bf 2317 0cbf ee6d 7a3e
000003e0: d53e 23be 81fa fb3e 9c37 11be 3705 bebe
000003f0: 06f6 a73b f938 303f 5431 48be 3323 03bf

net.0.bias f4 [64]
0.3326354 0.11656751 -0.31819105 0.23473063 -0.4162508 0.086516015 0.028267311 -0.014153736
0.15591854 0.5018286 0.05574851 -0.29699075 -0.25523853 0.08196159 0.54171765 -0.23897943
0.6204229 0.055527978 0.25189677 0.6693964 -0.524811 -0.06827129 0.6479781 0.24785605
-0.46500984 -0.010136004 -0.45126233 -0.0931019 0.13615371 0.61186945 -0.058674492 -0.20312822
-0.41567543 0.6622204 -0.037669234 -0.19601436 -0.07360173 -0.04329749 0.0572548 0.24391155
0.5965716 0.4411324 -0.3301673 -0.17153873 0.591992 -0.007923549 -0.14026932 0.59457934
0.11005561 0.3398536 0.13391243 -0.5611488 0.26767462 -0.08801123 0.01817809 0.03914047
0.42982873 0.75641346 -0.45115882 -0.11008543 0.02813113 0.47708005 0.70102656 -0.12796804
00000000: 304f aa3e f2ba ee3d f0e9 a2be 3a5d 703e
00000010: d31e d5be 4f2f b13d d990 e73c 12e5 67bc
00000020: 1ca9 1f3e d777 003f 8d58 643d 2c0f 98be
00000030: a0ae 82be 7adb a73d 02ae 0a3f 06b7 74be
00000040: 09d4 1e3f 4e71 633d 9df8 803e 905d 2b3f
00000050: 045a 06bf d1d1 8bbd e5e1 253f facd 7d3e
00000060: c515 eebe 7b11 26bc db0b e7be 35ac bebd
00000070: e16b 0b3e 7aa3 1c3f aa54 70bd d800 50be
00000080: 69d3 d4be 4787 293f 0e4b 1abd fdb7 48be
00000090: 81bc 96bd b558 31bd 0284 6a3d f3c3 793e
000000a0: ebb8 183f 1bdc e13e b00b a9be d9a7 2fbe
000000b0: ca8c 173f c6d1 01bc c3a2 0fbe 5a36 183f
000000c0: d664 e13d 4b01 ae3e 5720 093e 73a7 0fbf
000000d0: a60c 893e 3b3f b4bd 38ea 943c c251 203d
000000e0: 8312 dc3e 50a4 413f 4afe e6be 7874 e1bd
000000f0: 4173 e63c d643 f43e 7a76 333f 0e0a 03be

net.2.weight f4 [64, 64]
0.3889004 -0.27240768 -0.3213903 0.28992158 -0.47724155 0.15095545 0.074475944 -0.55376095
-1.1926589 0.48111773 0.114296764 0.47106853 -2.0535715 0.3164929 -2.6436076 -1.2507725
0.14160077 -1.2440711 0.0483017 -0.41665354 0.043171182 -0.3388635 0.82219595 -1.3439485
-0.7680387 -0.83058566 0.40684545 -0.10951674 0.3858183 0.04801933 0.27471077 -0.3147404
-0.6144314 -0.1499365 -0.9280156 0.2960528 0.055875584 0.0013612353 -0.27787492 0.15865563
0.13614519 -0.3228738 0.01778651 0.54429454 0.3442709 -0.2977871 -1.2817229 -0.47306713
-1.5435073 -0.40730292 1.091922 0.5381338 0.1789804 0.25895786 -2.5859728 -1.3317568
0.109720744 1.1241677 -0.47158042 -1.2321596 -1.5632805 -0.09622172 -0.0012203574 -0.719371
-0.6749238 0.5594823 0.050382987 0.10640304 0.2368831 0.11901517 -0.34059566 0.1563467
-0.65724164 0.17410824 -0.17596118 0.24105883 -0.62895644 0.25489706 -0.11409027 -0.07977254
0.047246054 0.31628704 0.11169452 -0.10468033 -0.037486147 0.35083464 -0.09715811 0.35284835
-0.15487352 0.2530285 0.20967764 -0.94411594 0.07940823 0.120779864 -0.4254249 0.24193586
0.4415626 -0.44512492 0.08024634 0.029002445 -0.25313756 -0.30790502 -0.06279499 0.17209968
0.15245162 -0.18586855 0.02304642 -0.14548795 -0.04976656 -0.074650414 0.18027867 0.14794458
-1.2401286 0.14561258 -0.32053372 -0.42432377 0.15700623 0.077833645 -0.23002931 -0.20691837
0.07307847 -1.1589715 0.03224635 0.31076342 0.22913866 0.1295496 0.1395217 -0.2537857
0.36207834 -0.40639704 -0.48150897 -0.21593092 -0.081884235 0.03496028 0.42836937 -0.27016366
-0.3019776 -0.124426454 0.10941868 -0.15742965 0.34636503 0.2569679 -0.00906808 -0.15114392
0.2626826 -0.03804905 -0.22510791 0.278272 -0.28680724 0.21551034 -0.010725721 0.011232699
-0.14818111 0.27804697 -0.06368933 0.006404876 -0.22068207 0.11321399 0.42692348 -0.30606434
-0.42900425 -0.46734425 0.43134052 -0.0948004 -0.28097466 -0.38595372 -0.37880093 0.20690367
0.10250319 -0.095972784 -0.19332823 0.37353823 0.053910315 0.094391815 0.015583727 0.11100163
-0.2968233 -0.1236889 -0.060792767 -0.7729682 -0.3095746 0.5143588 0.29675576 0.29058734
-0.4952608 -0.018037217 -0.11230722 0.20488083 0.2702401 -0.1715353 0.2543387 0.34489444
0.022086987 -0.08625592 -0.07755368 0.10221744 -0.097677454 0.0072802617 -0.12303743 0.09624443
0.0032098861 -0.13074307 0.008777556 -0.07907998 0.10506645 -0.063425556 -0.08835284 -0.011035208
-0.0159937 -0.08093148 -0.0103691025 0.050312683 -0.0913703 -0.034020994 0.011800835 0.018673357
0.017999493 -0.04171304 0.04817009 -0.09205119 -0.14105953 -0.0759099 -0.13317893 0.05182673
0.026701558 -0.14082721 -0.013718324 0.101091705 -0.013983783 0.020498602 -0.040015895 0.0955553
-0.10307554 -0.0723832 -0.12248808 0.00014366365 -0.029680436 0.107841186 -0.1301038 -0.039698623
0.02711098 0.014484538 0.007966211 -0.07324542 -0.04933422 -0.07361712 -0.1023024 0.026221668
-0.1448082 0.07856187 -0.14349703 -0.034632694 0.018723276 0.019175494 0.014096573 -0.0975375
00000000: f41d c73e 0579 8bbe 458d a4be 9a70 943e
00000010: 0159 f4be 1194 1a3e d886 983d 47c3 0dbf
00000020: 0ca9 98bf 1055 f63e 6c14 ea3d e52f f13e
00000030: b76d 03c0 5b0b a23e de30 29c0 5019 a0bf
00000040: cbff 103e b93d 9fbf 01d8 453d 9d53 d5be
00000050: 44d4 303d 847f adbe 6f7b 523f 8106 acbf
00000060: 2f9e 44bf 43a1 54bf 0c4e d03e 504a e0bd
00000070: fa89 c53e ebaf 443d e4a6 8c3e a725 a1be
00000080: 604b 1dbf f488 19be 6e92 6dbf 3c94 973e
00000090: ccdd 643d 7a6b b23a 9f45 8ebe 9f76 223e
000000a0: a569 0b3e b74f a5be 04b5 913c e356 0b3f
000000b0: 4744 b03e 8d77 98be 7f0f a4bf db35 f2be
000000c0: a691 c5bf 028a d0be 1ac4 8b3f 23c3 093f
000000d0: a346 373e 2096 843e 9480 25c0 0277 aabf
000000e0: 45b5 e03d bae4 8f3f fd72 f1be 68b7 9dbf
000000f0: 9319 c8bf e50f c5bd 66f4 9fba b328 38bf
00000100: cec7 2cbf 3b3a 0f3f 645e 4e3d d6e9 d93d
00000110: 7c91 723e 3abe f33d 8e62 aebe 5919 203e
00000120: fd40 28bf 6e49 323e 2b2f 34be 20d8 763e
00000130: 4a03 21bf de81 823e 29a8 e9bd c95f a3bd
00000140: 1485 413d 60f0 a13e 19c0 e43d a462 d6bd
00000150: 138b 19bd 99a0 b33e d5fa c6bd 8aa8 b43e
00000160: 2a97 1ebe f48c 813e bcb5 563e 95b1 71bf
00000170: c8a0 a23d 6f5b f73d 4bd1 d9be 09be 773e
00000180: 7e14 e23e 6ae7 e3be 3158 a43d 8996 ed3c
00000190: 3f9b 81be baa5 9dbe a99a 80bd e63a 303e
000001a0: 471c 1c3e 5354 3ebe d9cb bc3c cbfa 14be
000001b0: 05d8 4bbd 51e2 98bd f99a 383e c97e 173e
000001c0: 89bc 9ebf 771b 153e ff1c a4be f740 d9be
000001d0: 3ec6 203e 3f67 9f3d ce8c 6bbe 69e2 53be
000001e0: 2aaa 953d 2e59 94bf c014 043d 621c 9f3e
000001f0: 53a3 6a3e a6a8 043e c7de 0e3e 33f0 81be
00000200: 5562 b93e 4613 d0be 5888 f6be ff1c 5dbe
00000210: ecb2 a7bd 8332 0f3d 3b53 db3e e452 8abe
00000220: cf9c 9abe 4cd3 febd e716 e03d 3d35 21be
00000230: c256 b13e 4c91 833e 4992 14bc 79c5 1abe
00000240: 557e 863e 52d9 1bbd b082 66be ab79 8e3e
00000250: 66d8 92be beae 5c3e efba 2fbc 5b09 383c
00000260: cabc 17be 2c5c 8e3e 8d6f 82bd fedf d13b
00000270: 7bfa 61be bddc e73d b795 da3e 77b4 9cbe
00000280: 72a6 dbbe bf47 efbe aad8 dc3e b626 c2bd
00000290: e9db 8fbe ba9b c5be 32f2 c1be 8ede 533e
000002a0: 31ed d13d 618d c4bd d6f7 45be 6740 bf3e
000002b0: 10d1 5c3d 7f50 c13d e352 7f3c d354 e33d
000002c0: 39f9 97be 9b50 fdbd d601 79bd 3ee1 45bf
000002d0: 9080 9ebe 05ad 033f 5ff0 973e ddc7 943e
000002e0: d392 fdbe c9c2 93bc 5401 e6bd 48cc 513e
000002f0: e95c 8a3e f3a6 2fbe af38 823e 0196 b03e
00000300: c5ef b43c f2a6 b0bd 77d4 9ebd 6157 d13d
00000310: 1e0b c8bd 438f ee3b 0cfb fbbd cd1b c53d
00000320: f45c 523b 83e1 05be bdcf 0f3c aff4 a1bd
00000330: 142d d73d 42e5 81bd 55f2 b4bd 04cd 34bc
00000340: 3805 83bc 67bf a5bd 2be3 29bc ac14 4e3d
00000350: 5a20 bbbd 9959 0bbd 4a58 413c def8 983c
00000360: ac73 933c 4bdb 2abd 004e 453d 5685 bcbd
00000370: e971 10be a676 9bbd 0f60 08be 4448 543d
00000380: 3abd da3c 0235 10be d2c2 60bc 2b09 cf3d
00000390: 3d1c 65bc afec a73c b5e7 23bd 7fb2 c33d
000003a0: 4519 d3bd a53d 94bd 08db fabd 6ba4 1639
000003b0: 6324 f3bc d7db dc3d ee39 05be 069b 22bd
000003c0: d917 de3c 8e50 6d3c b684 023c b201 96bd
000003d0: ae12 4abd 93c4 96bd ec83 d1bd d3ce d63c
000003e0: 9a48 14be 0ce5 a03d e3f0 12be 03db 0dbd
000003f0: 8e61 993c ed15 9d3c 50f5 663c bec1 c7bd

net.2.bias f4 [64]
0.06004696 0.0401671 0.06953057 0.04194353 0.066456184 0.069775395 -0.15848775 -0.10212862
-0.1443694 -0.01813817 -0.008340841 0.08322019 -0.19456555 0.0085105095 -0.099637315 -0.21639271
0.059591804 0.07399561 -0.1473074 0.095624425 0.087641284 -0.14440249 0.011939711 0.05368274
0.23562008 0.07809282 0.37419024 -0.13590154 -0.043397732 0.007547339 -0.08617426 -0.070239335
-0.009367524 0.40994108 0.26916528 0.060546026 0.26413876 0.075833835 -0.08548106 -0.14353499
0.051124092 0.04095035 0.025472613 0.007139952 0.095854014 0.09926113 0.17662445 0.014965578
0.085639305 0.0020388379 0.043597076 0.22134547 -0.032020748 -0.054101262 0.05959933 0.2543513
-0.12499628 -0.101851024 0.28168643 0.24012758 -0.02261004 0.021538125 -0.09454063 -0.065872036
00000000: cdf3 753d 4286 243d 0b66 8e3d fbcc 2b3d
00000010: 2e1a 883d 67e6 8e3d 9d4a 22be cf28 d1bd
00000020: 92d5 13be 8096 94bc 06a8 08bc 596f aa3d
00000030: 313c 47be aa6f 0b3c a60e ccbd 0d96 5dbe
00000040: 8916 743d 038b 973d c0d7 16be bdd6 c33d
00000050: 467d b33d 3fde 13be c79e 433c 6fe2 5b3d
00000060: 6446 713e 21ef 9f3d dd95 bf3e c629 0bbe
00000070: d2c1 31bd ab4f f73b 217c b0bd a4d9 8fbd
00000080: 3e7a 19bc cce3 d13e 08d0 893e 1cff 773d
00000090: 323d 873e c54e 9b3d b210 afbd d6fa 12be
000000a0: 7f67 513d 8ebb 273d f1ab d03c 42f6 e93b
000000b0: 1c4f c43d 6b49 cb3d 0add 343e 2f32 753c
000000c0: a963 af3d 069e 053b d992 323d 63a8 623e
000000d0: 3028 03bd 4999 5dbd 6d1e 743d 553a 823e
000000e0: 0dfe ffbd 4597 d0bd 3439 903e 01e4 753e
000000f0: b138 b9bc b970 b03c 859e c1bd ebe7 86bd

net.4.weight f4 [1, 64]
1.9508396 -0.9292126 -0.676507 -0.0693831 0.16134655 2.781718 0.9180432 0.12748685
0.9500974 2.6068914 -0.55702025 -0.10371911 -2.390234 1.6338245 -0.0019009223 -1.6123966
0.20709996 -0.019801253 1.9720453 -0.5089013 -0.01558107 0.22643295 0.21030319 0.118647486
1.8269933 -0.49926275 -2.0004287 0.16814291 -0.019863207 0.16887538 -0.05292083 -0.7517423
-0.045141865 -0.71891034 3.442682 0.76688445 -0.43858734 2.9533165 -0.008417789 -0.63826233
2.9402409 1.4628597 2.246794 -0.3649929 2.7187023 -1.3922354 -0.95658934 -0.46925196
-0.031248739 0.11723648 0.41493756 2.7444084 2.8052588 -0.047069214 2.1984212 -0.54034466
0.14275254 0.19778608 2.720657 -2.3413618 -0.9309514 -0.084277995 0.5504261 1.5540787
00000000: 1db5 f93f e1e0 6dbf 902f 2dbf ba18 8ebd
00000010: 0838 253e ab07 3240 e104 6b3f ea8b 023e
00000020: 9539 733f 4fd7 2640 e198 0ebf af6a d4bd
00000030: 98f9 18c0 2921 d13f 5e28 f9ba 0363 cebf
00000040: 0312 543e 3d36 a2bc fb6b fc3f 5b47 02bf
00000050: bf47 7fbc 0ade 673e b859 573e 74fd f23d
00000060: ebda e93f 5e9f ffbe 0607 00c0 a82d 2c3e
00000070: 2ab8 a2bc abed 2c3e 83c3 58bd 2f72 40bf
00000080: ade6 38bd 820a 38bf e754 5c40 8a52 443f
00000090: 858e e0be 2303 3d40 c4ea 09bc 2965 23bf
000000a0: e82c 3c40 fd3e bb3f 79cb 0f40 59e0 babe
000000b0: 38ff 2d40 c534 b2bf 0ae3 74bf cb41 f0be
000000c0: 5bfd ffbc ae19 f03d b272 d43e 63a4 2f40
000000d0: 5c89 3340 a6cb 40bd efb2 0c40 0754 0abf
000000e0: b92d 123e 6f88 4a3e 3f1f 2e40 dfd8 15c0
000000f0: d552 6ebf f199 acbd bae8 0c3f 0dec c63f
