heuristic_net_frac_25.pt (torch, 21437 bytes, 5 tensors)

net.0.weight f4 [64, 4]
00000000: c45a 023e f4ba b9bd f98a 143f ae55 42be
00000010: f053 eb3e 2556 5b3e 34e2 06bf 9927 39bd
00000020: 8b4a 5c3f 3f67 ca3e 89e2 22bf 6633 d7be
00000030: ed4d b43e cd40 ad3e d13b 173f e59f 613f
00000040: 4ceb f1be 5c92 d73b 3f24 f93e c35a 003b
00000050: 7330 49bf 732e c33e 77a2 80be 0c2e 84be
00000060: 8d43 bc3e 6afd dd3e f3b6 20bf 06dd b63e
00000070: 1a96 1b3e 0586 62bf aedf debc adbc f5be
00000080: 9fcb eb3e 5d4d 173f 75cb e4be 89de 22bf
00000090: 644d d5bd c2d7 72be 5d7d 0f3f 2aad 41be
000000a0: 6537 b5bd 0a29 393f 541b 953d 6fbb 3cbf
000000b0: dae3 17bf 26c3 e63e d6c6 023f 7e9c dcbe
000000c0: 9674 c53e b7a3 60bf b08b 26bf 96a0 313d
000000d0: 8073 833e fb4b 013f 153c 92be aa24 cfbe
000000e0: a531 e3be 0f31 733e 5486 533f 9935 bbbe
000000f0: dbd6 30bf f294 23be 6c31 6b3e 00e7 3a3f
00000100: 9b26 6b3e c1c8 5f3f 744e 94be ed96 03bf
00000110: 27fe adbe e5bf 42bf 2ea6 a93e 91df 933e
00000120: f9be 103f 0996 4bbe 2d10 7bbe bb4d 55be
00000130: 18e8 8bbe c036 35bf e4e4 b53e 4105 3d3f
00000140: 033e 153f 3172 fbbe 9f2d 26be 1956 7dbe
00000150: 661f 5bbe 8283 edbe 4e6d 02bf ff67 033f
00000160: dfb9 f73c c8dd 12be 8684 2bbf 464a 003f
00000170: d67f 133f 9988 87be c044 67be 53fd bfbc
00000180: 5a9a 063f df77 253f 043b eabe d901 3ebf
00000190: 1da4 09bf 80c4 313f 7630 25be 51b7 e7be
000001a0: 78e6 41bd 5fdb 243f 6f9e 133f f91e 27be
000001b0: 5ead 673e 3971 3b3f c2c6 0ebf ba36 01bf
000001c0: 3318 663f e868 56bf 6c41 3d3f 3580 37bf
000001d0: 1145 0bbf 2fa8 a1be 68f3 493f 2e7a b63e
000001e0: d7a5 e9bc dea4 0fbf 3420 07bf d502 333f
000001f0: f254 f0bd ad6e cebe 073a 70be 7802 1d3f
00000200: 8b17 103f 2d5a 1d3e 9ca1 f23e c890 96be
00000210: ec73 93bb 61d8 2fbf 1e79 c13c d545 423f
00000220: fbd4 20bf 0f61 873b 5d69 243f 75f3 323c
00000230: 9b3b 513e d98a eabe bc5a 2e3f f685 543e
00000240: caf7 9d3d 7896 56bf e05d 36bd a96f 743f
00000250: 2d9c a4be f6ac 573f 5841 44be cc95 6a3e
00000260: aa26 55be 5e32 343f 134a 7a3e 7590 ecbe
00000270: 80dc f9be 440d 27bf 33fe 113f 9732 3a3f
00000280: 9ee8 293f be4f 9b3e ad28 c2be c005 453e
00000290: ed3c a63e 7a93 0d3f ce11 be3e e4be 19bf
000002a0: bd9e cc3a d2b3 1b3f 6c9d 99bc 6566 1fbf
000002b0: 0dc5 1f3f 8ecd a13e 03c9 aabe be7f 14bf
000002c0: 8af3 3f3e d32b 39bf 88b0 3c3f 8fb9 b93b
000002d0: 17b5 bc3e f5ff 04bf c4fa b1be 7ea5 3e3f
000002e0: 1114 233d f0c7 2e3f 35ee a33e 31fe 31bf
000002f0: 1080 99be f3f9 1bbd 8b5c 613f 2463 64be
00000300: 28c0 113e df8c 0dbf 3369 fabd 8faa 5d3f
00000310: f84a 5c3d e4dd 163f bc4e ffbc 5dbb 1ebf
00000320: 2bac ea3c 93b7 553f 7e3c 09bf 7ee0 a8be
00000330: 9b9e 47bf 2717 a2bd 42d2 493f 8e26 bc3d
00000340: 6aca f6be 0e63 0d3f 5a14 80be b211 13be
00000350: e353 463f 0a83 77bd 9952 56bf e34f b03d
00000360: 1528 483f 8cc4 e43d 9b18 1abf 5636 c13c
00000370: 81a3 c73e 3e02 143f 79f5 e7be 8c3e 41bf
00000380: 5917 123f fe0d 303f 5b0e 6e3e 6abf a1be
00000390: 5e37 3f3f f019 8ebe b59f 4dbe 052d d6bd
000003a0: fa5d ad3d bd3a a0bf 2656 df3c 11db b9be
000003b0: 63b9 443f 7ab5 f93c e6ca 50bf 1b89 2ebc
000003c0: fdf4 bfbd d78f 06bf d4e3 643f f41c 613e
000003d0: 52e1 bfbd 2fd9 463f 471f 9d3e c8dc 36bf
000003e0: 0c26 22bf 7d21 5dbe caee 333f c1e6 bc3e
000003f0: 7460 543e f8a2 50bf a863 11bf 4d95 943e
0.12729937 -0.090688616 0.58024555 -0.18977997 0.45962477 0.2141958 -0.5268891 -0.04520378
0.86051244 0.39531896 -0.63626915 -0.420314 0.35215703 0.33838502 0.5907565 0.88134605
-0.4724983 0.0065787267 0.48660466 0.0019585348 -0.7858955 0.38121375 -0.2512395 -0.2581638
0.36770287 0.43357402 -0.6277916 0.35715503 0.15193978 -0.8848575 -0.027206268 -0.4799551
0.46053788 0.5910242 -0.44686475 -0.6362081 -0.10415152 -0.23715118 0.56050664 -0.18913713
-0.08848456 0.72328246 0.07280603 -0.737235 -0.5933205 0.4507076 0.5108465 -0.43088144
0.3856551 -0.8774981 -0.65056896 0.043366037 0.25674057 0.5050656 -0.28561464 -0.4045766
-0.44373813 0.23749183 0.82626843 -0.3656433 -0.69077843 -0.15974787 0.22968072 0.7300873
0.22963946 0.874157 -0.28966105 -0.5140217 -0.33982965 -0.7607406 0.33134598 0.28881505
0.565414 -0.19881453 -0.2451789 -0.20830433 -0.2732551 -0.70786667 0.35526192 0.7383614
0.5829775 -0.4911056 -0.1622834 -0.24739875 -0.21398696 -0.46389395 -0.50948036 0.5133056
0.030239997 -0.14342415 -0.6699909 0.5011333 0.5761694 -0.26471403 -0.2258482 -0.023436224
0.5257927 0.64636034 -0.4574815 -0.7422157 -0.5376604 0.6944046 -0.16131768 -0.45257047
-0.047338933 0.64397234 0.57663625 -0.16320409 0.22624728 0.7321964 -0.5577203 -0.5047413
0.89880675 -0.83753824 0.7392795 -0.71680003 -0.5440226 -0.31573626 0.78887033 0.3564009
-0.028521461 -0.5611094 -0.52783513 0.69926196 -0.11734952 -0.40318814 -0.23459636 0.6133189
0.56285924 0.1536643 0.47388923 -0.29407334 -0.004499903 -0.68689543 0.023617323 0.75887805
-0.6282498 0.0041314433 0.6422327 0.0109223025 0.20432894 -0.45809057 0.681072 0.20754227
0.07713278 -0.8382335 -0.04452312 0.9548288 -0.32150403 0.8424829 -0.19165552 0.22908705
-0.2081553 0.70389354 0.2444232 -0.46203962 -0.4880104 -0.65254617 0.570285 0.72733444
0.6637057 0.30334276 -0.37921658 0.19240475 0.32468358 0.55303156 0.3712296 -0.600569
0.0015611273 0.6082126 -0.018751822 -0.62265617 0.6241005 0.31602138 -0.33356485 -0.5800742
0.18745247 -0.72332495 0.73706865 0.0056678723 0.3685691 -0.5195306 -0.3476163 0.7447127
0.03981406 0.6827383 0.32017675 -0.6952849 -0.29980516 -0.038080167 0.88031834 -0.22303444
0.14233458 -0.5529308 -0.122270964 0.86588377 0.053782433 0.5893233 -0.031165473 -0.62004644
0.02864655 0.8348324 -0.5360793 -0.32983774 -0.7797639 -0.07914572 0.7883645 0.09187041
-0.48201305 0.5522927 -0.25015527 -0.14362219 0.7747175 -0.060427703 -0.83719784 0.08608987
0.7818616 0.11170301 -0.60193795 0.02358548 0.3899193 0.5781592 -0.45304468 -0.75486064
0.57066876 0.6877135 0.23247664 -0.3159135 0.7469386 -0.27754164 -0.20080455 -0.104578055
0.0846519 -1.2517926 0.027262758 -0.36299947 0.7684538 0.030482043 -0.815596 -0.010652806
-0.093729 -0.5256323 0.8941014 0.21983701 -0.09369148 0.77675146 0.30687925 -0.71430635
-0.63339305 -0.21594806 0.7028624 0.368948 0.20739919 -0.8149867 -0.5679269 0.29020157

net.0.bias f4 [64]
00000000: 8fdb f83e 2614 4d3c d277 cf3e 1374 f03e
00000010: c7ac ad3c e8d0 043f 72a2 113f e9c5 1a3f
00000020: a57f 8c3d 9be0 b03e bc80 6a3c a3cd 353e
00000030: 798d d13e 82f7 ba3e f6b9 d23e 3e52 cebd
00000040: 58b9 063e fb3a 093c 8600 8b3e 531c c23e
00000050: b5b9 e03e 1b61 ef3e eb81 203f 405c 963e
00000060: ecee 51bb 5776 993e 47eb 703e 2b73 9c3e
00000070: 232f 81bd c8c2 463d 5aa9 d63e 04ed 8cbe
00000080: 2f36 b33e ad71 b4bd 8154 ca3c ed65 853c
00000090: b1c9 b3bd c2f4 be3b 0fd8 cc3e 1e02 663e
000000a0: 093e e73e 9608 99be 6444 0a3d b138 8b3d
000000b0: 8589 48be fd3a 383e 32d6 2dbe ef4d 1b3f
000000c0: c780 8bbd 5004 243d 6a54 8b3e 095e bc3b
000000d0: f915 a43e 4197 8fbd c9ff 6e3e 68e8 54bd
000000e0: 9182 f03e 9a57 e93e 9179 9dbe e243 46bd
000000f0: b90a d93c 0931 03be 9e0f 5a3d ac71 3dbe
0.4860501 0.012517011 0.40521103 0.46963558 0.02120055 0.51881266 0.56888497 0.60458237
0.06860284 0.3454636 0.014312919 0.17754225 0.40928248 0.36516958 0.41157502 -0.1007428
0.1315664 0.008375878 0.27148837 0.37912235 0.43891683 0.46753773 0.6269824 0.29367256
-0.0032033278 0.299731 0.23527251 0.30556616 -0.06307819 0.0485256 0.4192608 -0.2752458
0.35002276 -0.088107444 0.024698498 0.016283954 -0.08778704 0.0058275172 0.4000859 0.22461745
0.45164517 -0.29889363 0.03375663 0.067979224 -0.1958371 0.17991252 -0.1697624 0.6066579
-0.06811672 0.040043175 0.2721284 0.0057485146 0.32048014 -0.07011271 0.23339762 -0.051979452
0.46974614 0.45574647 -0.3075681 -0.04840458 0.02649437 -0.12811674 0.05323755 -0.18500394

net.2.weight f4 [64, 64]
00000000: 2dbc 683d d859 103e 09c5 adbc c177 afbe
00000010: dcc1 c13e 8350 9a3d d0d8 813d 1b48 813e
00000020: 0ca2 283e e634 81bd b748 c13d edb0 ef3d
00000030: 0433 823e b377 85bd 2124 433d bc29 9e3e
00000040: cd72 503e 381c 713e 1e45 d43d 81dd 5e3e
00000050: b74a 513e 12c0 5a3e 8908 3c3e 0e4d 373d
00000060: f2b3 133e f490 3b3e e0bb e03d 89e3 3c3d
00000070: b9f2 d8be dadd 8c3e 65da 133e 9661 c8bd
00000080: 0b81 c33d 71d8 e13e 847a 8d3e f4ec 163d
00000090: 749b c63e 811c b8be ef0e 693d bf07 773e
000000a0: 7d8b 95bc c6b7 19bd 22b4 a63e 4b19 383d
000000b0: 4ef9 833e 1ecc c23d 24b6 913e a89d 4f3d
000000c0: ec6f e03e 5779 2f3e 3f79 c83d 9382 7e3e
000000d0: c719 6a3e f92b 963e 0535 063e ea41 113e
000000e0: 9e2b 663d 96fe e83d db3f 27bf 66ea e23e
000000f0: a050 8f3e 029b 913e 8121 5d3e 4826 243e
00000100: dcda 16bd 9d62 edbc e359 433d df2f 983d
00000110: 34f5 47bb 7e5a 7b3d 5bb2 afbd 3e2b 03be
00000120: 5b02 c7bb 737b c63d d9d0 dfbd dd31 ac3d
00000130: 8d96 31bd b4b9 b03c 88b6 01be c5a2 d9bd
00000140: 571f 08bd e19d 6abd e35d b8bd 5d41 95bd
00000150: 0bd6 83bd a642 bebd 977c 3bbd d0e2 283a
00000160: 554c 9fbd dc9e 89bd 5496 bfbd e2f4 8a3d
00000170: 529c 2f3d a0c1 513c ba3a f7bd 2074 c7bd
00000180: 9879 8bbd 358e d73d 3a61 313d 1620 be3d
00000190: 35ea 993d 4af7 8f3d f075 cabd ab30 f6bd
000001a0: de75 e9bd c6c9 02bd cbc7 92bc d826 ddbd
000001b0: 4db6 a23d b05d a3bd ccff 4cbd e8da 663d
000001c0: 6f43 c03c 079d 703d 20f5 163d 9e75 0d3d
000001d0: ee9a c03b becf cc3d 8a0e d3bd c761 86bd
000001e0: 1eab 1ebc 911f e53c 71c4 123d e24c d13d
000001f0: fc8a a8bd a13b cc3c a019 a43b ff62 823d
00000200: 5097 273c bcdd 253d ddec 343e 2dd1 57bd
00000210: a033 543e c93c 513e 8386 f53d cbfc 3f3e
00000220: 8085 793e 0746 073d 43ae 343e ceac 203e
00000230: 4d9c 563e 39ad 3d3e e213 713e a24d 113e
00000240: 2b56 7d3e b8ba 9c3e 513e b93b 1dbf 6d3d
00000250: 2692 f83d 23e3 ba3d 4435 0b3e a479 1d3d
00000260: d62b 953e bffa 4c3e 3f9e 6b3e bc12 c43d
00000270: 2d83 8cbe 2f92 8f3d be9c b23d 22ea 21bb
00000280: 5cbc 893c 31e4 af3e 569f 733e c072 7c3e
00000290: 16a6 853e e47c d9bd b2a6 143d daa4 bb3d
000002a0: f426 acbc 50fa ee3d d04f 823e 961f 393d
000002b0: f880 5e3e 8f71 393e 7058 c03d 3a7e 5a3e
000002c0: a879 7d3e 192b 093e 7db1 723e b2fb 1e3e
000002d0: 3595 453e 4f39 a13e 3f6e 3a3e 5fba 0b3e
000002e0: bd79 b43d 3e71 6b3e 3464 96be fdf8 4d3e
000002f0: 579b 653e 31f4 503e 41be 7e3e f456 443e
00000300: 0839 383e e341 843d f610 293e 34b0 7e3b
00000310: 1e86 bf3e 8030 f73d 76bb b139 3126 c83c
00000320: 591d 4a3e 3e3a 1e3e 5c37 d33d 4bae 9a3d
00000330: e0bf be3d 1399 3fbc 2709 473e c1ba 753e
00000340: 10b7 3d3e ef19 813d df53 153e f353 393e
00000350: fab4 273e 3b71 e83d c301 433e 536c 363c
00000360: 693c cd3d d039 2a3e 5afe 6d3e 13ff e93d
00000370: 1284 afbe e6ad 9b3e dc08 513e d2ba d7ba
00000380: 21a3 fa3d f4f4 c33e 1350 b23e 9802 623e
00000390: b8c1 d53e 8061 10be abf4 9a3d 1fab 953e
000003a0: eace 383e 117f bb3d c7d6 a23e ebfa bb3d
000003b0: b7c9 7b3e 72e0 773e 8cbf 313e 4d2c df3d
000003c0: 1828 b13e a4a8 d73b dbfc a03d 61d5 463e
000003d0: 2328 733e 2403 723e ef58 2d3d 9864 943e
000003e0: 7364 563e c537 073d 0507 bebe 8b4e 9a3e
000003f0: 70ab 663e ff25 5a3e e20f 6a3e 7ea9 1b3e
0.056820083 0.14096773 -0.021212118 -0.34271052 0.37843215 0.07534888 0.06340182 0.25250325
0.16468066 -0.06308918 0.094376974 0.11703668 0.25429547 -0.065169714 0.047641877 0.30891216
0.20356293 0.23545921 0.103647456 0.21764185 0.20438658 0.21362332 0.18362631 0.04475122
0.14424112 0.18317014 0.10973334 0.046115432 -0.42372683 0.2751301 0.1443878 -0.09784238
0.09546097 0.44110444 0.27632535 0.03684707 0.38790476 -0.35959247 0.056899007 0.24124049
-0.01825499 -0.037528776 0.32559305 0.044945996 0.25776142 0.095115885 0.28459275 0.050687462
0.4383539 0.17136131 0.09788751 0.24854498 0.22861396 0.29330423 0.13106163 0.141853
0.05619394 0.113766834 -0.6533181 0.44319457 0.279912 0.28438574 0.21594812 0.16030228
-0.036829814 -0.028977687 0.047693145 0.07431006 -0.0030511143 0.061365597 -0.085789405 -0.12809464
-0.006073279 0.09691515 -0.109285064 0.08407948 -0.043356467 0.021572925 -0.12667286 -0.10626749
-0.033233013 -0.05727947 -0.090022825 -0.07287858 -0.0643731 -0.09290056 -0.045773115 0.0006442489
-0.07778231 -0.06719753 -0.09354845 0.06784989 0.042873688 0.012802511 -0.12071748 -0.09738946
-0.068103015 0.10525171 0.043305613 0.09283464 0.075153746 0.070295885 -0.09885776 -0.120210014
-0.113994345 -0.031930707 -0.017917534 -0.107984245 0.07944927 -0.07976854 -0.050048634 0.05636111
0.023469655 0.058743503 0.036854863 0.034535997 0.005877844 0.10000561 -0.103055075 -0.06561618
-0.009684352 0.027969154 0.035831872 0.10219742 -0.08229634 0.024930777 0.0050079376 0.06366538
0.010228947 0.040494666 0.17668481 -0.05268972 0.20722818 0.20433344 0.11988547 0.18748777
0.24367332 0.033025768 0.176446 0.1569092 0.20958062 0.1852311 0.23542741 0.14189771
0.24739902 0.30611205 0.0056531806 0.058043588 0.121372506 0.09125354 0.13594538 0.038446084
0.29135007 0.20017527 0.23009585 0.09573886 -0.2744383 0.07010304 0.087213024 -0.0024706204
0.01681345 0.34353784 0.2379125 0.24653149 0.26103276 -0.10619524 0.036291786 0.09162302
-0.021014668 0.11668837 0.25451517 0.04519614 0.21728885 0.18109725 0.09391868 0.21337214
0.2475344 0.13395347 0.23700519 0.15525702 0.19295199 0.31489035 0.18206118 0.13645314
0.08812282 0.22992417 -0.29373324 0.20114513 0.22422539 0.20405652 0.24877264 0.19173795
0.17990506 0.064578794 0.16510376 0.003886235 0.3740701 0.120697975 0.0003389974 0.024432274
0.19737758 0.15451905 0.10313293 0.07552775 0.09313941 -0.011694211 0.19437085 0.23997022
0.18526864 0.063037746 0.14582776 0.1809843 0.16377631 0.11349722 0.19043641 0.011134225
0.10021288 0.16623616 0.23241559 0.11425605 -0.3428045 0.3040611 0.20413536 -0.0016458875
0.122381456 0.38272822 0.34826717 0.22071302 0.41749358 -0.14099693 0.07566198 0.29232118
0.18047681 0.09155095 0.31804487 0.09178718 0.24588667 0.24206713 0.17358226 0.108971216
0.34600902 0.006581383 0.07860728 0.19417335 0.2374578 0.2363401 0.04232114 0.28982997
0.20936756 0.03301217 -0.3711473 0.3013805 0.22526336 0.21303557 0.22857621 0.15201375

net.2.bias f4 [64]
00000000: 1334 ce3c 46cd 66bd 4352 583d 52f4 153e
00000010: 0b68 2a3a b4ad a2be af3d f73d 2af1 cd3c
00000020: 52b3 90bd b789 a33d 9928 d83d 69ad 573d
00000030: 54b9 3e3e c6ad efbd e9f3 233e f735 f3bd
00000040: ac08 87bd c4f8 1c3d a027 963d 01db f0bc
00000050: 6c47 6b3e f366 683d cceb 3bbb 1394 c5bd
00000060: 1108 593e 6c0b 8c3b ef6b b83e f606 6b3e
00000070: ba89 e0be ae52 1c3e 51dc 723e 31b1 3c3c
00000080: 3d11 1c3d c6f5 89bc 74e3 553e cad3 a53d
00000090: d1b0 203e 3943 f6bd 74af c5be d58b 6a3e
000000a0: f99c 9c3d 3415 acbe cb42 7e3e dfac af3c
000000b0: 2605 8fbd 9cf1 a03c 0163 973d 1db3 36be
000000c0: 5376 443e f1c6 0abd ee63 68be a7de 073c
000000d0: fae4 813c 9cfe 093e 92dc 5c3d b683 543e
000000e0: faca 87bd f16f a9bd e982 5d3e 08b0 1c3e
000000f0: ea11 27bc 8ccb ad3c b422 223e 6336 933d
0.025171315 -0.056348108 0.052812826 0.14643982 0.0006500489 -0.3177315 0.12072312 0.02513941
-0.07065453 0.079852514 0.105546184 0.05265561 0.18625385 -0.117030665 0.16011013 -0.11875527
-0.06593451 0.03832318 0.073317766 -0.029401304 0.22976464 0.056738805 -0.0028674481 -0.096473835
0.21194483 0.0042738225 0.36019847 0.22951874 -0.43855077 0.15265915 0.23716857 0.011516855
0.038102377 -0.016840827 0.20887548 0.08097036 0.1569245 -0.120245405 -0.38610423 0.22904904
0.07647128 -0.33609927 0.24830167 0.021444736 -0.06983404 0.019646458 0.0739193 -0.17841764
0.19185762 -0.03388113 -0.2269437 0.008292831 0.015856255 0.13476032 0.05392129 0.20753369
-0.066305116 -0.08273304 0.2163197 0.15301526 -0.010197142 0.021215223 0.1583355 0.07188108

net.4.weight f4 [1, 64]
00000000: 2c9d 7d3e e54c a7bd 0ce4 963e c53c 843e
00000010: a4ca a13e b324 80bf 5d49 803e 271c 563e
00000020: 8cad 983e 3f45 713e 754d a83e 2d51 b0bd
00000030: bd8a 8e3e ba98 2fbe 53c1 673e 43ad d8bc
00000040: 3470 f9bd f20e 1f3f d135 8abd 5923 65bc
00000050: cfc7 00bf db22 773e 72bc 85bd ff55 363d
00000060: 9341 6b3e 72fa 803e bdc1 af3f ff5d 3abf
00000070: ccd7 a3bf b8da 683e 04de 813e d22c 8e3e
00000080: 5c20 9dbd cec4 dbbc 6ac9 9a3e 2f91 723e
00000090: feb4 fdbf 7d30 19bc 62b3 85bf 4ded 503e
000000a0: 2c05 5abe 5d9e b6bf c31e 7d3e 02e8 9d3e
000000b0: a879 e3bc 3136 4f3e b254 703e 9c08 16bf
000000c0: cf68 e63e 7c27 b7bd 591b b3be ccbd babc
000000d0: 1957 a53b c2fd 953e 1c9c e1bc 3bb3 433e
000000e0: c694 bbbd 6130 e9bb 1f3a 97bf fd14 5a3e
000000f0: a5cf 843e 6237 883e a301 903e 4e7a 883e
0.24766988 -0.08168963 0.2947086 0.25827613 0.31599915 -1.00112 0.25055972 0.20909177
0.29819906 0.23561572 0.32871595 -0.08609233 0.27840224 -0.17148104 0.22632341 -0.026449805
-0.12179604 0.6213218 -0.06748546 -0.013985478 -0.50304884 0.2413439 -0.06530084 0.044515606
0.22974233 0.25191075 1.3730999 -0.72799677 -1.2800231 0.22739685 0.25364697 0.2776857
-0.07672188 -0.026827242 0.30231792 0.23688196 -1.982086 -0.009349939 -1.0445368 0.20403023
-0.21291035 -1.4267079 0.24718766 0.3084107 -0.027767971 0.20235516 0.23469809 -0.58606887
0.45001838 -0.08943078 -0.34981802 -0.02279558 0.0050457832 0.29295164 -0.027540259 0.1911134
-0.09159236 -0.007116363 -1.1814612 0.21297069 0.2593967 0.26604754 0.2812625 0.2665581
