heuristic_net_frac_10.pt (torch, 21437 bytes, 5 tensors)

net.0.weight f4 [64, 4]
000000 aa 77 e8 be 20 65 ca 3d 64 36 0d 3f d3 a6 74 3e
       -0.45403796 0.09882569 0.5516112 0.23891763
000010 e7 f1 25 3f 4f 56 84 bd 6d c4 21 bf ce 10 96 3b
       0.6482224 -0.064617746 -0.63190347 0.00457964
000020 1f 78 85 3e 8e 8a 0b bf 43 5b 85 3d 98 f3 2d 3f
       0.26068208 -0.5450829 0.065115474 0.6794982
000030 d7 71 d1 be e0 04 d4 be d0 4e 03 3f c4 a9 b6 bd
       -0.40907165 -0.4140997 0.51292133 -0.08919099
000040 ef 2e f3 be 3d 65 1a be 0b 8c dc 3e bf b0 ab be
       -0.47496745 -0.15077682 0.43075594 -0.33533284
000050 29 c5 68 be 3c 09 ac be 93 66 04 3f ae 0f 97 be
       -0.2273146 -0.33600795 0.51719016 -0.2950415
000060 b7 a0 18 bf e9 48 ed bd e0 98 80 3e be 5a 09 3f
       -0.5962023 -0.11586172 0.25116634 0.53654087
000070 af 19 8b 3e c1 db d9 be e3 aa 20 bf bc 07 e3 3e
       0.27168033 -0.4255047 -0.6276075 0.44341838
000080 9b 20 ed 3e 9d b0 24 3f 5c 66 37 bf bf 02 04 bf
       0.46313938 0.6433199 -0.71640563 -0.5156669
000090 3a 02 32 3e 82 d9 25 bf 0b 1d 9a 3e a3 c6 15 3f
       0.17383662 -0.64785016 0.30100283 0.5850622
0000a0 d1 aa 13 3f 7f a0 1f 3d b9 f5 14 bf 41 b5 c6 bc
       0.5768252 0.03897142 -0.58187443 -0.02425635
0000b0 0d fc 3e 3e 06 92 f6 be c4 c2 b1 be 8c 42 ac 3e
       0.18650837 -0.48158282 -0.34718907 0.3364452
0000c0 98 24 14 bf 28 e4 3b 3f 06 25 68 3e c5 8a 29 bf
       -0.5786834 0.73395014 0.22670373 -0.6622737
0000d0 0b 18 02 bf e0 0f 30 3e ba 44 06 3f 15 3e 5f be
       -0.50817937 0.17193556 0.5244862 -0.21801026
0000e0 b2 07 23 bf d7 55 8c 3c 06 ab 32 3f de e6 ee 3c
       -0.6368362 0.017130775 0.6979221 0.02916282
0000f0 c9 8e c2 3e 67 d6 e1 3d 14 ef e6 be 3a 5f ca 3e
       0.3799956 0.11027222 -0.45104277 0.39525777
000100 1f f2 c6 3d 56 d4 35 bf 38 f4 19 be cd ba 48 3f
       0.0971415 -0.71027124 -0.15034568 0.78410035
000110 58 99 18 be bf a4 33 3f 16 d1 5d 3e e3 54 3e bf
       -0.14902246 0.7017326 0.21661791 -0.74348277
000120 40 2e d0 3e f4 42 ac be 7e 9d 0e bf a3 c2 a7 3e
       0.40660286 -0.3364483 -0.55709064 0.32765684
000130 0a ca 3a 3e f4 83 b3 be c6 5a e9 be 70 22 1d 3f
       0.18241134 -0.3506161 -0.45577067 0.6138067
000140 7d 73 70 3e 31 fd 1c bf 91 d7 54 be a8 92 2d 3f
       0.23481555 -0.6132384 -0.20785357 0.67801905
000150 ea 76 e0 3e f4 87 03 3f d7 ee 42 be cf f6 8c be
       0.43840724 0.51379323 -0.19036423 -0.2753205
000160 02 8e f8 be 0d f2 b9 bd d6 f1 53 3f 04 05 ef 3c
       -0.48545843 -0.09079371 0.8279089 0.029177196
000170 47 b7 0f 3f 1e 7d 45 3d 0b 3b 10 bf 56 06 d9 bc
       0.56139034 0.048215024 -0.5634009 -0.026492279
000180 e8 1c 21 bf 91 89 11 3e 4a 7b 93 3e 58 5b 11 3e
       -0.6293473 0.14212634 0.28805 0.14195001
000190 db b9 2f bf cf ee 6b bb 0a d3 38 3f 8b 37 db 3c
       -0.6864297 -0.0036000495 0.7219702 0.026759883
0001a0 41 b3 8e be 59 b4 db be 59 11 a7 3e 4a 67 00 3f
       -0.27871135 -0.42911032 0.32630423 0.50157607
0001b0 94 ad d6 bb e1 e0 1b 3f 1a 1e 08 3d e6 48 1c bf
       -0.006551454 0.6089001 0.033231832 -0.61048734
0001c0 a3 d1 32 3e 6d e8 3e bb 35 f5 e6 3d b4 52 40 3e
       0.17462783 -0.0029130236 0.11277238 0.18781549
0001d0 16 cd 06 3e 5d 9c 42 3c 5a 69 14 bf 90 db 96 3d
       0.13164172 0.0118781 -0.57973254 0.07366097
0001e0 88 ab 17 bf 48 eb 58 3e a4 b4 37 3f 2d 82 1b 3e
       -0.5924611 0.21183503 0.7176001 0.15186377
0001f0 f5 e9 53 3d ff 9b dd be 9c ae a5 be 24 06 16 3f
       0.05173679 -0.43283078 -0.3235978 0.5860312
000200 b7 df 08 3f 93 87 d4 3e 7e aa 19 bf 4e cd 0a bf
       0.5346636 0.41509685 -0.60025775 -0.5421952
000210 8a 2f 40 3e 44 b2 07 bf d0 7b 85 3e 1a 05 18 3f
       0.18768135 -0.53006387 0.26071024 0.59382784
000220 5c 11 19 3e c8 1b d3 bc bd d3 de be bb 2d 8f be
       0.14948028 -0.025770083 -0.43520918 -0.27964577
000230 c8 72 03 3e e3 1a cc 3e 0f 8c 14 bd 23 fd c2 3b
       0.12836754 0.39864263 -0.036266383 0.0059505864
000240 da 5e 82 3d 8c de 2d bf a3 d0 05 3e 86 48 24 3f
       0.06365748 -0.67917705 0.1306787 0.6417316
000250 aa ec bd bd a7 8f 2d bf 9c ba 88 be be 42 8b bf
       -0.09273656 -0.6779732 -0.26704872 -1.0879743
000260 6f ad e1 be 0e 97 07 bf 5e f3 25 be 2c bd 19 3f
       -0.44077632 -0.52964866 -0.16206118 0.6005428
000270 be 30 ea bd ae 80 0f 3f a3 72 a8 3d b3 0b 17 bf
       -0.11435078 0.56055725 0.0822499 -0.59002227
000280 3c c6 e5 3e c5 c2 9a 3e 5e 5a 09 bf 9d b8 0a be
       0.44877803 0.30226722 -0.53653514 -0.13546987
000290 84 28 d4 be 9a 6d a3 3d 82 54 15 3f 34 95 94 3e
       -0.4143716 0.07979889 0.58332074 0.29020083
0002a0 16 1b 3a 3f e4 ab 70 3d 51 fd 11 bf 63 ad df 3c
       0.7269758 0.058757678 -0.57027155 0.027304357
0002b0 3e 19 0d bf 1b 60 ae be 8c 6f b8 3e 9c 8e aa 3e
       -0.5511664 -0.34057698 0.36022604 0.33311927
0002c0 1c 92 89 be 10 e5 a2 be fc ba ca 3d b9 a2 27 3f
       -0.26869285 -0.31815386 0.09898946 0.6548267
0002d0 85 85 ee be c7 5c f4 3e 51 54 ea 3e 84 00 f4 be
       -0.46586242 0.47727033 0.45767453 -0.47656643
0002e0 f3 78 89 bd de fc 2a 3f f1 43 65 be 07 7c 2c bf
       -0.06712522 0.66792095 -0.22389199 -0.6737675
0002f0 ee 81 6c bd d0 64 11 bf 90 55 bf 3c af 19 14 3f
       -0.057741098 -0.5679445 0.023356229 0.5785169
000300 32 c4 0c bf 71 84 8d 3d 30 7e 11 3e 21 d6 de be
       -0.5498687 0.06910027 0.14208293 -0.43522742
000310 be 83 f9 be eb b9 d1 bc da ad 03 3f 1a e1 4e 3d
       -0.48733324 -0.025601348 0.5143715 0.050507642
000320 0b 84 23 bf 8f c3 5c bc 51 61 26 3f d6 08 bf 3d
       -0.63873357 -0.013474359 0.64992243 0.09327857
000330 9a 3f eb 3e 08 1a 03 bf 98 a3 18 bf db b9 25 3f
       0.45946962 -0.51211596 -0.59624624 0.6473672
000340 18 cd 2d be 90 05 2e bf 62 80 46 3e 78 42 1d 3f
       -0.16972768 -0.6797724 0.19384912 0.6142955
000350 ab fc 14 3d 34 20 cd 3e 3d 5a 8d 3e a8 0a 0b bf
       0.036373775 0.40063632 0.2760791 -0.54313135
000360 23 d5 15 bd 31 aa 14 3f f2 d1 d0 bd 48 99 02 bf
       -0.036580216 0.5807219 -0.10196294 -0.5101514
000370 6a 5c 05 bd 34 5b e2 3e ce ad df bc c6 06 dd be
       -0.032558836 0.44210207 -0.027304556 -0.4316923
000380 27 16 6d bf cb fc 51 3f 0d 65 64 bf c7 26 3d 3f
       -0.92611927 0.82026356 -0.8921669 0.73887295
000390 f4 69 83 3e 6e 16 c3 3e 4f 73 87 be e9 3f c5 be
       0.25666773 0.3810305 -0.2645516 -0.38525322
0003a0 70 a8 b5 be 10 0f cc 3e a3 38 cd 3d 4f df 09 bf
       -0.3548007 0.39855242 0.10020568 -0.53856367
0003b0 61 c7 44 3f 78 1d 2b 3e 06 a6 2b bf c1 e5 40 be
       0.7686673 0.1671046 -0.67050207 -0.18837644
0003c0 a7 8c 58 3f fe 03 17 3f 1e dc 1f 3f 9c ad e5 3e
       0.8458962 0.58990467 0.6244525 0.44859016
0003d0 05 b9 e4 3d 88 74 13 3f 69 1d 1f be 33 c9 2d bf
       0.11168102 0.5759969 -0.15538563 -0.6788513
0003e0 bb b3 d1 3e c4 1c 03 3f e5 f6 0d bf ac d6 ea be
       0.40957436 0.5121577 -0.55454856 -0.45866907
0003f0 e9 b9 d8 3e 4c 44 60 bc 41 6a dd be 11 1e f8 3b
       0.42329338 -0.013688158 -0.43245128 0.0075719436

net.0.bias f4 [64]
000000 89 c0 a2 3e 7a a4 05 3d da 79 30 be f3 59 7e 3c
       0.31787518 0.03262756 -0.17233983 0.015524375
000010 ae 38 d9 3e e9 f2 1d 3f df 49 11 3f 07 b4 e8 3e
       0.42426056 0.61698776 0.56753343 0.4544985
000020 7e 9d 49 be 3c 4a 21 be 6b 81 33 3c 28 77 6f 3e
       -0.19688985 -0.15750974 0.010956149 0.23385298
000030 b2 a8 ce 3e 78 eb 11 3e 14 56 f9 3d 93 1e 76 be
       0.4036308 0.1424998 0.12174621 -0.240351
000040 71 6d 92 3e 52 38 ff bd 65 5b 9d 3d bf 3a bd 3e
       0.28599122 -0.12461914 0.07683448 0.36958882
000050 fd ef eb bc 4e 6a 39 3d de ba 02 3f 48 25 93 3c
       -0.028800959 0.045267396 0.51066387 0.017962113
000060 bd 2f b9 be 9a 4f 76 3d 6f f4 11 be 5c 1f d4 3c
       -0.36169234 0.060134508 -0.142534 0.02589386
000070 00 9f 1c 3f ca 38 1a 3f 2b c1 ba 3e 7b 6d a2 3e
       0.61180115 0.60242903 0.364755 0.31724152
000080 1d df 14 be e4 12 9f 3e 16 c4 0e 3f 71 22 05 3f
       -0.14538236 0.310691 0.55767953 0.5200568
000090 f4 b7 e3 3e 07 ea d8 be 9d 0c fd 3e 8d e5 83 3c
       0.44476283 -0.4236605 0.49423686 0.01610067
0000a0 a7 2f 64 3e 41 36 9f 3e a1 e9 73 3e dd 97 2c be
       0.22283803 0.3109608 0.23819591 -0.16854806
0000b0 a5 0d c7 3e 3c 75 02 3e 67 20 30 3d 73 d3 84 ba
       0.38877597 0.12740034 0.04299965 -0.0010133818
0000c0 ec ea d2 3d 24 e4 4b 3d 50 ac a6 3c ae c0 62 be
       0.10298714 0.04977812 0.020345837 -0.22143814
0000d0 40 1b 73 3b e3 7c 13 be c9 4b 31 bc cc e5 84 3d
       0.00370951 -0.14403109 -0.010821291 0.06489143
0000e0 12 09 75 bd 9b 03 82 3e f3 b9 d9 3e 81 97 82 3e
       -0.059823103 0.25393376 0.4252468 0.25506213
0000f0 69 dc 3f 3e c4 ad d0 3e e2 81 0a bd 9c 74 6a bc
       0.18736424 0.40757573 -0.033815272 -0.014310028

net.2.weight f4 [64, 64]
000000 79 34 af 3d 6c 5a 35 3e 26 5b 42 3e c0 6f 7d 3d
       0.0855493 0.17710274 0.18980083 0.06187415
000010 2d e7 e3 3d 1a c9 11 bc e7 53 c7 3d f9 b7 fc 3d
       0.11128078 -0.008898044 0.097328 0.123397775
000020 bd 1b 10 3e a0 37 39 3e 57 32 83 3e aa 27 6c 3e
       0.14073081 0.18087626 0.25624344 0.23062006
000030 28 e3 d4 3d 17 e4 44 3e 1c 85 72 3e 3f 96 d6 3d
       0.10394889 0.19227634 0.2368359 0.10477876
000040 74 a8 87 3e 53 f0 8a 3e b8 cd b8 3d 7a a0 60 3e
       0.26495707 0.27136478 0.09023613 0.21936217
000050 60 9b 8a 3e ed b6 26 bc 7f ed 36 3e 40 79 c6 3e
       0.27071667 -0.010175449 0.17864035 0.3876438
000060 8d 76 9c 3e 69 e8 a6 3e 4d 41 8e 3e c0 fb b8 3e
       0.30559197 0.3259919 0.27784196 0.3612957
000070 53 89 13 3d f5 a6 c7 3d b6 55 12 3e 4b 35 38 3d
       0.036019634 0.097486414 0.14290509 0.0449727
000080 19 75 07 3e 84 6c 32 3e ea 48 16 3e fd 46 4c 3e
       0.13228263 0.17424208 0.14676252 0.19948955
000090 f7 65 1a 3e 73 8c 9b be ec 19 59 3e 5d a1 7c 3e
       0.15077959 -0.30380592 0.21201295 0.2467093
0000a0 db 36 a4 3d 62 5d b8 3d 48 43 7a 3e de 08 96 3e
       0.08018275 0.09002186 0.24439728 0.2930364
0000b0 d4 00 49 3d 01 f5 9b 3e 0f 3b 91 3e 2b 23 c0 3e
       0.049073055 0.3046036 0.2836537 0.3752683
0000c0 4b 8e 67 3b de 61 4a 3e cf 4c 8b 3e 9f e3 51 3e
       0.0035332616 0.19763896 0.27207038 0.20496987
0000d0 3d e9 b3 3d 3e b3 5c 3e 96 a1 39 3e ea 04 c5 3e
       0.08784721 0.2155275 0.18128046 0.38480312
0000e0 3e 7c c0 be b1 68 e8 3d 2c 18 7f 3e 6b a2 7f 3e
       -0.3759479 0.11348093 0.24911565 0.24964301
0000f0 d9 46 aa be 75 49 73 3d a5 ac 88 3e c7 b4 54 3e
       -0.33257177 0.059396226 0.26694217 0.20772086
000100 3c 9e ed 3d 2c 47 3a 3d e5 2c 5d 3d fd 2d b6 3e
       0.116024464 0.04547803 0.053997893 0.3558196
000110 30 12 f1 3d 82 e2 05 3f 30 e6 58 be 0f 81 51 3d
       0.11771047 0.5229875 -0.2118156 0.05114847
000120 39 32 42 bd 99 34 75 3d 63 d8 21 bc 14 7e 81 3d
       -0.047411177 0.059864614 -0.009878251 0.063228756
000130 93 a0 97 bd c2 37 74 3e c0 d3 f5 3d 5d d5 ad 3e
       -0.07403674 0.23849395 0.12003279 0.33951846
000140 47 91 81 be 3f 00 a4 be 47 bc 20 3d af 8d eb bd
       -0.2530615 -0.32031438 0.039242055 -0.115016334
000150 e0 70 0c be d0 6b 69 bd 41 96 95 3e 57 5b 21 3b
       -0.13714933 -0.056987584 0.29216197 0.0024621093
000160 84 c2 4c 3e 51 43 97 3d 22 74 fa 3d 92 02 42 bf
       0.19996077 0.073858865 0.12229182 -0.7578517
000170 63 e4 82 3e 76 3c 38 be e2 6e b4 3c a6 d3 0e be
       0.2556487 -0.17991814 0.02202553 -0.13947925
000180 67 e5 88 3e 3b fe 94 3e 54 a4 01 3e 3e f3 4f be
       0.2673752 0.29100212 0.12660342 -0.20307633
000190 e5 ba 2e 3e bc 05 91 3f 64 39 f0 be 81 7d f6 be
       0.17063482 1.1329875 -0.46918786 -0.48142627
0001a0 45 a3 3a 3e 9e 9c 45 3e 49 2d 42 3e 0e eb 08 3d
       0.18226345 0.19298026 0.18962587 0.03342729
0001b0 d5 ee 33 be f0 96 14 3e bb e9 0a bf e8 91 f5 be
       -0.17571576 0.14510703 -0.54262894 -0.4796288
0001c0 7e e7 23 3d d2 ee 6d bc 28 95 ee 3b 67 f6 53 3e
       0.04001569 -0.014522271 0.0072809644 0.20699464
0001d0 68 b6 b2 bd f3 ef cb be c5 60 67 bf 58 14 42 bf
       -0.087261975 -0.39831504 -0.90382034 -0.7581229
0001e0 8d bc 91 bc d3 94 ab 3d 96 67 d9 3c 37 eb 35 3e
       -0.017790103 0.08377995 0.026538651 0.17765509
0001f0 fc 82 f3 3e ee 8e 3d ba 9b 77 81 bd 02 8d ce 3d
       0.4756087 -0.0007231076 -0.06321641 0.10085489
000200 42 1e 78 3c 9f 6e 56 3b a4 b3 82 bd 9c b1 60 3d
       0.015143933 0.0032719744 -0.0638192 0.05485688
000210 49 d2 09 3d b5 89 6d bc 3a d4 14 3d f8 06 6c bd
       0.03364781 -0.014498164 0.036335208 -0.057623833
000220 e9 68 0a bc 35 f6 10 be 5c 2e c6 bc 9d 76 af 3d
       -0.008447864 -0.1415642 -0.024192028 0.085675456
000230 bb 6a 90 3d 59 ed b7 3c 1c 49 b2 bd 54 ee 83 3d
       0.07051607 0.022452043 -0.08705351 0.06441942
000240 16 1b ed bd b3 db 46 3c 0a 73 da bc 86 31 5c bb
       -0.11577432 0.012137341 -0.026666183 -0.0033598854
000250 c6 89 98 bd c6 2d b4 bd b0 93 9f bb 42 c3 ed bd
       -0.07448153 -0.08797793 -0.0048699006 -0.11609508
000260 2f 95 f7 bc 9a 69 1d 3d 57 65 7f 3d f4 09 f2 bd
       -0.030222503 0.038430788 0.062352505 -0.11818305
000270 f0 c2 91 bd 8c 97 cd bd d6 99 66 3c 59 8c dd bd
       -0.071172595 -0.10038671 0.014074763 -0.10817785
000280 a6 bf 91 bd 5c a7 22 bd 92 22 1b be bf 4e cb bd
       -0.07116632 -0.039710388 -0.15149906 -0.09927129
000290 21 66 6f bd 13 ab af 3d d6 b7 00 be dc 15 5d 3d
       -0.058447007 0.08577552 -0.12570128 0.053975925
0002a0 c8 f1 82 3d 36 e2 ac bd 29 24 08 3c 22 d6 5f 3d
       0.06393772 -0.08441584 0.0083094025 0.054647572
0002b0 2d 00 70 3d c4 05 18 bd f4 7a 83 bd f7 23 a1 3c
       0.058593918 -0.037114874 -0.06419936 0.01967047
0002c0 21 87 97 3d 6e 92 fa bb 4f 1f 4f bd 61 4b b7 bc
       0.07398821 -0.0076468503 -0.050566968 -0.02237481
0002d0 98 93 23 3c 8d ff b9 bd 55 86 08 bd 6c 2e 10 bd
       0.00998392 -0.090819456 -0.033331234 -0.03520052
0002e0 f0 02 d0 bd 8e 82 47 bd 8e a5 6b bb f3 07 83 3d
       -0.1015681 -0.04870849 -0.0035956833 0.063980006
0002f0 f6 ff d9 bd f0 10 95 bc d4 a4 95 bd e0 34 ac bd
       -0.10644524 -0.018196553 -0.07306829 -0.084085226
000300 a9 f8 e7 bd e0 69 87 bd d6 97 6d 3d c1 a9 1d bd
       -0.11326725 -0.06611991 0.05800613 -0.038491968
000310 47 6f c1 3c b5 8d e0 3c 44 de 21 bd d5 aa b6 3d
       0.023612631 0.027411321 -0.03951861 0.089193024
000320 22 e1 9f 3d 15 69 67 3d 53 30 ce 3c 35 79 fe bc
       0.078066126 0.0564967 0.025169527 -0.031063655
000330 63 06 c0 3c 09 a6 0b bd ca 1f 6c 3d df f2 8d bc
       0.023440545 -0.03409389 0.057647504 -0.017327724
000340 a5 f1 b1 3d 96 1b b2 bd 56 01 52 3d fb f4 eb bc
       0.08688668 -0.08696668 0.051270805 -0.02880334
000350 0b 18 a3 bd 32 b0 22 3c ec 5e eb bd a2 70 b9 3d
       -0.0796357 0.009929704 -0.11492714 0.09054686
000360 b4 3a 66 bb c5 ef 5e bb c0 20 2d 3d 31 65 ea bd
       -0.0035130205 -0.0034017425 0.04226756 -0.11445082
000370 b4 35 08 3c d3 49 58 3b be 22 80 3d 20 33 17 3d
       0.008313585 0.0033002987 0.062566265 0.03691399
000380 64 dd 26 bc af 60 9a bd 93 84 a4 3d 0e db 0a be
       -0.01018462 -0.07537972 0.08033099 -0.13560125
000390 eb 32 3e 3d ba 63 7f bd ee 93 1c bd 64 92 a3 bc
       0.046435278 -0.062350966 -0.038227014 -0.019967265
0003a0 94 b2 f6 3c d7 4b c7 3c 4f ca 50 bc 95 4a 08 be
       0.03011445 0.024328155 -0.012743547 -0.13309701
0003b0 6d 5e 1a be f0 aa a3 3d d3 5f 6b 3d 00 6d 02 be
       -0.15075083 0.07991588 0.057464432 -0.12736893
0003c0 1d b7 7d 3d 3b 75 5f bd a1 1a c2 3d 87 d9 03 be
       0.06194221 -0.05455516 0.09477735 -0.12875949
0003d0 fa b8 a2 bd ef 92 f3 bd 7c f9 99 bd f8 55 5d bd
       -0.07945438 -0.1189326 -0.075182885 -0.054037064
0003e0 13 76 d8 bd 06 92 d3 bd 36 8c a6 bd 28 96 1e be
       -0.10569396 -0.10330586 -0.08132212 -0.15486968
0003f0 57 41 49 3d 28 df c5 bd 70 79 11 be 24 4a 11 be
       0.04913458 -0.09661704 -0.14206481 -0.14188439

net.2.bias f4 [64]
000000 97 a4 04 3e b0 07 8a bd 52 95 38 3d 73 72 ed 3c
       0.12953411 -0.067397475 0.045064278 0.028985238
000010 88 ab 17 3e f2 51 c3 3d 3f 75 5a 3d 98 84 b0 3c
       0.14811528 0.09537114 0.05333447 0.0215476
000020 9c 81 07 3e 82 c9 db 3d cc fe 87 3c c4 94 e0 3c
       0.13233036 0.10731794 0.016600989 0.027414687
000030 63 ae 18 3e 0a 8f bc 3d 36 6d 04 3e 7d a8 84 bd
       0.14910273 0.0920697 0.12932286 -0.06477449
000040 21 55 42 3d 6d de 14 3e f3 af 5c 3e 2b 2d 0c 3d
       0.047444467 0.14537974 0.21551494 0.034222763
000050 8c f1 a7 3d ef db 43 3e 6e 11 14 bc 64 e9 a0 3d
       0.08200368 0.19126867 -0.009037359 0.07857016
000060 24 e7 08 be 01 c9 f9 3d 2f 34 ad 3d 7d 5e 5a 3b
       -0.13369423 0.121965416 0.08457219 0.003332048
000070 7a 1a 14 bc 66 0c 51 bd 2e b9 f9 3d db 9e 97 3a
       -0.009039516 -0.051037215 0.12193523 0.0011567728
000080 b5 b2 5f bd dc 85 e8 3d 26 9d ec bd 67 69 52 3e
       -0.054613788 0.11353657 -0.11553411 0.2054802
000090 f4 c8 a7 3d 03 6b 64 3c e7 0b 0c 3e 0b 41 7a 3e
       0.08192626 0.013941529 0.13676415 0.24438874
0000a0 e1 e8 a4 3d 51 61 52 3e e9 40 7f 3d 25 47 ac be
       0.080522306 0.20544936 0.062317763 -0.3364803
0000b0 19 6e 44 3e 7a b7 3d 3e 0e 2d 10 be 20 74 a2 bd
       0.19182624 0.18527022 -0.14079687 -0.07932305
0000c0 0b 47 75 3e a7 4d 94 ba df a4 bb 3d f2 55 46 3d
       0.23952882 -0.0011314646 0.09162306 0.048421808
0000d0 5d c0 11 3e e7 85 07 be e2 6e 5c 3d 50 14 ad 3d
       0.14233537 -0.13234673 0.053816684 0.0845114
0000e0 71 02 a6 3d 83 e6 14 3e 0c 7c cd 3d 4f d6 08 be
       0.081059344 0.14541058 0.10033426 -0.13363002
0000f0 bb 69 47 3e 75 a3 42 3d 7d 79 24 3e ea 29 c1 bd
       0.19473927 0.047519166 0.16061969 -0.094318226

net.4.weight f4 [1, 64]
000000 5c 55 5e 3e ca b6 88 bf d0 c1 01 bd a4 2f b1 bd
       0.2171225 -1.0680783 -0.031678975 -0.08651665
000010 f6 3c 83 3e 98 47 51 3e aa 67 83 3e 9a 98 b8 bd
       0.25632447 0.20437467 0.25665027 -0.090134814
000020 1e 76 87 3e 63 a2 62 3e 47 d2 7e bd 93 13 66 3e
       0.26457304 0.22132258 -0.062212255 0.22468404
000030 0a 81 97 3e 5d 45 a6 3e 67 e5 58 3e aa ac 8b bd
       0.29590636 0.32474795 0.2118126 -0.068200424
000040 24 3a 3d bd 0b 21 53 3e 3b 83 90 3e 00 b4 75 3e
       -0.046198025 0.20618074 0.2822512 0.23994446
000050 24 25 54 3e 36 3c 76 3e 0d 7e d5 bd 36 06 33 bd
       0.20717293 0.24046406 -0.10424433 -0.043707095
000060 5f a6 98 bd 09 15 4d 3e 71 09 81 3e 00 59 a5 bd
       -0.07453608 0.20027556 0.25202516 -0.08073616
000070 05 d9 ae bd 0c 3b 1f bd 33 93 7f 3e 45 a9 61 3d
       -0.08537487 -0.03887467 0.24958496 0.05509307
000080 22 07 c0 bd 01 66 8a 3e 51 47 4a bd 95 a8 a3 3e
       -0.093763605 0.27030948 -0.04938442 0.31964555
000090 c7 97 87 3e 4b 80 d1 bd bf 19 9b 3e ef 32 5b 3e
       0.26482984 -0.10229548 0.3029308 0.21406148
0000a0 dc 72 86 bc 15 b2 51 3e 9e 9c b9 bd b7 48 4c bf
       -0.016412191 0.20478089 -0.090630755 -0.79798454
0000b0 fa 2b 70 3e e4 4b 60 3e d1 a7 48 bc 30 5a 79 3d
       0.23454276 0.2190395 -0.012247042 0.060877025
0000c0 62 41 85 3e b6 e2 11 be 26 8f 67 3e dc 7e 91 bd
       0.26026446 -0.1424664 0.226132 -0.07104275
0000d0 75 05 36 bf 9f 97 86 bd 87 45 4e bd ff 91 b1 bd
       -0.71102077 -0.06571888 -0.050359275 -0.08670425
0000e0 b1 8b 86 3e c1 91 5a 3e 67 2a 4e 3e 94 32 01 bd
       0.2627845 0.21344663 0.20133363 -0.031542376
0000f0 ee 2d 75 3e 31 9d 97 bd 05 0a 91 3e 6d 8a da bd
       0.23943302 -0.07403029 0.28327957 -0.10670934
