heuristic_net_h64.pt (torch, 21389 bytes, 5 tensors)

net.0.weight f4 [64, 4]
-0.02963797 -0.3932496 0.595172 0.7881163 1.0864519 -0.6798479 -0.25206587 -0.38111338
0.26672485 1.5675207 0.16033366 0.40870965 0.42177805 1.1581181 -0.27912784 -0.25661916
-0.34894913 0.7352716 -0.088729925 -1.0125716 -0.70403796 0.36464715 -0.97661704 0.42737845
-0.5286875 -0.46938005 -0.49855188 -1.1498718 0.024297206 0.78197205 -0.14108458 -0.8182411
0.800141 0.013536502 -0.84143823 -0.017391995 0.6754541 0.81207997 -0.8307801 -0.18030486
-0.008520334 -0.67759806 0.01334744 0.70385987 0.67694896 0.052217606 -0.71813077 -0.0604989
-0.013297127 0.8530428 0.008593763 -0.88514465 -0.14738889 -0.7584825 -0.20460624 -0.7045612
-0.09638978 0.7731925 -0.06554733 0.34674162 -0.4630381 -0.40713277 0.6317435 0.101920225
-0.57255495 1.0631387 -0.34035528 0.40831003 0.22614123 -0.009134216 1.0567918 0.0700178
-0.69061726 0.001478391 0.7215241 -0.0004109718 0.8913589 0.30005267 0.19900927 -0.98060524
-0.33190575 -0.2538054 1.1067077 0.5136587 -0.25866792 0.730848 0.3423286 -0.39506567
-0.038152076 0.84195095 -0.85759336 -0.4994143 -0.0008804396 -0.74790233 0.0016410339 0.77680653
0.79370564 -0.2675259 -0.08977247 0.7095932 -1.3988556 -0.24123313 -0.25664774 0.09663024
0.2950019 0.024311695 -0.5930682 0.06532429 -0.57261 0.089034535 0.5899531 -0.11238423
-0.12350523 0.3634957 0.23858708 -0.68406516 -0.48217675 0.0050297882 0.5047739 -0.0059106844
-0.25431317 0.5435724 -0.007855597 0.122086145 -0.6521182 -0.16693746 0.65568364 0.27664462
0.25375122 -0.5667984 -0.030195735 0.6052325 -0.53156364 -0.12107472 0.57938635 0.5791375
0.33316594 0.15096454 1.6818262 0.46426043 -0.13042445 -0.21324743 0.57449186 0.9351364
0.087366305 -0.32530665 -0.78500056 0.96066797 0.7504181 0.001250905 -0.79188186 0.0025823654
0.2914595 -0.0088954 -0.679996 0.09025295 -0.5879543 -0.15744601 0.1370822 0.9884387
0.9111476 -0.35002425 -0.008186652 0.5015779 -0.0002230571 -0.64508945 0.003957202 0.6700492
1.0587647 0.27719623 0.2856487 0.9985075 0.17538375 -1.0665493 0.45083016 0.14133698
-0.5473509 0.0017832539 0.5714479 -0.0032093723 -0.4789714 -0.23806448 0.56730336 0.16590682
1.4067825 -0.39822674 0.20314121 -0.20636094 -0.76379544 -0.6735784 -0.19910471 -0.199138
0.6460795 -0.33717242 -0.8109104 0.69170254 0.15732092 -0.050781097 1.2091758 -0.16266681
-0.15709986 1.2214313 0.51373297 0.29275525 -0.021620203 -0.42355317 -0.86207974 0.48445773
-0.619148 0.30069062 0.5914323 -0.20142189 -0.13272943 -0.3357292 0.4225384 -1.3083793
-0.36889735 -0.16998965 0.71844065 -0.60731226 0.6218904 0.83119243 0.07845317 -0.28875166
-0.9689185 0.90362513 -0.18163283 -0.38608363 0.34643728 0.94239587 -0.5914886 -0.46590692
1.2564126 0.2730689 0.01637337 -0.53881353 -0.38211745 0.648088 -0.8711032 0.28100383
0.6267742 0.19897272 -0.43715972 0.31417677 0.29186502 -0.5774631 1.1511482 0.77268773
-0.16603632 -0.011502129 0.98158526 0.64220345 1.3491203 -0.11882659 -0.31686336 -1.2957467
00000000: 54cb f2bc 0358 c9be 315d 183f fdc1 493f
00000010: db10 8b3f 830a 2ebf c70e 81be 4b21 c3be
00000020: 2990 883e 85a4 c83f 822e 243e 6442 d13e
00000030: 4bf3 d73e 373d 943f d8e9 8ebe 9663 83be
00000040: 76a9 b2be c23a 3c3f 09b8 b5bd f29b 81bf
00000050: d53b 34bf 08b3 ba3e 9303 7abf 59d1 da3e
00000060: 1058 07bf 9552 f0be 3142 ffbe 002f 93bf
00000070: ef0a c73c 522f 483f 7a78 10be 4078 51bf
00000080: 0ad6 4c3f 34c8 5d3c 7f68 57bf a879 8ebc
00000090: 8fea 2c3f 79e4 4f3f 01ae 54bf d6a1 38be
000000a0: df98 0bbc 1177 2dbf 39af 5a3c 2930 343f
000000b0: 874c 2d3f 21e2 553d 6bd7 37bf b2cd 77bd
000000c0: 31dc 59bc 0361 5a3f dbcc 0c3c d798 62bf
000000d0: 1ded 16be e92b 42bf 4c84 51be 1f5e 34bf
000000e0: 0168 c5bd f2ef 453f ae3d 86bd 1e88 b13e
000000f0: 5413 edbe b573 d0be f1b9 213f 8dbb d03d
00000100: f692 12bf ee14 883f 0c43 aebe 030e d13e
00000110: 9191 673e aea7 15bc f444 873f 7e65 8f3d
00000120: 4bcc 30bf 92c6 c13a ceb5 383f b477 d7b9
00000130: 1930 643f 81a0 993e 16c9 4b3e f208 7bbf
00000140: 8def a9be c8f2 81be 99a8 8d3f 237f 033f
00000150: 1f70 84be db18 3b3f b245 af3e 0c46 cabe
00000160: 5a45 1cbd 198a 573f 3d8b 5bbf 3bb3 ffbe
00000170: 4dcd 66ba 8776 3fbf f617 d73a cbdc 463f
00000180: 4b30 4b3f 28f9 88be a1da b7bd e6a7 353f
00000190: b30d b3bf d105 77be 5567 83be 13e6 c53d
000001a0: 7d0a 973e 5229 c73c 51d3 17bf bec8 853d
000001b0: 9296 12bf bd57 b63d 2b07 173f b429 e6bd
000001c0: 4ff0 fcbd 1c1c ba3e 2c50 743e e51e 2fbf
000001d0: dfdf f6be ecd0 a43b dd38 013f 6aae c1bb
000001e0: 5635 82be 9027 0b3f c3b4 00bc 4d08 fa3d
000001f0: 38f1 26bf a7f1 2abe e2da 273f 5da4 8d3e
00000200: aeeb 813e b319 11bf 0c5d f7bc 84f0 1a3f
00000210: 8e14 08bf 06f6 f7bd aa52 143f 5b42 143f
00000220: ba94 aa3e 7396 1a3e 1546 d73f 8bb3 ed3e
00000230: fd8d 05be 895d 5abe e611 133f 1965 6f3f
00000240: 1bed b23d 988e a6be ccf5 48bf 56ee 753f
00000250: 671b 403f 68f5 a33a c5b8 4abf e73c 293b
00000260: 2e3a 953e 03be 11bc 3814 2ebf 8ad6 b83d
00000270: 2c84 16bf 8739 21be 475f 0c3e 520a 7d3f
00000280: f840 693f 6136 b3be 4f21 06bc 6967 003f
00000290: 6fe4 69b9 9524 25bf 6bab 813b 5888 2b3f
000002a0: 9a85 873f aaec 8d3e 8c40 923e 309e 7f3f
000002b0: cc97 333e b084 88bf 36d3 e63e a4ba 103e
000002c0: 301f 0cbf 12bc e93a 694a 123f 5554 52bb
000002d0: bd3b f5be 2dc7 73be cb3a 113f 7ae3 293e
000002e0: 7311 b43f 60e4 cbbe 4004 503e 4850 53be
000002f0: 1988 43bf a26f 2cbf 1be2 4bbe d5ea 4bbe
00000300: 7765 253f dda1 acbe d397 4fbf 6b13 313f
00000310: bc18 213e d7ff 4fbd 46c6 9a3f 2192 26be
00000320: c9de 20be dc57 9c3f 0184 033f 04e4 953e
00000330: da1c b1bc f6db d8be 42b1 5cbf d80a f83e
00000340: 7c80 1ebf 1ff4 993e 1b68 173f 8a41 4ebe
00000350: 39ea 07be b3e4 abbe f456 d83e f978 a7bf
00000360: 1de0 bcbe c411 2ebe baeb 373f d178 1bbf
00000370: 3634 1f3f 07c9 543f 0eac a03d 42d7 93be
00000380: 0b0b 78bf fa53 673f f5fd 39be c1ac c5be
00000390: 3a60 b13e db40 713f cc6b 17bf 5a8b eebe
000003a0: 21d2 a03f b0cf 8b3e 7221 863c afef 09bf
000003b0: e6a4 c3be 18e9 253f 9f00 5fbf bcdf 8f3e
000003c0: 4674 203f 81bf 4b3e 66d3 dfbe c7db a03e
000003d0: 556f 953e 9fd4 13bf d358 933f ddce 453f
000003e0: 6d05 2abe 6d73 3cbc 2c49 7b3f 7267 243f
000003f0: f9af ac3f 5b5b f3bd ea3b a2be 07db a5bf

net.0.bias f4 [64]
0.05450945 0.50747305 0.57414126 0.2251967 0.25064838 0.450413 -0.016329901 0.15113576
-0.061868962 0.11275524 -0.020602092 -0.08468178 0.025893334 0.6903573 0.79027444 0.049566668
0.19827127 0.8853202 0.05403568 0.2569956 0.19556034 0.11230955 -0.03976182 -0.023858512
0.1143229 -0.9613089 0.50723225 0.032689873 0.17447351 0.036615383 0.50299853 0.1457364
0.16630413 0.5515722 0.7663454 -0.006993303 0.14087355 -0.054283913 0.6038085 0.04236804
0.17590187 -0.024993196 0.42963225 0.3630439 0.04049185 0.06599088 1.098582 0.30565077
-0.10469872 0.9807739 -0.21374996 -0.093295 0.09152599 0.57029164 0.44203877 0.47307086
0.309212 0.05763666 -0.0579855 -0.21800122 0.53371555 0.31745523 0.30642837 0.34484205
00000000: 4d45 5f3d c1e9 013f ecfa 123f f799 663e
00000010: fc54 803e 889c e63e 49c6 85bc 55c3 1a3e
00000020: 4f6a 7dbd 38ec e63d b8c5 a8bc a46d adbd
00000030: 421e d43c 42bb 303f 6d4f 4a3f 6b06 4b3d
00000040: a007 4b3e 58a4 623f 8454 5d3d ed94 833e
00000050: f840 483e 8d02 e63d 4add 22bd ed72 c3bc
00000060: 2022 ea3d 5718 76bf f9d9 013f d1e5 053d
00000070: 2fa9 323e 03fa 153d 83c4 003f ec3b 153e
00000080: a14b 2a3e d633 0d3f 362f 443f 1428 e5bb
00000090: 2841 103e cf58 5ebd 3293 1a3f 1c8a 2d3d
000000a0: 9f1f 343e 88be ccbc c2f8 db3e e4e0 b93e
000000b0: c8da 253d 3a26 873d 569e 8c3f 427e 9c3e
000000c0: 486c d6bd 0014 7b3f 45e1 5abe 7311 bfbd
000000d0: fa71 bb3d a2fe 113f e852 e23e 5836 f23e
000000e0: 0951 9e3e 6b14 6c3d 3482 6dbd b63b 5fbe
000000f0: 95a1 083f 7e89 a23e 2ee4 9c3e 238f b03e

net.2.weight f4 [64, 64]
0.24186221 0.23744112 -0.36189842 0.43335316 -0.010142674 -0.15662552 0.079805754 0.050406735
0.2648979 0.30567962 0.22032832 0.19363281 0.358802 0.29780534 0.06268477 0.23159315
-0.2649275 0.30290508 0.05618424 0.1820805 0.12334405 0.200703 0.14629212 0.25925943
0.042309113 0.23564517 0.041306037 0.0057996446 0.22717796 0.2598287 0.18588121 0.045194704
0.098867156 0.030640583 -0.32873932 0.3923187 0.13101146 0.16670322 0.31317607 0.16301419
0.004924337 0.27361724 0.19924916 -0.109739706 0.19167581 0.13674484 0.35061884 0.24107328
0.19884789 0.23049085 0.30150032 0.27605188 0.10876672 0.37875065 0.17500062 0.42500454
-0.056503486 0.37851536 0.11692913 0.11520705 0.09683609 0.19196281 0.17303416 0.22079115
0.40975106 0.32903934 -0.22415406 0.22615916 0.09119553 0.0040066615 -0.04817389 0.18993519
0.15490046 0.15072407 0.2575345 0.12708853 0.2726973 0.2549525 0.119137384 0.09900542
-0.24666914 0.19103828 0.11627155 0.29531857 0.12955305 0.16855876 0.04490319 0.08359808
-0.07324918 0.15492395 0.1992123 -0.011700954 0.20072943 0.13124321 0.07773992 0.079652995
0.088067144 0.10278696 -0.3269407 0.4974453 0.17513727 0.08852873 0.23873317 0.27212587
-0.105055384 0.21948665 0.21890415 -0.014370876 0.3149701 0.104957126 0.32311422 0.29884923
0.25248855 0.1420038 0.2250949 0.21800317 0.044600748 0.26050922 0.2834899 0.28308746
0.04405754 0.13876987 0.2372064 0.11258497 0.2618661 0.16665013 0.27067098 0.32777163
0.07538115 -0.003466107 -0.116818115 0.12380828 0.051895782 -0.1492398 0.007661298 -0.06293513
0.078593194 -0.09653947 -0.08460217 0.07282973 0.10370673 -0.12045112 0.06508569 -0.050800085
-0.06151943 0.07820222 -0.033836678 0.07692282 -0.073519304 -0.042763084 -0.03475669 0.02622191
0.093168095 -0.024468407 -0.06851829 0.04034452 -0.066484705 -0.04496193 -0.10265558 0.06858444
-0.07720947 0.012329653 -0.13466404 0.05107345 0.053403776 -0.077804774 -0.054482233 0.04083365
0.09376599 -0.08473599 -0.018014884 0.018818887 -0.098831326 -0.0928278 -0.14764196 -0.083020926
-0.031920504 -0.1360099 0.03846717 -0.07338125 0.10699588 0.12488288 -0.10761888 -0.08008911
-0.018018186 -0.033107296 -0.011355713 0.036430374 -0.12905893 -0.10861932 0.0071469694 -0.045515135
-0.44014835 0.114778936 -1.7081199 -0.12490146 0.5809825 -0.15701084 0.6890746 0.45961773
0.3783655 0.3245305 0.90469086 0.25278866 0.43478885 0.6166571 -1.0391836 0.38941383
-0.1389515 -0.31443685 0.47439054 0.08119669 -0.25635034 0.5392528 0.20071024 0.8308329
0.1701624 -2.5099485 0.2823176 0.4537583 0.68919027 0.4651547 -0.81181514 0.4879736
0.4514149 0.4014563 -1.0064069 0.5878824 -0.9710207 0.28651407 -0.31067377 -0.8674097
-0.23404981 0.68269616 0.3294482 -0.54500765 0.7816685 0.42500246 -0.6642551 -0.20722973
-0.06350958 -0.35878718 0.40030405 -1.1742929 0.3015971 0.3141697 -0.008853497 0.0561324
0.361528 0.2013534 0.19988841 0.06892509 -0.28620622 -1.5371892 -0.220974 0.7267132
00000000: baaa 773e c423 733e c04a b9be 77e0 dd3e
00000010: 752d 26bc 7162 20be 3371 a33d 4b77 4e3d
00000020: b3a0 873e 0a82 9c3e bf9d 613e ae47 463e
00000030: e5b4 b73e f179 983e df60 803d c126 6d3e
00000040: 94a4 87be 6016 9b3e 7221 663d 5073 3a3e
00000050: ce9b fc3d 1685 4d3e 9acd 153e a7bd 843e
00000060: 524c 2d3d f84c 713e 8530 293d f20a be3b
00000070: 57a1 683e 4408 853e a557 3e3e 151e 393d
00000080: dd7a ca3d f601 fb3c 8550 a8be ffdd c83e
00000090: de27 063e 40b4 2a3e 9d58 a03e 31ed 263e
000000a0: 555c a13b 8f17 8c3e f907 4c3e 36bf e0bd
000000b0: aa46 443e d706 0c3e 5084 b33e eadb 763e
000000c0: c89e 4b3e cb05 6c3e 405e 9a3e ac56 8d3e
000000d0: 16c1 de3d 9beb c13e 5d33 333e 329a d93e
000000e0: 3370 67bd c4cc c13e 8a78 ef3d adf1 eb3d
000000f0: 0052 c63d e691 443e de2f 313e 1317 623e
00000100: e4ca d13e d877 a83e a488 65be 4496 673e
00000110: b9c4 ba3d 504a 833b fc51 45bd 5f7e 423e
00000120: 3a9e 1e3e 6957 1a3e 90db 833e 7f23 023e
00000130: fb9e 8b3e 2289 823e 4dfe f33d 5bc3 ca3d
00000140: d696 7cbe 8a9f 433e c71f ee3d ff33 973e
00000150: 8ea9 043e ab9a 2c3e 68ec 373d 7835 ab3d
00000160: ab03 96bd 62a4 1e3e 4ffe 4b3e 5cb5 3fbc
00000170: 048c 4d3e 9f64 063e 1b36 9f3d 1c21 a33d
00000180: 8c5c b43d f881 d23d c564 a7be 26b1 fe3e
00000190: 2f57 333e 8d4e b53d 7876 743e 1554 8b3e
000001a0: 4727 d7bd 1cc1 603e 6928 603e d373 6bbc
000001b0: c343 a13e c3f3 d63d 3a6f a53e c402 993e
000001c0: 2e46 813e 7269 113e 477f 663e 393c 5f3e
000001d0: 46af 363d 7761 853e 9725 913e d7f0 903e
000001e0: ae75 343d b019 0e3e 3ce6 723e f392 e63d
000001f0: 5013 863e 55a6 2a3e 6395 8a3e afd1 a73e
00000200: 6f61 9a3d a027 63bb 563e efbd 328f fd3d
00000210: ac90 543d 51d2 18be a00b fb3b 22e4 80bd
00000220: 78f5 a03d 7cb6 c5bd e743 adbd c127 953d
00000230: 3264 d43d 14af f6bd a54b 853d c013 50bd
00000240: ccfb 7bbd 7c28 a03d 5498 0abd b689 9d3d
00000250: 4a91 96bd 5828 2fbd 085d 0ebd 55cf d63c
00000260: eace be3d f871 c8bc 5153 8cbd 4c40 253d
00000270: 2229 88bd 002a 38bd 173d d2bd 0076 8c3d
00000280: 0020 9ebd 5002 4a3c 5fe5 09be 6532 513d
00000290: ebbd 5a3d 1c58 9fbd c328 5fbd 2f41 273d
000002a0: 6208 c03d 108a adbd f393 93bc 112a 9a3c
000002b0: 1468 cabd 801c bebd 742f 17be e006 aabd
000002c0: 13bf 02bd 2e46 0bbe c08f 1d3d e948 96bd
000002d0: a820 db3d 98c2 ff3d 4a67 dcbd c205 a4bd
000002e0: e09a 93bc 849b 07bd 500d 3abc 0438 153d
000002f0: 0628 04be ce73 debd 2031 ea3b 146e 3abd
00000300: 205b e1be 3811 eb3d aca3 dabf 56cc ffbd
00000310: 45bb 143f 73c7 20be 3167 303f 0453 eb3e
00000320: 1fb9 c13e dd28 a63e d299 673f 846d 813e
00000330: a59c de3e 3ddd 1d3f f803 85bf 4061 c73e
00000340: 4d49 0ebe defd a0be 51e3 f23e 734a a63d
00000350: 5a40 83be 790c 0a3f fc86 4d3e 77b1 543f
00000360: 0d3f 2e3e ffa2 20c0 ef8b 903e 0253 e83e
00000370: c66e 303f c228 ee3e 1ed3 4fbf add7 f93e
00000380: db1f e73e ae8b cd3e f1d1 80bf 767f 163f
00000390: d094 78bf f9b1 923e a210 9fbe 900e 5ebf
000003a0: c1aa 6fbe 2dc5 2e3f 6fad a83e 9f85 0bbf
000003b0: 6d1b 483f ec99 d93e 9f0c 2abf 0834 54be
000003c0: 5011 82bd f4b2 b7be a7f4 cc3e 3b4f 96bf
000003d0: ef6a 9a3e dada a03e 420e 11bc 16eb 653d
000003e0: 331a b93e 962f 4e3e 8caf 4c3e 9928 8d3d
000003f0: 9f89 92be 9ec2 c4bf 0247 62be e009 3a3f

net.2.bias f4 [64]
0.028508453 -0.084738076 -0.13417724 0.32666895 -0.06726042 0.2913791 0.062004164 -0.08642582
0.39545333 -0.18566558 -0.16656736 0.024137007 -0.031045316 0.008115452 0.5410922 -0.12438682
0.015874164 0.056929454 0.05354688 -0.030123327 -0.055390216 -0.18379106 0.08680778 -0.17281665
-0.026893998 0.33976954 -0.013628464 0.048122913 -0.1802742 -0.011507589 0.1971352 -0.1308918
-0.12640652 -0.09229171 -0.11372353 0.4513717 -0.081027284 0.28005373 -0.15611582 0.08810048
-0.13583992 0.064829566 0.02783773 -0.018446472 -0.061435163 -0.023553591 -0.053642288 0.01797975
-0.025172941 0.015918296 -0.123540744 0.02763051 -0.016296474 -0.030949844 0.03636877 -0.14589526
-0.09438728 -0.009009471 -0.1894281 -0.0464572 -0.019493146 -0.079985015 -0.08023395 -0.12981714
00000000: 8f8a e93c 288b adbd c265 09be 2741 a73e
00000010: d5bf 89bd a42f 953e 14f8 7d3d 0500 b1bd
00000020: dc78 ca3e 1e1f 3ebe a290 2abe f9ba c53c
00000030: bf52 febc acf6 043c 0585 0a3f 84be febd
00000040: 890a 823c dc2e 693d f953 5b3d 32c5 f6bc
00000050: dae0 62bd b933 3cbe 47c8 b13d d9f6 30be
00000060: cd50 dcbc 46f6 ad3e ec49 5fbc 881c 453d
00000070: cd99 38be 548a 3cbc cfdd 493e 8008 06be
00000080: b670 01be 7003 bdbd e2e7 e8bd 311a e73e
00000090: a2f1 a5bd 3463 8f3e d3dc 1fbe 066e b43d
000000a0: 9f19 0bbe 5dc5 843d f30b e43c 0e1d 97bc
000000b0: 70a3 7bbd 76f3 c0bc 04b8 5bbd 454a 933c
000000c0: 7c37 cebc 1667 823c ee02 fdbd 6159 e23c
000000d0: 2f80 85bc 878a fdbc 6bf7 143d 9165 15be
000000e0: 1e4e c1bd 769c 13bc 71f9 41be e849 3ebd
000000f0: 17b0 9fbc 2fcf a3bd b251 a4bd c9ee 04be

net.4.weight f4 [1, 64]
0.2354523 0.28081474 0.041113403 -1.917439 0.21776551 0.6443334 0.24853455 -0.02081284
-2.1180718 0.2912916 0.27577314 0.25139463 -0.07571683 0.30898574 -2.2075713 -0.00046049058
0.27846932 -0.05549728 -1.171906 0.30521286 0.31422204 0.29698515 -0.0061757034 0.28606775
0.32640782 -1.9659961 -0.008656117 -0.07134185 0.2915165 0.29593742 -1.9148142 -0.08011584
-0.10487055 -0.1011744 -0.043544244 -3.1047149 0.312528 0.5449187 -1.8561685 -2.8252542
0.2437438 0.32014915 0.26847515 0.27421603 0.3238892 0.0069326186 0.232019 -0.019004455
-0.09850226 0.25690565 0.25836518 0.25657195 0.2895715 0.24834526 0.297738 0.34247097
0.32798523 0.22864833 0.3166108 0.18873268 0.30925676 0.26961586 -0.09319422 0.26513782
00000000: 681a 713e f3c6 8f3e 8766 283d a46e f5bf
00000010: ecfd 5e3e 09f3 243f d77f 7e3e b07f aabc
00000020: 7d8e 07c0 2c24 953e 2332 8d3e ccb6 803e
00000030: 6d11 9bbd 6133 9e3e d948 0dc0 006e f1b9
00000040: 8893 8e3e 1e51 63bd 0401 96bf dc44 9c3e
00000050: b6e1 a03e 700e 983e 8e5d cabb 7977 923e
00000060: ed1e a73e c3a5 fbbf 63d2 0dbc ad1b 92bd
00000070: a741 953e 1c85 973e a218 f5bf c613 a4bd
00000080: 5fc6 d6bd 8634 cfbd 735b 32bd a6b3 46c0
00000090: ac03 a03e cb7f 0b3f ee96 edbf f7d0 34c0
000000a0: fa97 793e 97ea a33e 9375 893e 0b66 8c3e
000000b0: ced4 a53e 052b e33b 6496 6d3e 3baf 9bbc
000000c0: 8ebb c9bd 2389 833e 7148 843e 665d 833e
000000d0: b742 943e 384e 7e3e 1d71 983e 5b58 af3e
000000e0: aeed a73e ca22 6a3e d01a a23e 2443 413e
000000f0: e756 9e3e 170b 8a3e 9cdc bebd 25c0 873e
