heuristic_net_h128.pt (torch, 21401 bytes, 5 tensors)

net.0.weight f4 [64, 4]
0	0x3c9914c3	0.018686658
1	0x3e847c3f	0.25876042
2	0x3f9c0a68	1.2190676
3	0xbd001468	-0.03126946
4	0xbe2650ba	-0.16241732
5	0x3e963f0c	0.29344976
6	0xbd6fc137	-0.058533873
7	0x3f3f182c	0.7464626
8	0x3f3980e7	0.72462314
9	0xbee45cd0	-0.4460206
10	0xbf25c9c1	-0.6476098
11	0x3c4b46ef	0.012407049
12	0xbf1da9f6	-0.61587465
13	0xbc035e82	-0.008018138
14	0x3f1ffd9a	0.6249634
15	0x3c166e1a	0.009181524
16	0x3e45afac	0.19305295
17	0x3d7622af	0.06009167
18	0x3f8f5660	1.1198235
19	0x3f83acca	1.0287106
20	0xbf522069	-0.82080704
21	0x3e79d536	0.2439774
22	0x3eab1011	0.33410695
23	0x3db76490	0.08954728
24	0xbeabf1e9	-0.33583
25	0xbf36f86e	-0.71472824
26	0x3f16733e	0.58769596
27	0xbdd7668f	-0.105176084
28	0x3f127162	0.5720426
29	0xbaa5b930	-0.0012643691
30	0xbf170ff7	-0.59008735
31	0xbab25bad	-0.0013607644
32	0x3ec732b1	0.38905862
33	0xbf200f17	-0.62523025
34	0xbeb6eea6	-0.3572895
35	0x3ec98f59	0.39367178
36	0x3f1311cc	0.5744903
37	0x3f29e56d	0.663657
38	0xbd853f24	-0.06506184
39	0x3e0202f5	0.1269644
40	0x3efdc270	0.49562407
41	0xbc8710d5	-0.016487518
42	0xbf00ff86	-0.503899
43	0x3ea42e47	0.32066557
44	0x3e3da6ae	0.18520615
45	0x3f885883	1.0652012
46	0x3c788e58	0.015170656
47	0x3e0d3b41	0.13792135
48	0x3e7f3741	0.24923421
49	0xbe4bda88	-0.19907582
50	0x3f6adbe2	0.91741765
51	0x3f24b8cc	0.6434448
52	0xbe11d2c0	-0.14240551
53	0xbda22a8b	-0.07918271
54	0x3f5ee69a	0.8707062
55	0x3f881552	1.0631506
56	0x3eafcdec	0.34336793
57	0x3e930665	0.28715816
58	0xbf5365fd	-0.82577497
59	0x3e931a61	0.28731063
60	0x3e276490	0.16346955
61	0xbd5d1b46	-0.053981088
62	0x3f7926a9	0.97324616
63	0xbe3a084d	-0.18167229
64	0xbb673038	-0.0035276543
65	0x3f42b2a8	0.7605386
66	0xb9ac1431	-0.0003282144
67	0xbf4916ae	-0.7855023
68	0xbf4d6363	-0.8022978
69	0x3ee5f71a	0.44915086
70	0x3e4f9754	0.20272571
71	0x3d034d9f	0.032056447
72	0xbd463d7f	-0.04839849
73	0xbe86aa2b	-0.26301703
74	0xbf2e65aa	-0.6812388
75	0x3f82d8d4	1.0222421
76	0x3f40d9f0	0.75332546
77	0xbe6b9142	-0.2300463
78	0xbf349149	-0.7053419
79	0x3ea5d073	0.32385597
80	0x3fb1b34b	1.3882841
81	0xbd3264a4	-0.04355301
82	0x3e4c72a6	0.1996561
83	0x3d78e564	0.06076564
84	0xbf5b1d3c	-0.85591483
85	0xbc1cea16	-0.009577295
86	0x3f60094a	0.87514174
87	0xbbe5d8c4	-0.007014366
88	0x3f6d66dd	0.9273508
89	0x3ca41d5b	0.020033529
90	0xbf7a743e	-0.9783362
91	0xbbf87bda	-0.0075831236
92	0x3f23b4da	0.6394783
93	0xbef1d25f	-0.47230813
94	0x3f5026bf	0.8130912
95	0xbf07655e	-0.5288905
96	0xbedc6479	-0.43045405
97	0x3cca7d25	0.024717877
98	0x3ee51613	0.44743404
99	0xbf39dd5b	-0.72603387
100	0x3dab887d	0.083756424
101	0x3f7d6445	0.98981124
102	0x3cf4e396	0.029893678
103	0xbe19d4c3	-0.15022568
104	0x3d96bff7	0.07360833
105	0xbf894e29	-1.0726978
106	0xbee8e7c7	-0.45489332
107	0xbe521d5a	-0.20519009
108	0x3ee27eec	0.4423746
109	0xbf87210d	-1.0556961
110	0x3e7c8eeb	0.24663894
111	0xbed54a7f	-0.41658399
112	0x3f859a0b	1.0437635
113	0xbc9811e5	-0.01856322
114	0x3e5b5bcb	0.21421735
115	0xbd93fa84	-0.072255164
116	0x3d5adbca	0.053432263
117	0xbf12403e	-0.57129276
118	0xbf1b403b	-0.6064488
119	0x3f94ed89	1.163499
120	0xbf446dcb	-0.7673003
121	0x3ef5598d	0.47919884
122	0xbe84c6c5	-0.259329
123	0xbe66c9d8	-0.22537935
124	0xbef197f2	-0.47186238
125	0xbce9f2dc	-0.028558187
126	0x3f0e326f	0.55545706
127	0xbf27bb91	-0.6552058
128	0xbf25ac1d	-0.6471575
129	0xbe22823f	-0.15869997
130	0xbeb16a53	-0.3465143
131	0x3ee75e80	0.45189285
132	0xbf3238c5	-0.69617873
133	0xbef585c5	-0.4795362
134	0x3f21c9ca	0.6319853
135	0x3e38f07e	0.1806049
136	0x3f27a0eb	0.65479916
137	0x3f20d4df	0.62824816
138	0x3e8dcf18	0.27697062
139	0xbeb0a420	-0.34500217
140	0x3e1cf4cf	0.15327762
141	0x3e57aeb6	0.2106274
142	0x3f2ac559	0.6670738
143	0x3e6005d9	0.2187723
144	0xbcb35948	-0.021893159
145	0x3f5a0e1a	0.8517777
146	0x3d5344c0	0.051579237
147	0xbf0b1ba5	-0.5433906
148	0xbc0c37fa	-0.008558268
149	0x3f2c3088	0.6726155
150	0x3b94a5c8	0.004536364
151	0xbf31b8d3	-0.69422644
152	0xbf574585	-0.84090453
153	0x3ee78732	0.45220333
154	0x3e8e0767	0.27740023
155	0x3d907802	0.0705414
156	0xbf9fb22a	-1.2476246
157	0xbf2406a4	-0.6407263
158	0xbe935461	-0.28775313
159	0xbbc5f161	-0.0060407375
160	0x3f1db0bb	0.61597794
161	0xba228ff7	-0.0006201262
162	0xbf23629e	-0.6382235
163	0x3b18ea6d	0.0023333088
164	0x3aa1625f	0.0012312642
165	0xbf479413	-0.7796032
166	0x3ab7cf60	0.0014023595
167	0x3f4df19b	0.80446786
168	0xbf0d6155	-0.5522664
169	0xbe257e7b	-0.1616153
170	0xbf83e0b0	-1.0302944
171	0xbf261d52	-0.6488849
172	0xbe33ac1c	-0.17546123
173	0x3f7da5f4	0.9908135
174	0x3f67ac69	0.9049745
175	0xbe4931bc	-0.19647878
176	0xbf1cb973	-0.61220473
177	0x3f715752	0.94273865
178	0xbe43bb36	-0.19114384
179	0xbe68bf6f	-0.22729276
180	0x3f9e4c42	1.2367022
181	0xbf4526dc	-0.7701242
182	0xbea91015	-0.33020082
183	0xbe782fe7	-0.24237023
184	0xbd84c83d	-0.06483505
185	0xbe6c8c4e	-0.23100397
186	0xbeb831ff	-0.35975644
187	0xbf5a498d	-0.8526848
188	0x3f1e7bae	0.6190747
189	0x3e2404c2	0.1601744
190	0xbf08478e	-0.53234184
191	0xbe967df5	-0.29392973
192	0xbdac0bc8	-0.084006846
193	0x3e26e37e	0.16297719
194	0xbf0497c5	-0.5179408
195	0xbf3b518a	-0.73171294
196	0x3ac66c95	0.0015138561
197	0xbf87da79	-1.0613548
198	0x3d158655	0.036505062
199	0x3f8d63a8	1.1046038
200	0x3ec2d6e5	0.38054577
201	0xbf447334	-0.76738286
202	0x3f7d36a1	0.9891148
203	0x3e251bf6	0.16123948
204	0x3ef3e78b	0.4763759
205	0xbf6b78c4	-0.9198115
206	0xbc1a7fc2	-0.009429874
207	0x3ea1b969	0.3158677
208	0xbccf6f0e	-0.02532151
209	0xbef68084	-0.48144925
210	0x3f2a8973	0.6661598
211	0x3f7af460	0.98029137
212	0xbe7806e5	-0.2422138
213	0xbf02ae44	-0.5104716
214	0x3f27ed33	0.6559631
215	0xbf71afca	-0.9440886
216	0xbeaeda90	-0.34151125
217	0x3ed9fdf5	0.42576566
218	0x3e3f65a1	0.18691112
219	0xbf83c092	-1.0293143
220	0x3ed9e84d	0.42560044
221	0x3f232e03	0.63742083
222	0xbe1d715a	-0.15375271
223	0xbe45db74	-0.19321996
224	0xbf5b724e	-0.8572129
225	0xbf0703cd	-0.52740175
226	0x3f0d3a5a	0.5516716
227	0x3edb7ba4	0.42867768
228	0xbdf2c28f	-0.11853515
229	0x3eaa3ea3	0.33250913
230	0xbf06e10d	-0.5268715
231	0x3fabfd80	1.3436737
232	0x3f9c2de9	1.2201511
233	0x3e47a94e	0.19498178
234	0xbe9494f0	-0.2901988
235	0xbdf8485c	-0.121231765
236	0xbeefa31a	-0.46804124
237	0xbf860fca	-1.0473568
238	0x3f09e3f0	0.5386343
239	0x3f0c3f29	0.54783875
240	0xbe6fe263	-0.23426203
241	0xbf871477	-1.055312
242	0xbe77e493	-0.24208288
243	0x3e993821	0.29925635
244	0xbc992045	-0.018692145
245	0xbfa62ee8	-1.2983065
246	0xbd3af4c4	-0.045643583
247	0xbe2b7bb8	-0.16746414
248	0xbf40deee	-0.75340164
249	0x3e886f26	0.266473
250	0x3e275d29	0.16344132
251	0x3f73dcbe	0.952587
252	0xbe3565fc	-0.17714685
253	0x3c9864a1	0.018602671
254	0x3fa29d53	1.2704262
255	0x3eeec130	0.46631765

net.0.bias f4 [64]
0	0x3ec9b542	0.393961
1	0x3f30e0e1	0.6909314
2	0xbe3cc127	-0.18433057
3	0x3d1b0adb	0.03785215
4	0x3eb49667	0.35270998
5	0xbea9235d	-0.33034793
6	0x3c1c36af	0.009534522
7	0xbd2135ee	-0.039358072
8	0xbe0b63cf	-0.13612293
9	0x3f05c16e	0.52248275
10	0x3f17a874	0.59241414
11	0x3ec8fb31	0.39254144
12	0x3eeb85f3	0.46000633
13	0x3de90b63	0.11379125
14	0x3f43457d	0.76277906
15	0x3f38215f	0.7192592
16	0x3cd87437	0.026422603
17	0x3d21c1f9	0.039491627
18	0xbdca3412	-0.09873213
19	0xbd2be4ef	-0.041966375
20	0x3f1da5b4	0.6158097
21	0x3d6f220e	0.058382086
22	0xbde8390f	-0.11339008
23	0xbd26044c	-0.04053144
24	0x3f2c73fb	0.6736447
25	0x3ebef74a	0.37298042
26	0x3cb5c60a	0.022189159
27	0xbdcb709b	-0.09933587
28	0x3f4abddb	0.79195946
29	0x3edef74b	0.43548045
30	0x3e0a391e	0.13498351
31	0x3e424c45	0.18974407
32	0xbe3861dc	-0.1800608
33	0xbe01d224	-0.12677819
34	0x3ebbca70	0.36677885
35	0x3f3982ff	0.7246551
36	0xbed76e97	-0.4207656
37	0x3cb2a227	0.021805836
38	0x3ebfda59	0.37471274
39	0xbef0c5ae	-0.47025818
40	0xbd43ad64	-0.04777278
41	0xbcfe7c9a	-0.031065274
42	0xbe2dac0c	-0.16960162
43	0x3e032f9d	0.12811132
44	0x3e854427	0.2602856
45	0x3ea44e2a	0.32090884
46	0x3ed98900	0.42487335
47	0xbccaef87	-0.024772419
48	0x3e18c01f	0.14917038
49	0xbdb4d18d	-0.08829031
50	0x3be1af88	0.00688738
51	0x3efb363e	0.4906482
52	0x3cd49fc3	0.025955087
53	0xbdf2479d	-0.118300654
54	0x3b27700b	0.002554896
55	0x3e1c81c1	0.15283872
56	0xbdf65193	-0.12027278
57	0x3e271808	0.16317761
58	0x3ea75713	0.3268362
59	0xbdeedbc0	-0.11663008
60	0x3f586a13	0.84536856
61	0xbf078622	-0.52939045
62	0xbcb595b7	-0.022166116
63	0x3ebaf756	0.36516827

net.2.weight f4 [64, 64]
0	0x3ebed428	0.37271237
1	0x3e47d1b7	0.19513594
2	0x3ddcce6d	0.1078156
3	0x3ed3ba31	0.4135299
4	0xbe1c71dd	-0.1527781
5	0x3e4894ab	0.19587962
6	0x3e1f1fb1	0.15539433
7	0x3ea6c8d2	0.3257509
8	0x3e01e3a3	0.12684493
9	0x3cb4b9bf	0.022061227
10	0x3d8b38e7	0.06797963
11	0xbd2f1cac	-0.042751953
12	0x3e3cd04e	0.18438837
13	0x3de33bf2	0.11095418
14	0xbc7ebea0	-0.015548378
15	0x3e8a1a44	0.26973164
16	0x3e68dec4	0.22741228
17	0xbcd09582	-0.025461916
18	0x3e93a656	0.28837842
19	0x3ed0f308	0.40810418
20	0xbe07f3d7	-0.13276611
21	0x3e8b5bbc	0.27218425
22	0x3e7030c0	0.23456097
23	0x3decb4a5	0.11557893
24	0x3c4f1313	0.012638825
25	0x3e56d263	0.20978694
26	0x3e0b97f9	0.13632192
27	0xbd6e0f41	-0.058120016
28	0x3e9d4a89	0.30720928
29	0x3e93a6ea	0.28838283
30	0x3d903e5e	0.070431456
31	0x3e6af039	0.229432
32	0x3eb3865a	0.3506344
33	0x3e4ddfd4	0.20104915
34	0x3e8297d1	0.25506452
35	0xbb8d94fb	-0.0043207384
36	0x3ea67363	0.32509908
37	0x3ea62daf	0.3245673
38	0xbce9f43d	-0.028558845
39	0x3c745282	0.0149122495
40	0x3e558e69	0.20855106
41	0x3e92d6ea	0.2867959
42	0x3d63622b	0.055513542
43	0x3dc1c0f7	0.09460633
44	0x3e693ec3	0.22777848
45	0x3e928261	0.28615096
46	0x3dbdf3e0	0.09275031
47	0x3e6e595f	0.2327628
48	0xbd91c6d9	-0.07118005
49	0x3e998aef	0.2998881
50	0x3e90ad8a	0.282574
51	0xbd72e7b3	-0.059302997
52	0x3e277a92	0.1635535
53	0x3eaf50f7	0.3424146
54	0x3e299aed	0.16563006
55	0x3e0a3334	0.13496095
56	0x3e2c2cca	0.1681396
57	0x3cb236fb	0.021754732
58	0x3e0a2d12	0.13493755
59	0x3dcd9c9c	0.100396365
60	0x3bef4825	0.0073023015
61	0x3d233e6b	0.03985445
62	0x3e5dc69f	0.21657799
63	0x3d957446	0.07297568
64	0x3eb184d0	0.3467164
65	0xbe913cc7	-0.28366682
66	0xbd076bb9	-0.033061717
67	0x3e36b182	0.17841151
68	0xbfca3844	-1.5798421
69	0xbf39bb7c	-0.72551703
70	0xbb3ee5e0	-0.0029128715
71	0xbe18eea7	-0.14934789
72	0x3f1e2e7a	0.6178967
73	0x3e63a25e	0.22229907
74	0xbf5dd453	-0.86652106
75	0x3d75bdf7	0.059995618
76	0xbf83a243	-1.0283893
77	0x3f53be7d	0.8271254
78	0xbf095d68	-0.5365815
79	0x3e4f9b1c	0.20274013
80	0x3e055567	0.1302086
81	0xbeb9d713	-0.362969
82	0xbe016c46	-0.1263896
83	0xbf2f5e54	-0.6850331
84	0x3ebf5212	0.37367302
85	0xb91a4c43	-0.00014714994
86	0x3e20c231	0.15699078
87	0x3ed957f1	0.42449906
88	0x3d107d5f	0.035275813
89	0x3d4b6fb9	0.049667094
90	0x3d829128	0.063753426
91	0xbe94e6a7	-0.29082224
92	0x3e459e8a	0.19298759
93	0x3dafc8d6	0.08583228
94	0xbecd70a5	-0.40125003
95	0x3db95aba	0.09050508
96	0xbd126e0f	-0.03574949
97	0xbf11cc04	-0.5695193
98	0x3e499454	0.19685489
99	0x3c7d6b74	0.015467513
100	0x3e95eb38	0.2928102
101	0x3e0cec5d	0.1376204
102	0xbeb7d4de	-0.35904592
103	0x3dc709e1	0.09718681
104	0x3d8d451b	0.068979464
105	0x3d661f9d	0.056182493
106	0xc02a163c	-2.657607
107	0x3ee01103	0.4376298
108	0xbdb72b79	-0.089438386
109	0xbd3e8cea	-0.046521105
110	0xbe75af01	-0.2399254
111	0xbd36e49f	-0.044651624
112	0xbe8c3dd4	-0.2739092
113	0x3daeb6df	0.08530974
114	0x3eaca4c0	0.33719444
115	0xbf6ceb79	-0.925468
116	0x3f189f03	0.5961763
117	0x3b31f534	0.002715421
118	0x3e31643a	0.1732339
119	0x3ea0f500	0.3143692
120	0xbf279a40	-0.6546974
121	0xc01f2b89	-2.4870322
122	0x3c8a9383	0.016916042
123	0xbf801314	-1.0005822
124	0x3f011491	0.50422007
125	0xbefee756	-0.4978587
126	0xbf353e8c	-0.70798564
127	0xbee77178	-0.45203757
128	0x3ee5c3a2	0.44875818
129	0x3f1bba93	0.60831565
130	0xbeb29412	-0.34878594
131	0xbf21e38e	-0.63237846
132	0xbfb57532	-1.417639
133	0xbf6c0e90	-0.9220972
134	0x3e954e15	0.29161134
135	0xbfac9055	-1.3481547
136	0xbd1b4201	-0.037904743
137	0xbe02d509	-0.12776579
138	0xbfa44120	-1.2832375
139	0x3e65315b	0.22382109
140	0xbe965f7a	-0.29369718
141	0x3ec4f0f8	0.38465095
142	0xbf6ee002	-0.9331056
143	0x3e860120	0.26172733
144	0x3d070dde	0.03297221
145	0xbdd2aaa4	-0.10286453
146	0xbf33f8be	-0.70301425
147	0xbf501d11	-0.8129435
148	0x3e932b87	0.28744146
149	0xbea3cae8	-0.31990743
150	0xbdb775b0	-0.08957994
151	0x3ecafa07	0.3964388
152	0xbba0a6f1	-0.0049027135
153	0xbde10ee4	-0.10989168
154	0x3dbdbd5b	0.09264632
155	0x3e83f7f8	0.25775123
156	0x3e3fdeae	0.1873729
157	0x3f97dc7d	1.1864163
158	0x3e07905d	0.13238664
159	0x3d811925	0.06303624
160	0xbec53f6a	-0.38524944
161	0xbf3042f2	-0.6885215
162	0x3e3da642	0.18520454
163	0x3e79e271	0.24402787
164	0x3e90792e	0.28217453
165	0x3c558630	0.013032481
166	0xbd185271	-0.037187997
167	0x3f80a2ff	1.0049742
168	0xbf166dfa	-0.5876156
169	0xbf0ffb46	-0.5624279
170	0xbf9b2dbf	-1.2123336
171	0x3ec2be6e	0.3803591
172	0xbe7ff81f	-0.24996994
173	0x3dfd2430	0.12360418
174	0xbe35226c	-0.17688912
175	0xbf7e1035	-0.9924348
176	0xbebe0d8f	-0.3711972
177	0xbf20df12	-0.6284038
178	0x3eee091a	0.4649132
179	0x3e3890cf	0.1802399
180	0x3e0a5167	0.13507615
181	0x3e2954de	0.1653628
182	0x3cbc189a	0.02296095
183	0xbd2ed376	-0.042682134
184	0xbf4be49d	-0.7964571
185	0xbf5cccd1	-0.86250025
186	0xbe846ebe	-0.2586574
187	0xbd964c94	-0.07338825
188	0x3f1ee9ab	0.620753
189	0xbe8d7916	-0.27631444
190	0xbf1d8c64	-0.61542344
191	0xbf0ded9d	-0.55440694
192	0x3eb9ded8	0.3630283
193	0x3e2396f0	0.15975547
194	0x3d572761	0.05252779
195	0x3ecc7131	0.39930108
196	0xbea46112	-0.3210531
197	0x3e9f4978	0.3111074
198	0x3d64e61e	0.05588352
199	0x3eb0fe41	0.3456898
200	0x3e51edba	0.20500842
201	0x3e446930	0.19180751
202	0x3e062034	0.13098222
203	0x3d0dc184	0.03460838
204	0xb8cd280f	-9.782623e-05
205	0x3dfc4698	0.12318152
206	0x3e2d2b21	0.16910984
207	0x3e5dd2b0	0.21662402
208	0x3e5ac493	0.2136405
209	0xbe0fabee	-0.1403043
210	0x3ebef925	0.37299457
211	0x3ee23c01	0.44186404
212	0xbe3f166c	-0.18660897
213	0x3e654eb9	0.22393312
214	0x3e8dfdb2	0.27732617
215	0x3d2f128f	0.04274231
216	0x3db17bb4	0.086661726
217	0x3ebb1af6	0.36544007
218	0x3e9fd05e	0.3121366
219	0xbe8833fb	-0.26602158
220	0x3dceec8e	0.10103713
221	0x3e724ada	0.23661366
222	0x3df945a1	0.12171484
223	0x3e4df0f3	0.20111446
224	0x3e835f5c	0.2565869
225	0x3d84e658	0.06489247
226	0x3e387ef7	0.18017183
227	0xbd676714	-0.056494787
228	0x3e80993e	0.25116915
229	0x3e7455c5	0.23860843
230	0xbc16e520	-0.009209901
231	0x3d2c7120	0.042100072
232	0x3e9e0920	0.30866337
233	0x3ed111e5	0.40833965
234	0x3ddf939e	0.109168276
235	0x3e8b073b	0.27153954
236	0x3df89567	0.12137871
237	0x3e8adafd	0.271202
238	0x3e795a43	0.24350838
239	0x3dc0a423	0.094063066
240	0x3dc5a404	0.09650424
241	0x3ec3aa08	0.3821566
242	0x3e6264fb	0.22108833
243	0xbe026a9b	-0.1273598
244	0x3e2fd521	0.17171146
245	0x3e91bfa1	0.28466514
246	0x3e1d06c7	0.15334617
247	0x3da6e320	0.081487894
248	0x3d680b83	0.056651603
249	0x3b22250c	0.002474132
250	0x3d844ddf	0.06460165
251	0x3e625a2b	0.22104709
252	0x3e166b6f	0.1468942
253	0xbd5684d5	-0.052372772
254	0x3e4da5b3	0.2008274
255	0x3ea4738b	0.32119402

net.2.bias f4 [64]
0	0xbe3638ec	-0.17795151
1	0xbe8dbfb6	-0.27685326
2	0x3b581759	0.00329729
3	0xbe1f335f	-0.1554694
4	0x3af15367	0.0018411697
5	0x3d6d6234	0.057954982
6	0x3cc1c853	0.023655092
7	0x3d0579de	0.032586925
8	0xbe6cd483	-0.23127942
9	0x3f1df1f9	0.61697346
10	0x3e7b0b2c	0.2451598
11	0xbe3d605f	-0.18493794
12	0xbcc1beee	-0.023650613
13	0x3df9a374	0.12189379
14	0x3d85e9d7	0.06538742
15	0xbe1807bd	-0.14846702
16	0xbd27a673	-0.040930223
17	0x3c8e2343	0.017350798
18	0xbcb3510e	-0.021889236
19	0x3c0e7798	0.008695506
20	0xbe0f576f	-0.13998197
21	0x3ea11cbc	0.31467235
22	0x3c4efae4	0.012633059
23	0x3d437415	0.047718126
24	0xbdf2931b	-0.118444644
25	0x3d1bef20	0.038069844
26	0x3cbe5990	0.023236066
27	0xbe3f64da	-0.18690816
28	0xbe3363cd	-0.1751854
29	0x3c819c47	0.01582159
30	0xbe131d18	-0.14366567
31	0x3d4c7d89	0.049924407
32	0xbdea0afb	-0.114278756
33	0xbceb42da	-0.0287184
34	0xbe598c85	-0.2124501
35	0x3d44b3c3	0.048022997
36	0xbd9d980f	-0.076950185
37	0x3f063b95	0.52434665
38	0x3f42ba3d	0.7606543
39	0xbe01a848	-0.1266185
40	0xbe1ce9ce	-0.15323564
41	0xbd6d8558	-0.057988495
42	0xbd1d79d6	-0.03844627
43	0xbe0d43b0	-0.13795352
44	0x3d431db6	0.047635756
45	0xbde311d5	-0.110873856
46	0x3db0669f	0.086133234
47	0x3d41ab9a	0.047282793
48	0xbe3a4371	-0.1818979
49	0xbec6ef0f	-0.38854262
50	0xbd45f735	-0.048331458
51	0xbd80b741	-0.06284953
52	0x3c99e6a0	0.018786728
53	0xbe137b26	-0.14402446
54	0x3f63b1e3	0.8894331
55	0x3ca1fa28	0.019772604
56	0xbc0666e2	-0.00820324
57	0xbda72eba	-0.08163209
58	0xbe636baa	-0.2220904
59	0x3f061c0f	0.52386564
60	0xbe03ddce	-0.1287758
61	0xbd5e54ac	-0.05427997
62	0xbda373e7	-0.07981091
63	0xbe3f9a66	-0.18711242

net.4.weight f4 [1, 64]
0	0x3e9a7ef5	0.30174986
1	0xbfdfdd23	-1.748936
2	0xbfb39df3	-1.4032577
3	0x3e7da9a8	0.2477175
4	0x3ec1d9bd	0.37861434
5	0xbd2322c8	-0.03982809
6	0x3e9be65f	0.30449197
7	0x3e920091	0.28516057
8	0xbf8044e4	-1.0021024
9	0xc0235426	-2.552011
10	0xc004a24c	-2.0724058
11	0x3e9c5881	0.30536273
12	0x3e74aa0d	0.23892994
13	0xbf8ea8e7	-1.1145295
14	0xbcce210d	-0.025162244
15	0x3eaaef9d	0.33385935
16	0x3e726d63	0.2367454
17	0xbd7151ad	-0.058915783
18	0xbd1cb102	-0.038254745
19	0xbc8532c8	-0.016259566
20	0x3e8090e4	0.25110543
21	0xbfcb3f57	-1.5878705
22	0xbfc8054e	-1.5626619
23	0x3e93c0dc	0.28858078
24	0xbd7bab5d	-0.06144272
25	0x3e61fd83	0.22069363
26	0x3e92e81e	0.28692716
27	0x3e530381	0.20606805
28	0x3e9bfbf7	0.3046567
29	0x3e9ea1a9	0.30982712
30	0x3e910e25	0.28331104
31	0xbda6164c	-0.081097215
32	0x3e7a0244	0.24414927
33	0xbfe3b90e	-1.7790849
34	0x3e8688c6	0.26276225
35	0x3e8857bf	0.26629445
36	0x3e97a8a0	0.29620838
37	0xc0049320	-2.0714798
38	0x40770f46	3.8603072
39	0x3e85713a	0.26062948
40	0x3e6cefb6	0.23138317
41	0xbd9f9bba	-0.07793374
42	0x3e967e30	0.29393148
43	0xbdaeff2a	-0.085447624
44	0xbb50da60	-0.0031868443
45	0x3e70c676	0.23513207
46	0xbd204c4e	-0.03913527
47	0x3e838d0a	0.25693542
48	0x3ea74162	0.3266707
49	0xbfa31433	-1.2740539
50	0x3e5b2ac1	0.21403028
51	0x3e936a3b	0.28791985
52	0x3e82fa2c	0.2558149
53	0x3e68ad49	0.22722353
54	0x4038e14b	2.8887508
55	0x3e5064c5	0.2035094
56	0x3e963da0	0.2934389
57	0x3e8a4398	0.27004695
58	0xbfb22f57	-1.3920697
59	0xbf9c9d47	-1.2235497
60	0x3ea016ee	0.31267494
61	0x3e5a4990	0.21317124
62	0x3e808f28	0.2510922
63	0x3e8918af	0.26776645
