heuristic_net_frac_50.pt (torch, 21437 bytes, 5 tensors)

net.0.weight f4 [64, 4]
0	0xbd05a2e7	-0.03262606
1	0x3f4084b7	0.75202507
2	0x3ea646a0	0.32475758
3	0xbf1648fe	-0.5870513
4	0xbb8b1bde	-0.0042452654
5	0xbf343246	-0.7038921
6	0x3d28eb1d	0.041239846
7	0x3f3a165f	0.72690386
8	0xbf29f681	-0.6639176
9	0x3eb6fb65	0.35738674
10	0x3e945a3c	0.28975093
11	0xbf07b56e	-0.53011215
12	0xbf45ac96	-0.7721647
13	0xbea72a99	-0.32649687
14	0x3f34f19f	0.70681185
15	0x3e99da8b	0.30049548
16	0xbf5f0f36	-0.87132585
17	0xbea583d0	-0.32327127
18	0x3df4f627	0.11961012
19	0x3ea2ca5b	0.3179501
20	0xbebf8f4b	-0.3741401
21	0xbf8205e9	-1.0158054
22	0x3ea395a9	0.3195012
23	0x3e84f126	0.25965232
24	0x3f07c77a	0.5303875
25	0x3e2f28eb	0.17105453
26	0xbe6aa036	-0.22912678
27	0xbf683828	-0.9071069
28	0xbf36f764	-0.7147124
29	0x3ead1f08	0.33812737
30	0xbd0e52db	-0.034746986
31	0x3efc8044	0.4931661
32	0x3f44bc84	0.7685015
33	0xbbcf1ad8	-0.0063203387
34	0xbf4d755e	-0.80257213
35	0x3aa3dfcd	0.0012502611
36	0xbdf68823	-0.12037685
37	0x3f287132	0.6579772
38	0xbf25f782	-0.6483079
39	0xbf2181db	-0.6308877
40	0x3f25b688	0.64731646
41	0xbf50536f	-0.8137731
42	0x3e9ab071	0.3021274
43	0xbcf9964f	-0.03046718
44	0x3e8cfc53	0.27536258
45	0x3cfef611	0.031123193
46	0xbf6ea5cc	-0.93221736
47	0xbf249b90	-0.6429987
48	0x3f2ab7e3	0.6668684
49	0x3d079728	0.03310314
50	0xbf31f207	-0.6950993
51	0xbd687f3d	-0.05676197
52	0x3b878f91	0.0041369875
53	0x3f1eca73	0.62027663
54	0x3b22f84f	0.0024867242
55	0xbf23f572	-0.64046395
56	0xbe62aa68	-0.22135317
57	0x3f23b899	0.6395355
58	0xbf765709	-0.96226555
59	0xbe04795c	-0.1293692
60	0xbe73152a	-0.23738542
61	0x3f1c2b85	0.61003906
62	0x3e5aaeab	0.21355693
63	0xbf59e7e8	-0.85119486
64	0xbf522e4f	-0.8210191
65	0x3f425f39	0.7592655
66	0x3da90825	0.082535066
67	0xbe5f66f3	-0.21816616
68	0xbf4a89d2	-0.7911655
69	0xbeedcb34	-0.46444094
70	0xbe7edfbc	-0.24890035
71	0xbdd9e5a7	-0.10639506
72	0x3f2777ad	0.65416986
73	0x3e07035d	0.13184877
74	0xbf45a7d5	-0.77209216
75	0xbea657b7	-0.32488796
76	0x3f566478	0.83747053
77	0x3dfba3f0	0.12287128
78	0xbf14e60d	-0.5816353
79	0xbf18c44a	-0.59674513
80	0xbf3f47b2	-0.74718773
81	0xbda65732	-0.081221
82	0x3f408313	0.75200003
83	0x3da63de8	0.081172764
84	0xbf3da99b	-0.7408692
85	0x3ef87c35	0.48532262
86	0xbe50c9f9	-0.20389546
87	0xbed53161	-0.41639236
88	0xbe7923ae	-0.24330017
89	0xbbefafb6	-0.0073146475
90	0x3f509182	0.8147203
91	0xbebb3b57	-0.3656871
92	0xbd396c1c	-0.045269117
93	0x3ef5030a	0.4785388
94	0x3dc1c72d	0.09461818
95	0xbf3b3452	-0.7312671
96	0xbf1dfc29	-0.6171289
97	0xbf069523	-0.52571315
98	0x3eb4712b	0.3524259
99	0x3d53ca13	0.051706385
100	0x3dbb6a56	0.09151141
101	0xbeee54b4	-0.46548998
102	0xbf490310	-0.785203
103	0x3f4e32c6	0.80546224
104	0xbf538331	-0.8262206
105	0x3ddee8e7	0.10884266
106	0x3f53fc04	0.8280642
107	0xbe177199	-0.14789428
108	0xbead9ca1	-0.3390856
109	0xbe9b2685	-0.30302826
110	0xbf742553	-0.9536945
111	0x3f30281c	0.688112
112	0xbe4f44ef	-0.2024114
113	0x3f353828	0.7078881
114	0xbf20b842	-0.62781155
115	0xbe9a7ea7	-0.30174753
116	0xbd854d37	-0.06508868
117	0xbf41a3c2	-0.756405
118	0x3edd5a51	0.43232968
119	0x3f4de932	0.8043395
120	0x3e9215ca	0.2853225
121	0xbe89e9c2	-0.26936156
122	0xbf5aed40	-0.85518265
123	0xbe596d87	-0.21233188
124	0xbefec5f3	-0.49760398
125	0x3f5a8ec1	0.85374075
126	0x3edbb4aa	0.42911273
127	0xbf2a623c	-0.66556144
128	0xbc6270a4	-0.013820801
129	0xbf1422b3	-0.57865447
130	0x3ba697d4	0.0050840173
131	0x3f17d748	0.5931287
132	0x3f15d600	0.58529663
133	0xbe2ef7e8	-0.17086756
134	0xbefd6652	-0.49492127
135	0xbefe564d	-0.49675217
136	0xbf2b2f3b	-0.6686894
137	0x3ed0dffe	0.40795892
138	0x3f0b347e	0.5437697
139	0xbeff2797	-0.49834892
140	0x3dae1768	0.08500558
141	0x3ef76690	0.48320436
142	0xbf34845b	-0.7051446
143	0xbf772f5b	-0.96556634
144	0xbe268257	-0.16260658
145	0xbf6fbed3	-0.9365055
146	0xbe66aeed	-0.22527666
147	0x3e5332c9	0.20624842
148	0xbe0aa6d8	-0.13540208
149	0xbf4b348e	-0.7937707
150	0xbe689d8c	-0.2271635
151	0x3f2c499e	0.6729983
152	0x3f759957	0.95937103
153	0x3ee2af76	0.4427449
154	0x3efcea64	0.49397576
155	0xbea11d02	-0.31467444
156	0x3ecae188	0.39625192
157	0xbf995549	-1.1979152
158	0x3e40fa19	0.18845405
159	0xbeeeb56f	-0.46622798
160	0xbd1e0830	-0.038582027
161	0x3f1a9de2	0.6039716
162	0x3d276b44	0.04087378
163	0xbf1e2627	-0.61776966
164	0x3d04d2ed	0.032427717
165	0x3f31183f	0.6917762
166	0x3c0d0fa0	0.008609682
167	0xbf32735c	-0.69707274
168	0x3ecb9be5	0.39767376
169	0xbf0418a2	-0.51600087
170	0x3f14b06a	0.58081686
171	0x3f478a62	0.7794553
172	0xbe038d87	-0.12846957
173	0x3e325bb8	0.174178
174	0xbebc1126	-0.36731833
175	0x3f613276	0.8796762
176	0xbee55fc0	-0.44799614
177	0xbeb35e26	-0.35032767
178	0xbf612e09	-0.8796087
179	0xbed8ebf1	-0.4236751
180	0xbf0de380	-0.5542526
181	0xbe24ffea	-0.16113248
182	0xbe4e0e4f	-0.20122646
183	0x3f1c1f5f	0.6098537
184	0xbf9c8f6d	-1.223127
185	0xbdaed51e	-0.08536743
186	0xbeb121f7	-0.34596226
187	0x3c9b4f0f	0.018958597
188	0xbf0f77e8	-0.5604234
189	0x3f2f5f6e	0.6850499
190	0xbf218aa9	-0.63102204
191	0x3f581a51	0.84415156
192	0x3f21d970	0.6322241
193	0xbeff8e39	-0.49913195
194	0xbee62aa6	-0.44954413
195	0x3c72f778	0.014829509
196	0xbe544f9f	-0.20733498
197	0xbe0c0541	-0.13673879
198	0xbf16c308	-0.58891344
199	0xbf6f4a64	-0.93472886
200	0x3f8d770e	1.1051958
201	0xbe8eec5a	-0.27914697
202	0xbe47876d	-0.19485255
203	0xbd9c004b	-0.076172434
204	0xbeec7935	-0.46186224
205	0xbd9048bb	-0.07045122
206	0x3f3fdd66	0.749472
207	0xbf1d21fa	-0.6137997
208	0x3f1ae67c	0.6050794
209	0xbf615720	-0.8802357
210	0xbe5548f2	-0.20828608
211	0xbeac611c	-0.3366784
212	0xbe988357	-0.29787704
213	0xbfb322c8	-1.3994989
214	0xbe9dea37	-0.30842754
215	0xbf1949ef	-0.5987844
216	0x3f421823	0.7581808
217	0xbf4139f0	-0.7547903
218	0x3f1a8a15	0.60366946
219	0xbf19da59	-0.600988
220	0x3e6f0b93	0.23344259
221	0xbd2d3930	-0.042290866
222	0x3f3708f0	0.7149801
223	0x3f46c56d	0.77645
224	0x3da4e019	0.08050556
225	0x3fa087db	1.254146
226	0x3e9a8883	0.30182275
227	0x3ea5ab99	0.3235748
228	0xbeae461c	-0.34037864
229	0xbdd86adc	-0.10567257
230	0xbe9d3bb8	-0.30709624
231	0xbf726e4b	-0.94699544
232	0xbeee70b8	-0.46570373
233	0xbebe1d14	-0.3713156
234	0xbe95886e	-0.2920565
235	0x3f054559	0.5205894
236	0xbeaf1d8c	-0.3420223
237	0xbf02188f	-0.50818723
238	0x3f3b2c69	0.7311464
239	0xbe856eda	-0.26061136
240	0x3efde3cf	0.49587867
241	0x3e950ad7	0.29109833
242	0xbeabf902	-0.33588415
243	0xbf64eaf7	-0.8942103
244	0x3d89bba4	0.06725243
245	0xbe8842a3	-0.2661334
246	0x3f59ab98	0.85027456
247	0xbeb3e30d	-0.35134163
248	0xbf0ff6ff	-0.5623626
249	0x3e8b9161	0.27259353
250	0x3dc29458	0.095009506
251	0x3e1235ec	0.14278382
252	0xbf53b85e	-0.82703197
253	0xbb3a7ba0	-0.0028455034
254	0x3f576204	0.84133935
255	0xbbe69518	-0.0070368163

net.0.bias f4 [64]
0	0xbd84f7b4	-0.06492558
1	0xbd95f974	-0.0732297
2	0xbd9e9fc6	-0.07745318
3	0xbbd5c1ea	-0.0065233605
4	0xbe927828	-0.28607297
5	0xbe1c4570	-0.15260863
6	0xbdd29da4	-0.10283974
7	0xbe81b399	-0.25332335
8	0xbd7e53b9	-0.062091563
9	0x3e179d9f	0.14806221
10	0xbee88da1	-0.45420554
11	0xbe7c5667	-0.24642335
12	0xbd42a0ee	-0.047516756
13	0x3c91720c	0.017754577
14	0xbdf2f2fc	-0.11862752
15	0x3c79d2f5	0.01524805
16	0x3f0da7d3	0.55334204
17	0x3eba6c37	0.36410686
18	0xbe1cb951	-0.15305068
19	0xbd26b199	-0.040696714
20	0xbc9944f3	-0.018709635
21	0xbc0cf723	-0.008603844
22	0xbd7c53e0	-0.061603427
23	0xbe99cc4f	-0.30038688
24	0xbe91c706	-0.28472155
25	0x3e98dc4c	0.29855573
26	0x3922ea82	0.00015536885
27	0x3dbde0ce	0.09271394
28	0x3d0b6065	0.034027476
29	0xbca57a08	-0.02019979
30	0x3f152d41	0.58272177
31	0x3c2f54b0	0.010701343
32	0xbce58a5c	-0.028020076
33	0xbd71b5e1	-0.059011344
34	0xbd0fb287	-0.035082366
35	0xbcb0ffed	-0.02160641
36	0x3f1bc60e	0.6084908
37	0x3e80723a	0.25087148
38	0x3ee66ead	0.45006314
39	0x3f3d7a6e	0.7401494
40	0x3cc49805	0.02399827
41	0xba4fb910	-0.0007924
42	0x3db454a5	0.08805207
43	0x3f41d4b7	0.757152
44	0xbdde0dd3	-0.108424805
45	0x3e416063	0.18884425
46	0xbe5c9ea8	-0.21544898
47	0x3df2cb4b	0.11855181
48	0xbd53f3f0	-0.05174631
49	0xbe02c6ef	-0.127712
50	0x3f110334	0.5664551
51	0x3e9c326f	0.30507228
52	0x3df08d33	0.117456816
53	0xbed118c1	-0.40839198
54	0xbe07bd9b	-0.13255922
55	0x3f094297	0.53617233
56	0xbe9e9f81	-0.30981067
57	0x3f201f49	0.6254774
58	0x3c28b571	0.010297165
59	0x3e9b31f1	0.3031154
60	0xbd72a1f4	-0.05923648
61	0x3f1f8c7d	0.62323743
62	0x3f243b4b	0.64152974
63	0x3cde08a2	0.027103726

net.2.weight f4 [64, 64]
0	0xbd46404e	-0.04840117
1	0x3dbf54d5	0.09342352
2	0xbda17e9a	-0.078854755
3	0xbc8c0f10	-0.017097026
4	0xbe12f190	-0.14349961
5	0xbdd74307	-0.10510831
6	0xbd2fc203	-0.042909633
7	0x3cdde6a8	0.027087525
8	0xbd272099	-0.040802572
9	0xbdc03a63	-0.093861364
10	0xbdc585f1	-0.09644688
11	0x3d316b3a	0.04331515
12	0x3c1ec0d2	0.009689527
13	0xbd772664	-0.060339347
14	0x3de1a3a0	0.11017537
15	0x3a7e8f00	0.000971064
16	0xbdfa0928	-0.12208778
17	0x3dc4a4ba	0.096017316
18	0xbd36d957	-0.044640865
19	0x3d928476	0.07154171
20	0x3da64e04	0.08120349
21	0xbd6db71f	-0.058035966
22	0xbcc790ca	-0.024361033
23	0xbccd9493	-0.02509526
24	0x3d8389e2	0.064227834
25	0xbd836139	-0.06415028
26	0x3d61a048	0.055084497
27	0xbc1eae86	-0.009685164
28	0xbdfb6fd7	-0.12277191
29	0xba80f93d	-0.0009839904
30	0xbde3b6a5	-0.11118821
31	0xbda13df0	-0.07873142
32	0xbbb6cf5d	-0.005578919
33	0xbd125178	-0.035722226
34	0x3dd0f8dd	0.10203717
35	0x3d44ee74	0.04807897
36	0xbdea4d86	-0.11440568
37	0x3c975129	0.018471317
38	0xbe072b98	-0.13200223
39	0x3d2c3a10	0.04204756
40	0x3d825bcc	0.06365165
41	0xbe07482b	-0.13211124
42	0xbd6cd19b	-0.057817083
43	0xbdea70fd	-0.11447332
44	0xbdad4783	-0.084609054
45	0xbd902006	-0.07037358
46	0xbda88856	-0.08229129
47	0x3d160ddd	0.036634315
48	0xbd9e4f56	-0.07729976
49	0xbd468506	-0.048466705
50	0x3dbeca72	0.09315957
51	0xbd44fb2d	-0.048091102
52	0xbdab0ad1	-0.083516724
53	0xbd8c66fa	-0.06855579
54	0xbd979c20	-0.07402825
55	0x3d2a82f4	0.041628793
56	0xbd8818e8	-0.066453755
57	0xbdbf9404	-0.093544036
58	0x3d928995	0.07155148
59	0x3dba0305	0.09082607
60	0x3d1465ee	0.03623002
61	0x3cb7c30f	0.022431878
62	0xbd854716	-0.06507699
63	0xbdb28811	-0.08717359
64	0xbf0145a9	-0.5049692
65	0xbdc511fe	-0.09622572
66	0x3dd18039	0.10229535
67	0xbea1d1f1	-0.31605485
68	0x3e7eada8	0.24870932
69	0xbfa7788a	-1.3083661
70	0x3c7ad422	0.0153093655
71	0x3dda7d18	0.10668391
72	0x3d8cf201	0.06882096
73	0xbeb4971c	-0.35271537
74	0xbf4acf60	-0.7922268
75	0xbe39344b	-0.18086354
76	0x3dcd37f9	0.100204416
77	0xbe359279	-0.17731656
78	0xbf98c6e9	-1.1935703
79	0xbdad2804	-0.08454898
80	0x3cbb7ff0	0.022888154
81	0x3d3ab432	0.045582004
82	0xbd07b617	-0.03313264
83	0x3e01cf8f	0.12676834
84	0xbe334080	-0.17505074
85	0xbd0d9a97	-0.034571256
86	0x3e758b4d	0.2397892
87	0xbe515e4f	-0.20446132
88	0x3c807883	0.015682464
89	0x3d9f2590	0.07770836
90	0xbe95e2a5	-0.2927448
91	0x3e0c9100	0.13727188
92	0xbf047399	-0.5173889
93	0xbd8b3329	-0.067968674
94	0x3d7a1de7	0.061063673
95	0xbee57d9b	-0.44822392
96	0x3bd2bf6e	0.0064315116
97	0x3c9b6f2d	0.018973911
98	0xbe477330	-0.19477534
99	0xbe6a1514	-0.22859603
100	0x3e86a7a7	0.26299784
101	0xbd336ab0	-0.043802917
102	0x3f0db033	0.55346984
103	0x3e7c2b8e	0.2462599
104	0xbe318857	-0.17337166
105	0xbe7d13ee	-0.24714634
106	0xbe8fbac8	-0.2807219
107	0xbe6c17c1	-0.23055936
108	0x3f343225	0.70389014
109	0x3e31e2e9	0.17371716
110	0x3e9c9aa9	0.30586746
111	0xbf4210d3	-0.7580692
112	0x3e1db0f6	0.15399536
113	0x3eeeea5f	0.46663186
114	0x3e5e54ce	0.21712038
115	0xbd8310f0	-0.06399715
116	0xbcddd4a7	-0.02707894
117	0x3ec1ce15	0.3785254
118	0xbeaf3312	-0.3421865
119	0xbe1a5eff	-0.150753
120	0x3f0f1dd6	0.559049
121	0x3e0733c3	0.1320334
122	0x3e36abfc	0.17839044
123	0xbe89309a	-0.26794893
124	0xbb8152cf	-0.003946639
125	0xbecef5b7	-0.4042184
126	0x3b7d0be0	0.0038611814
127	0xbedd6fc8	-0.43249345
128	0x3e36917a	0.17828932
129	0x3e153963	0.14572673
130	0x3e79cd4a	0.24394718
131	0x3ea6c0d9	0.32569006
132	0x3e80112e	0.25013107
133	0x3eb93550	0.36173487
134	0x3dbb5210	0.091465116
135	0x3e5b06b4	0.21389276
136	0x3e8e5f09	0.2780688
137	0x3e503520	0.20332766
138	0x3e371264	0.17878109
139	0x3e681580	0.22664452
140	0x3e7c56cd	0.24642487
141	0x3e8a5056	0.27014416
142	0x3ed29686	0.41130465
143	0x3e205b3b	0.15659802
144	0x3d616e63	0.055036914
145	0x3e80b0da	0.25134927
146	0x3e4af4d6	0.1981996
147	0x3e5455b6	0.20735821
148	0x3de45d15	0.111505665
149	0x3dcde8be	0.10054158
150	0xbdaf635e	-0.08563875
151	0x3dad9cb9	0.08477158
152	0x3e58a75d	0.21157594
153	0x3e68d9dc	0.22739357
154	0x3e56ea73	0.20987873
155	0x3e1223c4	0.14271456
156	0x3e77d272	0.24201372
157	0x3e4fdc64	0.20298916
158	0x3dfdb52b	0.12388071
159	0x3e9b0b93	0.30282268
160	0x3e2134b1	0.15742756
161	0x3e53a6b7	0.20669065
162	0x3e665c1b	0.22496073
163	0x3e0bb75d	0.13644166
164	0x3df2bb9c	0.1185219
165	0x3e67f187	0.22650729
166	0x3e5b0817	0.21389805
167	0x3e7071ae	0.23480865
168	0x3e8650d0	0.2623353
169	0x3e95da6a	0.292682
170	0x3c96bd10	0.018400699
171	0x3d1dcb75	0.03852411
172	0xbe3adc3e	-0.18248078
173	0x3de78519	0.11304683
174	0xbed3ea8e	-0.4138989
175	0xbd887114	-0.06662193
176	0x3e7b27f7	0.24526964
177	0xbd2c9f30	-0.042144
178	0x3e539702	0.20663074
179	0x3e038ea0	0.12847376
180	0x3d75b171	0.059983674
181	0xbe4e0426	-0.2011877
182	0xbd85c1bf	-0.06531095
183	0x3dc815fb	0.097698174
184	0x3e0ca13d	0.13733383
185	0x3e9925e7	0.2991173
186	0x3de16ba1	0.11006857
187	0x3e8004a1	0.25003532
188	0x3d4df5a8	0.050283104
189	0x3e9df6db	0.30852398
190	0x3d9daa2c	0.07698473
191	0x3e9b886a	0.30377513
192	0x3e33685c	0.17520279
193	0x3e6f7f97	0.23388515
194	0x3dc41782	0.09574796
195	0x3e9c2a84	0.30501187
196	0x3e163efe	0.14672467
197	0x3ecbb057	0.39782974
198	0x3e07bc15	0.13255341
199	0x3e675d28	0.2259413
200	0x3e664038	0.22485435
201	0x3df68bd7	0.12038391
202	0x3ea6e981	0.32600024
203	0x3e8580b0	0.26074743
204	0x3e6803cc	0.22657698
205	0x3e1cfc04	0.15330511
206	0x3ea24e9d	0.31700602
207	0x3e1e70cb	0.15472715
208	0xbbfc2c12	-0.0076956833
209	0x3e7d80a7	0.24756108
210	0x3e3741e5	0.1789623
211	0x3e63832a	0.22218004
212	0x3e9d1a62	0.3068419
213	0x3e983732	0.2972961
214	0xbdae3c09	-0.085075445
215	0x3c3af401	0.011410714
216	0x3e7114c8	0.23543084
217	0x3d0aca7f	0.03388452
218	0x3e867397	0.26260063
219	0x3e07ce30	0.13262248
220	0x3e289324	0.1646238
221	0x3e2f9278	0.17145717
222	0x3e80f409	0.25186184
223	0x3e776883	0.24160962
224	0x3e64c9f9	0.22342671
225	0x3dfe3c88	0.12413889
226	0x3e77477c	0.24148363
227	0x3e35a944	0.17740351
228	0x3e30834d	0.17237587
229	0x3e3b06ba	0.18264285
230	0x3e7aec4c	0.24504203
231	0x3eacef0f	0.33776137
232	0x3e49d58a	0.19710365
233	0x3e696f74	0.22796422
234	0x3e51257f	0.2042446
235	0x3e3fe918	0.18741262
236	0xbdbd461f	-0.0924189
237	0x3e83d7a4	0.25750458
238	0xbe792470	-0.24330306
239	0xbdaba736	-0.08381502
240	0x3e00f79e	0.12594458
241	0x3c9ce26a	0.019150931
242	0x3e969786	0.29412478
243	0x3df5a33f	0.11994027
244	0x3dd66551	0.10468543
245	0xbd2e2135	-0.042512137
246	0xbdf328c1	-0.118730076
247	0x3e8d84ac	0.27640283
248	0x3e92a3e1	0.28640655
249	0x3ec94cae	0.39316314
250	0x3e26bedb	0.16283743
251	0x3e82f0b7	0.25574276
252	0x3e3349e0	0.1750865
253	0x3ea87f1a	0.3290947
254	0x3d1449a5	0.036203045
255	0x3e939b21	0.2882929

net.2.bias f4 [64]
0	0xbb3250f1	-0.002720889
1	0x3e78d390	0.24299455
2	0x3d8edc04	0.069755584
3	0x3e3289ac	0.1743533
4	0x3da19228	0.07889205
5	0x3f11a018	0.5688491
6	0x3e342f52	0.17596176
7	0x3d56dc10	0.05245596
8	0xbd1704f8	-0.036869973
9	0xbd979019	-0.07400531
10	0x3e27933a	0.16364756
11	0xbdcb199a	-0.099169925
12	0x3e359e5f	0.17736195
13	0xbd0030ac	-0.031296417
14	0x3d7169f5	0.05893894
15	0x3c35032c	0.0110481195
16	0x3cb00945	0.021488795
17	0x3d37973d	0.044821966
18	0x3d4ae616	0.049535833
19	0x3d4a6400	0.049411774
20	0xbd1d1f6b	-0.03836004
21	0x3e033921	0.12814762
22	0x3c62f953	0.013853389
23	0x3db5d8fd	0.08879278
24	0x3c2d2bd3	0.010569531
25	0x3e3fd27f	0.18732642
26	0xbe09d80e	-0.13461325
27	0x3d08c017	0.033386316
28	0x3cd11b89	0.025525825
29	0x3e4e09ef	0.20120977
30	0x3ca7e648	0.020495549
31	0x3f1693a1	0.58819014
32	0xbd5cf0ad	-0.053940464
33	0x3e0353ec	0.12824982
34	0xbdf0945a	-0.11747046
35	0xbd0d8ca4	-0.034557953
36	0x3d9fc04f	0.07800352
37	0x3d5d33d2	0.054004498
38	0xbd982b1e	-0.07430099
39	0xbe87ae18	-0.2650001
40	0xb74dda40	-1.22697675e-05
41	0x3dac5cf9	0.084161706
42	0x3da819cc	0.08208045
43	0x3e8b4836	0.2720353
44	0xbe0c61d6	-0.13709196
45	0x3e7e104b	0.24810903
46	0xbe129d44	-0.14317805
47	0x3e234a9c	0.1594643
48	0xbc3baf46	-0.011455363
49	0x3e8a858a	0.27055007
50	0x3b3092d1	0.0026942978
51	0x3e2f5f8e	0.17126295
52	0xbe617bbd	-0.22019859
53	0x3e71ac74	0.23600942
54	0xbd35ee0c	-0.044416472
55	0x3e6bbad1	0.23020484
56	0x3df261a5	0.118350305
57	0x3c40e375	0.01177298
58	0x3dec1d42	0.11529018
59	0x3d2bbf05	0.041930217
60	0xbf015c5f	-0.5053157
61	0x3c47e26b	0.012199978
62	0x3e3d556a	0.18489614
63	0x3e4a31fc	0.1974563

net.4.weight f4 [1, 64]
0	0xbda0f400	-0.07859039
1	0xbfca160b	-1.5787977
2	0x3eabd31e	0.33559507
3	0x3e8c0545	0.2734777
4	0xbdd4e4dc	-0.10395214
5	0xc00d2b03	-2.2057502
6	0x3e90c087	0.28271887
7	0xbd575cf6	-0.05257889
8	0x3eb212ce	0.34779972
9	0xbf7bd765	-0.9837554
10	0xbf24bd8a	-0.64351714
11	0xbd95f874	-0.07322779
12	0x3e8382f7	0.25685856
13	0x3f028d17	0.50996536
14	0x3eaaff0f	0.3339772
15	0x3e77b030	0.24188304
16	0xbda205d1	-0.07911266
17	0x3b6c33f0	0.00360417
18	0xbd8b8e68	-0.06814271
19	0x3e8c42c0	0.27394676
20	0x3ea05c9f	0.31320664
21	0x3eaac76d	0.33355275
22	0xbf79b0b9	-0.9753528
23	0x3e84862b	0.25883612
24	0x3e9980d0	0.2998109
25	0x3e787e5c	0.24266952
26	0xbd9b1c28	-0.0757373
27	0xbd5b9399	-0.053607557
28	0x3e9f7e07	0.3115084
29	0x3e80e76d	0.25176564
30	0x3e6e1a83	0.23252301
31	0x3f8210cc	1.0161376
32	0xbccbafc5	-0.024864087
33	0x3e7750f9	0.24151982
34	0xbd2e926d	-0.04262011
35	0x3e81604a	0.25268775
36	0xbec76e67	-0.38951418
37	0xbd3d4c20	-0.046215177
38	0xbd6c0cf0	-0.057629526
39	0xbfc45cdc	-1.5340838
40	0xbfaf2e35	-1.3685976
41	0xbd598709	-0.053107295
42	0x3e8a70c6	0.27039164
43	0xbf9dda33	-1.2332214
44	0xbccfd57e	-0.025370356
45	0xbf3f55d4	-0.7474034
46	0xbe9baad4	-0.3040377
47	0xbf5f9f0e	-0.87352073
48	0x3ea2e3a6	0.31814307
49	0xbfdf1c0b	-1.7430433
50	0x3e830b86	0.2559473
51	0xbf5a131e	-0.8518542
52	0xbfbe964d	-1.4889618
53	0xbfe83eea	-1.81442
54	0x3ea06421	0.31326392
55	0xbfa8377c	-1.3141932
56	0x3eabf567	0.33585665
57	0x3ea88a1a	0.32917863
58	0x3ea79f57	0.32738754
59	0x3ea758f2	0.32685047
60	0xbfe0662e	-1.7531183
61	0x3e941522	0.28922373
62	0x3e951485	0.29117218
63	0x3ea016c3	0.31267366
