heuristic_net_frac_100.pt (torch, 21513 bytes, 5 tensors)

net.0.weight f4 [64, 4]
0	0x3e129b98	0.14317167
1	0xbf5cb4ac	-0.86213183
2	0x3e1061f9	0.14099874
3	0xbda7d6bc	-0.08195254
4	0xbeb9620d	-0.3620762
5	0xbf032654	-0.5123036
6	0x3dc147eb	0.094375454
7	0x3f3a5f56	0.7280172
8	0x3f14ebfd	0.5817259
9	0x3d182126	0.037140988
10	0xbf13512b	-0.5754573
11	0xbd75b9c2	-0.059991606
12	0x3c3a69c7	0.011377758
13	0xbe293cc4	-0.16527086
14	0xbecfcce4	-0.40586007
15	0x3f841a09	1.0320445
16	0x3e1eb9c1	0.15500547
17	0xbf633e62	-0.88767064
18	0x3f873a5a	1.0564682
19	0x3ef14779	0.47124842
20	0xbf079b21	-0.5297108
21	0xbd72cc9b	-0.05927716
22	0x3f2f003c	0.6835973
23	0x3ef54b3c	0.47908962
24	0x3e5f4599	0.21803893
25	0xbdbac818	-0.09120196
26	0x3f8595f7	1.0436391
27	0xbe326e11	-0.174248
28	0xbf3d23a0	-0.73882484
29	0xbe14b453	-0.14521913
30	0x3f2f93ac	0.68584704
31	0x3d21da37	0.039514747
32	0x3f2a5eb4	0.66550756
33	0x3ead3ad2	0.3383394
34	0xbe854122	-0.26026255
35	0x3e9f6e4f	0.31138846
36	0xbbb8f1dd	-0.0056440667
37	0x3f368507	0.71296734
38	0x3c02edee	0.007991297
39	0xbf3c88e9	-0.7364641
40	0xbf16e0a5	-0.5893653
41	0x3e495df2	0.19664744
42	0x3f22c2fe	0.63578784
43	0xbee9631b	-0.45583424
44	0x3f32fa16	0.6991285
45	0x3bc6624b	0.006054198
46	0xbf3ac36c	-0.7295444
47	0xbbac92f7	-0.005266543
48	0xbe3b1fab	-0.18273799
49	0xbecc7def	-0.3993983
50	0xbf720718	-0.94542074
51	0x3f8a1733	1.078833
52	0x3f15341b	0.5828263
53	0x3eafe1ae	0.34351867
54	0xbf82e62f	-1.0226496
55	0xbf0f39f9	-0.55947834
56	0xbf3fd8ec	-0.7494037
57	0x3af6980c	0.0018813624
58	0x3f46c96f	0.77651113
59	0xbc00ceaa	-0.007861773
60	0xbccfee2a	-0.02538212
61	0xbee2817b	-0.4423941
62	0x3d85cafe	0.06532858
63	0x3ef773e0	0.48330593
64	0x3e8de6e5	0.2771522
65	0x3e02f485	0.1278859
66	0xbf548191	-0.830102
67	0x3f284592	0.65731156
68	0x3e9a6425	0.3015453
69	0xbf30987a	-0.6898266
70	0x3f53b297	0.8269438
71	0x3df3cc0e	0.11904155
72	0xbe7caca5	-0.24675234
73	0xbdf84d46	-0.12124114
74	0xbfa20060	-1.2656364
75	0xbf00ba45	-0.50284225
76	0xbf206e1a	-0.62668
77	0x3aaeee43	0.0013346154
78	0x3f26cd87	0.6515736
79	0xbbdbc89c	-0.006707264
80	0xbf75f24c	-0.9607284
81	0xbeb65ee5	-0.35619274
82	0xbee26f55	-0.44225565
83	0x3ed4070f	0.41411635
84	0xbf170554	-0.58992505
85	0x3eb1ec1f	0.3475046
86	0x3eaede41	0.3415394
87	0xbf1d934e	-0.61552894
88	0xbbbbb896	-0.0057287915
89	0xbecfe8d7	-0.4060733
90	0x3f22e533	0.6363098
91	0x3f56a6db	0.8384835
92	0x3f713264	0.94217515
93	0xbf243564	-0.6414397
94	0xbdde2939	-0.10847706
95	0xbe9957b1	-0.29949716
96	0xbf2c669d	-0.67344075
97	0xbf25f6f5	-0.6482995
98	0xbf24e5ef	-0.6441335
99	0xbddbdfee	-0.107360706
100	0xbeed1ce6	-0.4631111
101	0xbf510f2f	-0.81663793
102	0x3e82db0e	0.2555775
103	0x3e6f5a2a	0.23374239
104	0x3dee12ea	0.11624701
105	0xbb4b4e6a	-0.003102208
106	0xbf709569	-0.9397798
107	0xbe3bd5da	-0.18343297
108	0x3f0682c6	0.52543294
109	0x3e3b3d20	0.18285036
110	0xbe5fb7ec	-0.21847504
111	0xbf6d81ee	-0.9277638
112	0xbecbb37f	-0.39785382
113	0x3f3f7ab7	0.74796623
114	0xbd3d98ea	-0.04628841
115	0xbe87923d	-0.26478758
116	0x3e831e66	0.2560913
117	0xbed5bd24	-0.41745865
118	0xbe856d7d	-0.26060095
119	0x3f41e7d1	0.7574435
120	0x3f310773	0.6915199
121	0x3e2b6629	0.1673819
122	0xbf37556f	-0.71614736
123	0xbe7de484	-0.24794203
124	0xbf6e4200	-0.9306946
125	0x3f802a25	1.0012861
126	0xbe8cacc9	-0.27475575
127	0xbe841823	-0.25799665
128	0xbe1f5389	-0.1555921
129	0x3f3c5492	0.73566544
130	0x3f04ba6b	0.5184695
131	0x3eb43fcb	0.3520492
132	0xbab8d4e9	-0.0014101538
133	0xbf88b398	-1.0679808
134	0x3f1f825d	0.62308294
135	0xbf7efc6f	-0.99603933
136	0x3e97b6f7	0.2963178
137	0xbf86d7cb	-1.0534605
138	0xbf15a9bc	-0.5846212
139	0x3d97098b	0.07374867
140	0x3e5c3635	0.21505053
141	0x3f5d4bc3	0.8644373
142	0x3e557218	0.20844305
143	0xbf3391b1	-0.7014418
144	0x3e8908e8	0.26764607
145	0x3e287745	0.16451748
146	0x3f69484a	0.9112593
147	0x3f91145b	1.1334337
148	0xbed7db6e	-0.421596
149	0x3d913a77	0.070912294
150	0xbf0eef19	-0.55833584
151	0xbf0e260c	-0.55526805
152	0xbf2f7785	-0.6854175
153	0xbed43766	-0.41448516
154	0x3efcc02e	0.4936537
155	0x3f0332fa	0.5124966
156	0x3f5b02ea	0.8555132
157	0xbe8c9771	-0.2745929
158	0x3ecca3a6	0.39968604
159	0xbf0ca518	-0.54939413
160	0x3f1c90d2	0.6115848
161	0xbee0bb0b	-0.43892702
162	0xbf391a91	-0.7230616
163	0xbd82f331	-0.06394041
164	0x3ef46099	0.47729948
165	0xbf62150d	-0.8831337
166	0xbebae86e	-0.36505455
167	0x3f13fa72	0.57804024
168	0xbf03a935	-0.51430064
169	0x3ebe7b9c	0.3720368
170	0x3ec86d08	0.39145684
171	0xbdd1c90f	-0.10243427
172	0x3fa695bb	1.3014444
173	0x3a7cd114	0.0009644192
174	0x3e72c3a0	0.23707438
175	0xbd15d548	-0.036580354
176	0xbf363605	-0.7117618
177	0xbd89a8b2	-0.06721629
178	0x3f005227	0.50125355
179	0x3ea27eee	0.31737465
180	0xbb667499	-0.0035164712
181	0xbf1169bc	-0.5680196
182	0xb9b758fe	-0.00034970784
183	0x3f15ff41	0.5859261
184	0xbc13cb78	-0.009020679
185	0x3f098faa	0.5373484
186	0x3bb4e12b	0.005520006
187	0xbf0e5424	-0.5559714
188	0xbf4adaf4	-0.79240346
189	0x3ef9f02a	0.48816043
190	0xbd0b6509	-0.0340319
191	0xbed4850e	-0.41507763
192	0xbecc3cc8	-0.39890122
193	0xbf02b21b	-0.5105302
194	0x3e5d0119	0.2158245
195	0x3efd31d0	0.49452066
196	0x3df32dbe	0.11873959
197	0x3d2ea319	0.04263601
198	0xbf6a0fe4	-0.914305
199	0xbeeef408	-0.46670556
200	0x3e8defb0	0.2772193
201	0xbf8f7e0d	-1.1210343
202	0xbe306cba	-0.17228976
203	0xbf1b86f2	-0.60752785
204	0x3f455e8c	0.7709739
205	0x3dd0da8a	0.10197933
206	0x3f0ce564	0.5503752
207	0x3f766572	0.96248543
208	0xbd7981fa	-0.06091497
209	0x3f135bc2	0.57561886
210	0x3f28f209	0.65994316
211	0xbe81809a	-0.25293428
212	0xbe6dc1ef	-0.23218511
213	0xbec2d606	-0.38053912
214	0x3f36794e	0.71278846
215	0x3e48c5a3	0.19606642
216	0x3f71e1ce	0.94485176
217	0x3f1bca3f	0.6085548
218	0xbee0c617	-0.4390113
219	0x3d7ce587	0.06174233
220	0x3ce7db99	0.028302955
221	0xbe685b95	-0.22691186
222	0xbf62bb2b	-0.88566846
223	0x3ebe71e6	0.37196273
224	0x3e54e7a3	0.20791487
225	0x3f49351e	0.78596675
226	0xbefdeb1f	-0.49593446
227	0xbe8f9a00	-0.2804718
228	0xbc391381	-0.011296154
229	0xbf475fb2	-0.77880394
230	0x3d89ea4e	0.06734143
231	0x3f4b77fc	0.79479957
232	0x3f09954a	0.5374342
233	0x3f329faf	0.6977491
234	0x3e2325bc	0.15932363
235	0xbe6f4caa	-0.23369089
236	0xbe099348	-0.1343509
237	0x3e914a26	0.28376883
238	0xbeead97a	-0.45869046
239	0x3fa1c985	1.2639624
240	0x3ec0749c	0.37588966
241	0x3f4edce3	0.80805796
242	0xbd0ea2f1	-0.03482336
243	0xbe547c24	-0.20750481
244	0x3f1f8113	0.62306327
245	0xbdbecb46	-0.09316115
246	0xbf272062	-0.6528379
247	0x3eb16894	0.346501
248	0x3f3a0830	0.72668743
249	0xbf368064	-0.7128966
250	0x3f2fb73e	0.6863898
251	0xbf471342	-0.7776376
252	0xbe922bee	-0.2854914
253	0xbfaa2de2	-1.3295252
254	0xbdde3dd7	-0.10851639
255	0xbe458c3b	-0.19291775

net.0.bias f4 [64]
0	0x3f58bea7	0.8466591
1	0x3cf354db	0.029703548
2	0xbcb66d73	-0.022268986
3	0x3dff4a74	0.12465373
4	0xbc5d4c02	-0.013506891
5	0x3ce07e12	0.027403865
6	0x3f554374	0.8330605
7	0xbd1126aa	-0.035437264
8	0x3f1391c4	0.57644296
9	0x3cd96577	0.02653764
10	0x3eb8c274	0.36085856
11	0xbd5185f1	-0.051153127
12	0x3de83f97	0.11340254
13	0xbe37c03a	-0.17944422
14	0x3d6438a5	0.055718083
15	0x3b8e8556	0.004349391
16	0xbebe595d	-0.37177554
17	0x3d9b420f	0.07580959
18	0xbef6d6de	-0.48210806
19	0x3d3b2ee7	0.045699026
20	0xbeb106a3	-0.34575376
21	0xbe2ee0d5	-0.17077954
22	0x3da930ec	0.08261284
23	0x3eda5fde	0.42651266
24	0x3b998dc0	0.0046860874
25	0xbe3b3883	-0.18283276
26	0xbeb764cb	-0.35819086
27	0xbd9b4260	-0.075810194
28	0xbecf528b	-0.40492663
29	0xbe1d7187	-0.15375338
30	0xbdd99325	-0.10623769
31	0x3e698dde	0.22808024
32	0xbc7f84b3	-0.015595603
33	0xbebf4583	-0.3735772
34	0xbeedac7e	-0.46420664
35	0xbf0319b8	-0.5121112
36	0x3eb263f4	0.34841883
37	0x3eefe2ba	0.46852666
38	0xbd7eb08f	-0.0621801
39	0x3e0a9806	0.13534555
40	0x3f205acd	0.6263855
41	0xbc9e5f5b	-0.019332578
42	0x3d576232	0.05258388
43	0x3ee3018b	0.44337115
44	0xbcec2e2a	-0.028830606
45	0xbc95fe72	-0.018309806
46	0x3cb4cf63	0.022071546
47	0x3d88f867	0.06688004
48	0xbdea69cc	-0.114459604
49	0xbe7b8dbb	-0.24565785
50	0xbe1a1d1b	-0.15050165
51	0xbe4f7860	-0.20260763
52	0x3e42ac6a	0.19011083
53	0xbef3c881	-0.4761391
54	0x3ea8e9f4	0.32990992
55	0x3f33cb8e	0.70232475
56	0xbc3ca576	-0.011514058
57	0xbd9a42d0	-0.07532275
58	0x3eb6ad42	0.3567906
59	0x3e59939a	0.21247712
60	0x3e95ad0f	0.29233596
61	0x3a881fce	0.0010385455
62	0xbe0fa06c	-0.1402604
63	0xbf08183a	-0.53161967

net.2.weight f4 [64, 64]
0	0x3da448b0	0.080216765
1	0x3df27ba4	0.11839989
2	0x3e708208	0.23487103
3	0x3e86b0c0	0.26306725
4	0x3dd6cd10	0.10488331
5	0x3d88cf8b	0.06680211
6	0x3e9093b9	0.28237703
7	0x3e878b39	0.26473406
8	0x3ddc8eda	0.10769434
9	0x3e2d9d8d	0.16954632
10	0x3de6c980	0.11268902
11	0x3e82f67a	0.25578672
12	0x3dd5e1de	0.10443471
13	0x3d891f4d	0.06695423
14	0x3e4e6aa1	0.20157863
15	0x3e729e79	0.23693265
16	0x3ea66d1f	0.32505128
17	0x3de73ed3	0.1129128
18	0xbd3450d5	-0.0440224
19	0x3e4105c3	0.18849854
20	0x3eb6cfe8	0.35705495
21	0x3e8208ff	0.25397488
22	0x3eae21f2	0.34010273
23	0x3eaa7c92	0.33298165
24	0x3e8414ce	0.25797123
25	0x3e281c9b	0.16417162
26	0x3f0e8065	0.55664665
27	0x3e6c3f9b	0.23071139
28	0xbe58daf2	-0.21177271
29	0x3e05d57e	0.13069722
30	0x3ea8de71	0.3298221
31	0x3e93eb04	0.2889024
32	0x3ea6f83b	0.3261126
33	0x3d834f4a	0.064116076
34	0x3b5e5d2d	0.0033930049
35	0x3e861900	0.26190948
36	0x3d9cdff5	0.07659904
37	0x3e21c6bd	0.15798469
38	0x3e86fc3a	0.2636431
39	0x3dc09840	0.094040394
40	0x3e31c75b	0.17361204
41	0x3e3ad850	0.18246579
42	0x3e2acc18	0.16679418
43	0xbc89dfca	-0.016830344
44	0x3e0810f2	0.13287714
45	0x3d5e6223	0.05429281
46	0x3e5005d0	0.20314717
47	0x3e7419d2	0.23837975
48	0x3e42ae09	0.19011702
49	0x3f020533	0.50789183
50	0x3e7a6d78	0.24455822
51	0x3e3ab532	0.18233183
52	0x3de40b98	0.11135024
53	0x3c361d57	0.011115394
54	0x3dce1cf2	0.10064115
55	0x3d0dda95	0.034632284
56	0x3e09a4b8	0.13441741
57	0x3e48e085	0.19616897
58	0x3e862e8c	0.26207387
59	0xbdb27fec	-0.087158054
60	0x3ddad231	0.10684622
61	0x3e3fa986	0.18717012
62	0xbc605a62	-0.013693424
63	0xbd234722	-0.03986276
64	0x3e22948f	0.15876983
65	0x3d81e49b	0.06342431
66	0x3e807222	0.25087076
67	0x3e24020f	0.1601641
68	0x3da70ca0	0.08156705
69	0x3e67d60f	0.2264025
70	0x3e0b4db5	0.13603862
71	0x3e4ad21a	0.1980671
72	0x3e902434	0.2815262
73	0x3e15ba31	0.14621808
74	0x3d5e2421	0.054233674
75	0x3da6fbe6	0.081535146
76	0x3e04be50	0.12963223
77	0x3e0f920d	0.14020558
78	0x3e71df50	0.23620343
79	0x3e062dd9	0.13103427
80	0x3edd2612	0.43193108
81	0x3e5418a9	0.20712532
82	0xbdf953bf	-0.121741764
83	0x3e357c13	0.17723112
84	0x3e0f7579	0.14009656
85	0x3e69fb32	0.2284973
86	0x3e8d8b53	0.27645358
87	0x3e017b1f	0.12644623
88	0x3e9c8fdb	0.30578503
89	0x3de16fa5	0.11007623
90	0x3ea17934	0.31537783
91	0x3e8d893b	0.2764376
92	0xbde74d50	-0.11294043
93	0x3e0bda82	0.13657573
94	0x3e726ceb	0.23674361
95	0x3e043208	0.1290971
96	0x3e4040f6	0.1877478
97	0x3e934966	0.28766936
98	0x3d9f71e5	0.077853955
99	0x3e43de5e	0.19127795
100	0x3dc5da77	0.096608095
101	0x3e54dea1	0.20788051
102	0x3d9c757c	0.07639596
103	0x3e956809	0.29180935
104	0x3e944522	0.28958994
105	0x3e11207b	0.14172547
106	0x3d2dbc38	0.042415828
107	0xbe1a0dee	-0.15044376
108	0x3d6af700	0.057364464
109	0x3df0910e	0.11746417
110	0x3d3a28fa	0.045449235
111	0x3e8dbdaf	0.2768378
112	0x3ddd8f31	0.10818327
113	0x3eb441a5	0.35206333
114	0x3e07fad9	0.13279285
115	0x3e492e30	0.19646525
116	0x3d914ac8	0.070943415
117	0x3dfdad8c	0.12386617
118	0x3e48fb8a	0.19627205
119	0x3dacfbdf	0.08446478
120	0x3ea22e92	0.31676155
121	0x3e5bcae9	0.21464123
122	0x3e0c9b08	0.13731015
123	0xbe438a75	-0.19095786
124	0x3e054203	0.13013463
125	0x3e5f345a	0.21797314
126	0x3bbd565a	0.005778116
127	0x3da0696e	0.07832609
128	0x3d6083ef	0.05481332
129	0x3ca9bae7	0.020719005
130	0x3e8509a2	0.25983912
131	0x3e3a57f1	0.1819761
132	0x3e7f9f52	0.2496312
133	0x3e8623ac	0.2619909
134	0x3e3bfda3	0.18358473
135	0x3e6aa931	0.22916104
136	0x3dc93074	0.09823695
137	0x3e8c1257	0.27357742
138	0x3e19dd93	0.1502593
139	0x3e93d300	0.28871918
140	0x3dd3f9c1	0.10350371
141	0x3e51579c	0.20443577
142	0x3e7ff57a	0.24995986
143	0x3e121a47	0.14267837
144	0x3e6886f4	0.2270773
145	0x3df19d26	0.11797552
146	0xbd0cbdc5	-0.034360666
147	0x3eb13463	0.3461028
148	0x3e8bda65	0.2731506
149	0x3d6b0cfd	0.057385433
150	0x3e875117	0.26429054
151	0x3ddd1efb	0.10796925
152	0x3ebcb900	0.36859894
153	0x3e5794be	0.21052834
154	0x3ee5a00f	0.44848678
155	0x3eb236b1	0.3480735
156	0xbe6e60ed	-0.23279162
157	0x3e5c9364	0.215406
158	0x3e549821	0.20761158
159	0x3e42f6ca	0.19039455
160	0x3e14c57e	0.14528462
161	0x3e41f90e	0.18942663
162	0x3c551596	0.013005635
163	0x3e8e3918	0.27777934
164	0xbe1893c4	-0.14900118
165	0x3e58b2a4	0.21161896
166	0x3d1be217	0.038057413
167	0x3e134984	0.14383513
168	0x3dbdb0fa	0.09262271
169	0x3e0e1dce	0.13878557
170	0x3e1a5b90	0.15073991
171	0xbd363343	-0.04448248
172	0x3da8e053	0.082459114
173	0x3deba1c6	0.11505465
174	0x3e8a9529	0.27066925
175	0x3e687bf2	0.22703531
176	0x3de191a2	0.110141054
177	0x3ec22faa	0.3792699
178	0x3d6d9178	0.058000058
179	0x3e614166	0.21997604
180	0x3d97814b	0.073977076
181	0xbce967c3	-0.02849186
182	0x3e2465b9	0.16054429
183	0xbd1dc93f	-0.038522
184	0x3e15b7f0	0.14620948
185	0x3e490190	0.19629502
186	0x3e609cda	0.21934834
187	0xbd0eed4a	-0.034894265
188	0x3e431f91	0.1905501
189	0x3e89fb51	0.26949552
190	0xbcc20724	-0.023685046
191	0x3c63f289	0.013912805
192	0x3df485ce	0.11939584
193	0xbda2dbce	-0.07952081
194	0xbe8c58e3	-0.27411565
195	0xbde1d944	-0.11027768
196	0xbf693abf	-0.91105264
197	0x3d86cb80	0.06581783
198	0x3dd0ca68	0.10194856
199	0xbedf435f	-0.43606088
200	0xbc36bb61	-0.011153073
201	0xbe21d1be	-0.15802667
202	0xbf290c60	-0.6603451
203	0xbed37a2c	-0.41304147
204	0x3e348bf8	0.17631519
205	0xbcc84498	-0.02444677
206	0xbf7a8484	-0.9785845
207	0xbebc608a	-0.36792403
208	0xbfa4dce0	-1.2879906
209	0xbe435598	-0.1907562
210	0xbdf33623	-0.1187556
211	0xbf55606b	-0.8335025
212	0x3f4950be	0.7863883
213	0xbed2c027	-0.41162226
214	0x3e1f9adc	0.15586418
215	0xbe65b2ed	-0.22431536
216	0xbd412f8e	-0.047164492
217	0x3c1497bf	0.009069382
218	0xbeb7289a	-0.35773164
219	0x3dd7a01f	0.105285875
220	0x3f013bf2	0.50482094
221	0x3d10ba79	0.035334084
222	0xbe24e491	-0.16102816
223	0x3e03e721	0.12881137
224	0xbe92954e	-0.28629535
225	0x3ea52608	0.32255578
226	0xbf7a5412	-0.9778453
227	0x3ea41a98	0.3205154
228	0x3e843a18	0.25825572
229	0xbdd48da2	-0.10378577
230	0xbe0d79ab	-0.13815944
231	0x3eb0908a	0.34485275
232	0x3eb2078c	0.34771383
233	0xbede17b8	-0.4337747
234	0xbf334b08	-0.70036364
235	0x3eb00359	0.34377554
236	0x3d84561d	0.06461737
237	0xbe8cd62f	-0.2750716
238	0xbeaeef24	-0.34166825
239	0x3e085325	0.13312967
240	0x3dc01964	0.09379843
241	0xbf059ea9	-0.5219522
242	0x3e243680	0.16036415
243	0x3c9557d7	0.018230362
244	0xbe8a9a2b	-0.27070746
245	0xbe8f0d60	-0.27939892
246	0x3e79636a	0.2435433
247	0x3ef3c60e	0.4761204
248	0x3bb24b53	0.0054411083
249	0xbecc2de6	-0.39878768
250	0x3df15a7c	0.11784837
251	0x3f79921a	0.9748856
252	0xbdad40d8	-0.084596336
253	0xbeee1a88	-0.46504617
254	0x3f38f753	0.72252387
255	0x3dd32675	0.103100695

net.2.bias f4 [64]
0	0xbb734387	-0.0037119107
1	0x3d10e19b	0.035371404
2	0xbdce715e	-0.10080217
3	0x3b590c9c	0.0033119088
4	0x3ddbc96a	0.10731776
5	0x3c02edf2	0.007991301
6	0xbdf2cabb	-0.11855074
7	0x3de630c7	0.11239772
8	0xbe01d3c8	-0.12678444
9	0x3d090789	0.03345445
10	0x3eb0825e	0.34474462
11	0xbf095341	-0.5364266
12	0x3d365216	0.044511877
13	0x3df25097	0.118317775
14	0x3e5fc9dc	0.21854347
15	0xbddda415	-0.10822312
16	0x3f1da49e	0.6157931
17	0x3ee0eae1	0.43929198
18	0xbd832e1c	-0.06405279
19	0xbdca0145	-0.098635234
20	0x3ee1e500	0.44120026
21	0x3d1c8477	0.038212266
22	0x3d6fae7b	0.058516007
23	0xbd661361	-0.056170825
24	0x3ec554c7	0.38541242
25	0xbcfb03b0	-0.030641407
26	0x3dbf1984	0.093310386
27	0x3eae9840	0.34100533
28	0x3e5492e0	0.20759153
29	0x3c3570d0	0.01107426
30	0x3cbca216	0.023026507
31	0xbe2e344e	-0.1701214
32	0x3c70e081	0.014701963
33	0x3e9266d5	0.2859408
34	0x3e8a0a37	0.26960918
35	0xbda17930	-0.07884443
36	0xbe23844c	-0.15968436
37	0xbd1215f5	-0.03566547
38	0x3d91f07f	0.07125949
39	0x3dd59929	0.104296036
40	0x3dcb8f2e	0.09939419
41	0xbc8e61c3	-0.0173806
42	0x3d8871a3	0.066622995
43	0x3d99f745	0.07517866
44	0xbd4eed28	-0.05051914
45	0x3be89e3f	0.0070989425
46	0xbb7dfe25	-0.0038756218
47	0x3e81155e	0.25211614
48	0xbd07e9dd	-0.033182014
49	0x3bfd215d	0.0077249245
50	0xbdd78741	-0.105238445
51	0x3eabca79	0.33552912
52	0xbdd75d91	-0.10515893
53	0xbcc2ef85	-0.023795852
54	0x3d5ce7cf	0.053932007
55	0x3f5e2fdf	0.86791795
56	0xbd9c8721	-0.07642961
57	0xbd335e15	-0.043790895
58	0xbde111c3	-0.10989716
59	0x3de3c14b	0.11120852
60	0xbd0226bf	-0.031775232
61	0x3e889e51	0.26683286
62	0x3de21e88	0.110409796
63	0x3dc52a82	0.09627248

net.4.weight f4 [1, 64]
0	0x3e650fcc	0.22369307
1	0x3e7eccfd	0.24882884
2	0x3e8e7450	0.27823114
3	0xbff9f4a3	-1.9527782
4	0x3e7b7f29	0.24560227
5	0xbd1f3ae4	-0.03887452
6	0x3e673a06	0.22580728
7	0x3e842e56	0.25816602
8	0xbbfb7df8	-0.0076749288
9	0x3e5d32f7	0.21601473
10	0xbf814587	-1.0099343
11	0xc017793b	-2.3667743
12	0x3e8bc553	0.27298984
13	0xc0160553	-2.344075
14	0xbfd9accb	-1.7005857
15	0xbfc6e3b3	-1.5538238
16	0xc029ad46	-2.6512008
17	0x3f8e99dc	1.1140704
18	0xbd3aa8cd	-0.045571137
19	0x3ea49d72	0.3215137
20	0xbfb6cf8b	-1.4282087
21	0x3e878f45	0.26476493
22	0x3e9158d6	0.2838809
23	0x3e8e3ffc	0.2778319
24	0xbfe5eb50	-1.7962437
25	0x3e9ee993	0.31037578
26	0x3e4d96e9	0.20077099
27	0x3faab133	1.3335327
28	0xbf953f58	-1.1659956
29	0x3e738eac	0.23784894
30	0xbf106800	-0.5640869
31	0x3e77734e	0.24165079
32	0x3e5c2478	0.21498287
33	0xbf9ab115	-1.2085291
34	0xbfe7771e	-1.8083227
35	0x3e785b51	0.24253584
36	0xbfd9ddf0	-1.7020855
37	0xbd1a510f	-0.03767496
38	0x3e8c89a0	0.2744875
39	0x3e679c44	0.22618204
40	0x3e459356	0.19294485
41	0x3e8f5445	0.2799398
42	0x3e8a6d11	0.27036336
43	0x3e7852cd	0.24250336
44	0x3e51f26f	0.20502637
45	0x3e66b6e4	0.22530705
46	0x3e8f1dee	0.27952522
47	0x3ef6c904	0.48200238
48	0x3e5ef763	0.21774058
49	0xbd553ea4	-0.052061692
50	0x3e993bfd	0.2992858
51	0xbfcf871c	-1.6213107
52	0x3e73b838	0.23800743
53	0x3e52b0bb	0.2057523
54	0x3e60df51	0.21960188
55	0x407b9e47	3.9315355
56	0x3e991c87	0.29904577
57	0x3e4e0ed0	0.20122838
58	0xbd86041e	-0.06543754
59	0x3e6968a6	0.22793826
60	0x3e9a45a2	0.3013125
61	0xbf8941f4	-1.0723252
62	0xbffbc37f	-1.9669036
63	0x3e98866a	0.2979005
