heuristic_net_unc.pt (torch, 22105 bytes, 6 tensors)

fc1.weight f4 [64, 4]
0.27356708 -0.5561459 -0.083226725 0.2735178 0.0013184268 -0.64939374 -0.019122932 -0.06524421
-0.13104995 0.5128032 -0.7455647 0.16604927 -0.43542227 -0.06711912 -0.19830014 0.67807186
-0.009913795 0.21885253 -0.36324328 1.2838461 -0.0009192433 0.7650607 -0.00020254993 -0.79208094
-0.195187 0.036166232 0.046932206 -0.11142601 -0.4040785 -0.5422843 0.04951644 0.4163175
0.13725881 -0.0025155528 -0.1257786 0.08376216 0.27728304 -0.18267214 -0.67970014 0.3531546
-0.05469619 0.6014159 -0.4640457 -0.36711574 -0.008365014 -0.48366898 -0.017103245 0.2510408
0.36770755 -0.169033 -0.50528204 -0.23779686 -0.16230053 -0.4085667 -0.21023126 0.5597849
-0.009813196 0.2546301 -0.29789013 -0.5221796 -0.94563144 -0.30524606 -0.2957142 -0.044503745
-0.21387067 0.16839142 -0.64862293 0.45684484 0.21825373 -0.0809738 -0.4656907 0.73110557
-0.5037434 0.26124424 -0.07882568 -0.4806456 -0.78844756 8.453446e-05 0.81913906 0.0008327516
-0.524133 0.33089793 0.3358536 -0.4802703 -0.057616312 -0.33835024 -0.5719069 0.6869064
-0.33100677 -0.31377912 -0.7713652 -0.6214995 0.06409961 0.060778044 -0.47149622 0.18003711
0.04355989 -0.26900032 0.19620295 0.4744369 -0.6168066 0.0007904325 0.64109373 -0.00020968598
0.27795509 -0.40260002 -0.77481514 0.43670797 -0.29400575 0.16612802 -0.02369895 -0.091574274
-0.19609195 0.43521896 -0.051656544 0.051437613 -0.060875773 0.08221041 0.31085452 0.43218282
0.08506562 0.0051177302 0.675882 0.039543957 -0.14299071 0.28527388 0.17162758 -0.10711243
-0.53242415 0.013619254 0.36252427 0.03141839 0.11884001 0.02756313 -0.45737436 0.09611521
-0.47983623 -0.058268975 0.18971218 0.63341403 -0.420054 0.029114405 -0.14272115 0.31960166
0.71878445 0.49588177 -0.74329406 -0.28269866 0.5517053 0.47815764 -0.50412285 -0.5965901
-0.4012094 -0.4592325 -0.7993912 0.021496072 -0.0003989786 0.66818863 0.0004624761 -0.6909947
-0.5392208 0.584236 0.013948062 0.30075404 0.59128577 -0.06637299 -0.21784595 0.016581189
-0.5455696 0.5522636 0.5059221 -0.41923365 -0.20902564 0.18555662 -0.5269944 -0.41642267
-0.05534806 0.07176699 -0.5152539 0.5970797 -0.432833 0.15062998 0.057952814 0.052272126
0.42787138 -0.5604654 0.042538773 0.46962747 -0.0007555733 -0.8920927 0.00028854364 0.92312527
-0.5061291 0.32358783 0.33393127 -0.4680506 0.2190206 0.62874216 -0.004213494 -0.42347893
0.6080941 -0.00037502774 -0.6316734 -0.00046160189 -0.71133286 0.7358907 -0.49545866 0.4008036
-0.00038153795 -0.54064006 5.617336e-05 0.55951416 0.5574423 0.00085925456 -0.57938856 -0.0009715898
-0.14514053 0.010925322 0.42593157 -0.31683132 0.67466205 0.00051460403 -0.7014972 -0.00048067703
-0.49481216 0.8147624 -0.017959453 -0.45149043 -0.23677912 0.37377268 0.52926147 -0.17469916
-0.9376565 0.00082641724 0.97464514 -0.0003996854 0.59662217 0.0006765805 -0.61990017 -0.0004559598
0.6487484 0.00066252844 -0.67449456 -0.000886357 -0.11419377 0.35780144 -0.061071265 0.23044719
0.6785682 0.00097180926 -0.7054133 -0.0008425106 -0.0004981878 0.6963406 -8.782131e-05 -0.7205223
00000000: fc10 8c3e 945f 0ebf c672 aabd 860a 8c3e
00000010: 10cf ac3a ab3e 26bf b2a7 9cbc c29e 85bd
00000020: f531 06be 1247 033f 54dd 3ebf d208 2a3e
00000030: abef debe c075 89bd 310f 4bbe 1e96 2d3f
00000040: 786d 22bc e11a 603e 06fb b9be 1255 a43f
00000050: 60f9 70ba 05db 433f 9563 54b9 d1c5 4abf
00000060: 1adf 47be 0b23 143d fc3b 403d 5233 e4bd
00000070: 61e3 cebe 25d3 0abf c0d1 4a3d 9127 d53e
00000080: 938d 0c3e f9db 24bb 1bcc 00be 7f8b ab3d
00000090: 0bf8 8d3e 680e 3bbe d400 2ebf aed0 b43e
000000a0: 1d09 60bd 64f6 193f 6697 edbe 98f6 bbbe
000000b0: 690d 09bc 76a3 f7be 1b1c 8cbc 6b88 803e
000000c0: 2a44 bc3e fd16 2dbe 2a5a 01bf 0581 73be
000000d0: 1c32 26be a82f d1be dd46 57be 104e 0f3f
000000e0: 87c7 20bc e05e 823e 0e85 98be 90ad 05bf
000000f0: e714 72bf 3649 9cbe da67 97be 8f49 36bd
00000100: ea00 5bbe cd6e 2c3e 270c 26bf 91e7 e93e
00000110: e87d 5f3e 97d5 a5bd 036f eebe bc29 3b3f
00000120: 54f5 00bf cec1 853e 5c6f a1bd 2e17 f6be
00000130: b3d7 49bf 1848 b138 19b3 513f 044d 5a3a
00000140: 952d 06bf 746b a93e 01f5 ab3e fde5 f5be
00000150: 15ff 6bbd 3e3c adbe 7e68 12bf 19d9 2f3f
00000160: b879 a9be a8a7 a0be 3178 45bf 971a 1fbf
00000170: a846 833d 66f2 783d f467 f1be a65b 383e
00000180: db6b 323d 69ba 89be 6de9 483e 65e9 f23e
00000190: 0ae7 1dbf 0735 4f3a b81e 243f 27df 5bb9
000001a0: 2150 8e3e 9721 cebe 495a 46bf 3098 df3e
000001b0: ec87 96be 771d 2a3e 4d24 c2bc 4b8b bbbd
000001c0: 54cc 48be 05d5 de3e d095 53bd 3fb0 523d
000001d0: e058 79bd ee5d a83d 5328 9f3e 1147 dd3e
000001e0: e236 ae3d a2b2 a73b 9a06 2d3f d8f8 213d
000001f0: 286c 12be 6b0f 923e 24bf 2f3e c35d dbbd
00000200: f34c 08bf 4b23 5f3c c89c b93e 92b0 003d
00000210: 6462 f33d 13cc e13c f92c eabe 0dd8 c43d
00000220: 18ad f5be 73ab 6ebd e943 423e 6c27 223f
00000230: 5111 d7be 5581 ee3c 7e25 12be d4a2 a33e
00000240: 4202 383f 37e4 fd3e 8548 3ebf e1bd 90be
00000250: 8f3c 0d3f 14d1 f43e 320e 01bf 21ba 18bf
00000260: 526b cdbe 8620 ebbe e7a4 4cbf 8818 b03c
00000270: 002e d1b9 690e 2b3f 7e78 f239 07e5 30bf
00000280: 600a 0abf 7e90 153f 6a86 643c 6ffc 993e
00000290: 815e 173f 90ee 87bd 0213 5fbe 46d5 873c
000002a0: 73aa 0bbf 2661 0d3f 1c84 013f cba5 d6be
000002b0: d10a 56be 8e02 3e3e 1be9 06bf 5a35 d5be
000002c0: a6b4 62bd 92fa 923d aee7 03bf 37da 183f
000002d0: 499c ddbe bf3e 1a3e ee5f 6d3d 4c1b 563d
000002e0: f511 db3e a97a 0fbf 233d 2e3d 0373 f03e
000002f0: aa11 46ba 3060 64bf ac47 9739 f051 6c3f
00000300: ad91 01bf 4ead a53e 0af9 aa3e 54a4 efbe
00000310: f046 603e 3ff5 203f 5911 8abb 3bd2 d8be
00000320: 0eac 1b3f 5f9f c4b9 59b5 21bf 2803 f2b9
00000330: e919 36bf 5563 3c3f c2ac fdbe 2136 cd3e
00000340: 2809 c8b9 6367 0abf b09b 6b38 523c 0f3f
00000350: 8ab4 0e3f 993f 613a cf52 14bf 4ab2 7eba
00000360: b89f 14be 1f00 333c b413 da3e b737 a2be
00000370: a7b6 2c3f 7ee6 063a 5295 33bf 6103 fcb9
00000380: 0558 fdbe 4594 503f b41f 93bc c129 e7be
00000390: 3a76 72be 225f bf3e ae7d 073f 56e4 32be
000003a0: 420a 70bf eca3 583a 5882 793f de8c d1b9
000003b0: 3bbc 183f 8c5c 313a c7b1 1ebf e30d efb9
000003c0: 6014 263f 88ad 2d3a adab 2cbf 695a 68ba
000003d0: 6cde e9bd c031 b73e dd25 7abd 59fa 6b3e
000003e0: a5b6 2d3f 04c1 7e3a f795 34bf eedb 5cba
000003f0: d198 02ba 6143 323f b52c b8b8 2674 38bf

fc1.bias f4 [64]
0.41934752 0.6763406 -0.26052523 0.34732935 0.001307411 0.027287649 0.15263554 -0.12464933
0.21049435 -0.21619435 0.26572773 0.3349114 -0.40515646 0.3686733 -0.034451988 -0.25575197
0.052518096 0.18918529 0.26107094 0.05737105 0.2634449 0.11105584 -0.006798834 0.5748628
-0.29626825 0.04443 0.29802313 0.24567658 0.4105096 -0.15503754 0.29742756 0.62806547
0.2840048 0.5824231 0.14918657 -0.081951044 -0.08820314 -0.19816424 0.034067623 0.023543173
-0.3383192 0.13053392 -0.299283 0.4011337 -0.08164063 0.5761429 -0.36620882 -0.033603765
-0.06585608 -0.038249213 -0.04587089 0.31338188 -0.021050433 -0.042236455 0.4040311 -0.05086545
0.28321546 0.06793944 0.068573795 -0.044566408 -0.04911945 0.5583185 -0.05114569 0.0244173
00000000: b8b4 d63e a824 2d3f 9063 85be 27d5 b13e
00000010: 6f5d ab3a 598a df3c 7e4c 1c3e 2648 ffbd
00000020: d58b 573e 0d62 5dbe 770d 883e 8279 ab3e
00000030: ab70 cfbe bfc2 bc3e 871d 0dbd ecf1 82be
00000040: 371d 573d cab9 413e 17ab 853e e8fd 6a3d
00000050: 40e2 863e 3f71 e33d c1c8 debb 352a 133f
00000060: 79b0 97be 3bfc 353d 7d96 983e a492 7b3e
00000070: 502e d23e 29c2 1ebe 6d48 983e e6c8 203f
00000080: 1469 913e ae19 153f 5dc4 183e f3d5 a7bd
00000090: d9a3 b4bd 91eb 4abe 7e8a 0b3d 9ddd c03c
000000a0: 2d38 adbe afaa 053e 9f3b 99be 6561 cd3e
000000b0: 3433 a7bd 1a7e 133f b97f bbbe 1aa4 09bd
000000c0: 8ddf 86bd 35ab 1cbd 1de3 3bbd 9773 a03e
000000d0: f571 acbc 2200 2dbd 2add ce3e 4a58 50bd
000000e0: 9e01 913e d523 8b3d 6b70 8c3d 448b 36bd
000000f0: 7a31 49bd f6ed 0e3f 257e 51bd ca06 c83c

fc2.weight f4 [64, 64]
0.057657078 0.034182187 0.21406275 0.33190745 -0.7646173 -0.11694077 0.036353715 -0.07519032
-0.047933 -0.091707386 0.2305691 -0.024356022 0.03953399 0.41653055 0.20056482 -0.72423
-0.25442335 0.23678361 0.43599975 -0.13576356 0.07132763 0.29959202 -0.7440376 0.1184775
0.09604452 -0.1183921 0.00321631 0.26490295 0.38780388 -0.22109969 -0.3063341 0.07750939
0.13061024 0.07041208 0.3496302 0.26514494 0.32626766 0.36386356 0.08219032 -0.11081538
-0.52557766 0.25512758 0.0066952086 0.23458911 -0.30880785 0.28891635 0.50022644 0.06403865
0.2584925 -0.25627384 -0.2220236 -0.57428783 0.008810838 -0.22724806 0.0854912 -0.0407383
0.32761532 -0.08874864 -0.1493863 -0.21723223 -0.20507285 0.32664052 -0.08973232 -0.19848911
0.049814373 0.111990504 0.023156062 0.13961597 -0.19454883 0.050808337 0.10460086 0.17787577
-0.024228936 0.028880402 0.17945711 -0.046933006 0.18699463 0.08311453 -0.030649595 -0.0053548524
-0.13911521 0.056798298 0.12502287 0.2784593 0.085024506 0.10588322 -0.15511766 0.027181339
-0.04398047 0.24568386 0.009796288 0.15926228 0.096274115 0.002322576 0.017170005 -0.09355027
-0.0027478272 0.010926388 0.12717625 0.05123882 0.1544473 0.16555618 0.2464855 0.09052433
0.07971168 0.08400018 -0.0074483994 -0.024353726 -0.04488764 0.029316118 0.3323266 0.22415501
0.14588661 -0.001724528 0.18415835 -0.3566587 0.0136761805 0.100474924 -0.14869088 0.2414539
0.16404015 -0.04045434 0.16533625 0.111081794 0.101568155 0.24689162 0.038090628 0.111412264
-0.0532927 0.012775329 -0.027331363 0.21524264 -0.1387117 0.2015985 -0.00021220956 0.05998608
0.056706194 0.11608558 0.15495896 0.018512465 -0.04284004 -0.0013766064 0.025986893 -0.04840748
-0.15711144 -0.0014146663 0.09015772 0.21332823 0.09534116 0.04476316 -0.010708133 0.15037595
0.11623899 0.22870418 0.10723486 0.089822955 0.15840109 -0.03709461 0.03263173 0.0879626
0.00013141919 0.08870987 0.057182387 0.03974804 0.15712681 -0.007907473 0.116378054 0.2614081
-0.083187655 0.15960848 -0.053440418 -0.014062353 -0.16871901 0.1072765 0.22223414 0.18160647
0.025563866 0.014665324 0.18827768 -0.18558536 0.16277987 0.013040759 -0.13830428 0.016182438
0.01597535 -0.078101985 0.2826635 0.119379744 0.19885132 -0.005564958 -0.008128607 0.24336447
0.11013919 -0.27859968 -0.08005989 -0.15574875 0.36646625 1.2871337 0.023539433 -0.3036816
-0.0875582 -0.6597522 -0.09140568 0.250314 -0.045246683 -0.3064633 0.037746146 0.5512171
0.58915585 -0.30526194 -0.15056013 0.60751665 -0.029635273 -0.29064208 0.64324707 -0.42336956
-0.25788432 1.1058868 -0.44227833 -0.41258612 -0.052456584 0.20933646 0.26823986 0.24010427
0.49332485 -0.6684227 0.123976484 -0.17067651 -0.45725527 -0.12182572 -0.22426514 1.4505956
0.42989781 -0.54077876 0.40747786 -0.1152956 0.33334443 -0.2643868 -1.3231597 1.2169505
0.063765414 0.6107766 1.191148 0.62512606 0.4241666 0.35535267 0.59512323 0.4985119
0.16548951 0.43506575 1.191508 0.4587481 0.44531897 -0.58372855 0.439603 1.3894671
00000000: d429 6c3d 9f02 0c3d 4433 5b3e c6ef a93e
00000010: f6bd 43bf a47e efbd a2e7 143d 62fd 99bd
00000020: 6555 44bd 15d1 bbbd 4e1a 6c3e 4886 c7bc
00000030: 65ee 213d 7e43 d53e dd60 4d3e 2367 39bf
00000040: c743 82be 6777 723e 5c3b df3e 9a05 0bbe
00000050: 3814 923d 2064 993e 4079 3ebf 55a4 f23d
00000060: fdb2 c43d 8f77 f2bd bac8 523b 5ca1 873e
00000070: 3b8e c63e f567 62be d3d7 9cbe 3ebd 9e3d
00000080: b1be 053e 3534 903d bb02 b33e 14c1 873e
00000090: 8e0c a73e 534c ba3e 6653 a83d 2df3 e2bd
000000a0: 428c 06bf 15a0 823e 7b63 db3b 2138 703e
000000b0: 101c 9ebe d8ec 933e d70e 003f b226 833d
000000c0: 2159 843e 5336 83be 285a 63be 8704 13bf
000000d0: 555b 103c b7b3 68be 0316 af3d 34dd 26bd
000000e0: 32bd a73e d9c1 b5bd b9f8 18be 2072 5ebe
000000f0: 9efe 51be 6d3d a73e 94c5 b7bd bb40 4bbe
00000100: 280a 4c3d 475b e53d c8b1 bd3c 7df7 0e3e
00000110: cf37 47be 671c 503d fa38 d63d 1125 363e
00000120: c37b c6bc 9896 ec3c 9bc3 373e d33c 40bd
00000130: 857b 3f3e f337 aa3d dc14 fbbc c277 afbb
00000140: 3874 0ebe 55a5 683d ff05 003e 3892 8e3e
00000150: 5421 ae3d 4dd9 d83d 2ad7 1ebe 66ab de3c
00000160: de24 34bd 8d94 7b3e 9c80 203c a715 233e
00000170: 5d2b c53d 5c36 183b 1ca8 8c3c 4997 bfbd
00000180: e414 34bb 9804 333c 7e3a 023e ccdf 513d
00000190: 6f27 1e3e 8f87 293e b266 7c3e d264 b93d
000001a0: e13f a33d 4908 ac3d b411 f4bb 7781 c7bc
000001b0: 1adc 37bd 5b28 f03c b626 aa3e e488 653e
000001c0: 4d63 153e 8f09 e2ba 0294 3c3e f89b b6be
000001d0: 0f12 603c ccc5 cd3d 6c42 18be b13f 773e
000001e0: 24fa 273e 73b3 25bd e84d 293e da7e e33d
000001f0: f702 d03d 28d1 7c3e eb04 1c3d 1d2c e43d
00000200: 7249 5abd 9d4f 513c 06e6 dfbc 9168 5c3e
00000210: 710a 0ebe d66f 4e3e 9284 5eb9 f7b3 753d
00000220: c144 683d 47be ed3d 90ad 1e3e 74a7 973c
00000230: 0a79 2fbd 3f6f b4ba 77e2 d43c ec46 46bd
00000240: d2e1 20be 536c b9ba 9ca4 b83d b772 5a3e
00000250: 3a42 c33d 9359 373d 2a71 2fbc 27fc 193e
00000260: b50e ee3d 6e31 6a3e f39d db3d 19f5 b73d
00000270: e533 223e 85f0 17bd d9a8 053d bc25 b43d
00000280: 92cd 0939 85ad b53d 1438 6a3d d7ce 223d
00000290: dae5 203e 588e 01bc 9e57 ee3d 48d7 853e
000002a0: 4a5e aabd 6870 233e 57e4 5abd c965 66bc
000002b0: adc4 2cbe c8b3 db3d 5991 633e 0cf7 393e
000002c0: 506b d13c d446 703c ddcb 403e 170a 3ebe
000002d0: c4af 263e e8a8 553c a39f 0dbe 0891 843c
000002e0: bdde 823c eff3 9fbd 45b9 903e 5e7d f43d
000002f0: ae9f 4b3e 405a b6bb d92d 05bc 8934 793e
00000300: a890 e13d 9ea4 8ebe 71f6 a3bd 9a7c 1fbe
00000310: 77a1 bb3e ccc0 a43f c5d5 c03c 287c 9bbe
00000320: b751 b3bd 85e5 28bf e732 bbbd 2829 803e
00000330: 9654 39bd c2e8 9cbe b49b 1a3d 901c 0d3f
00000340: ebd2 163f 4b4b 9cbe 6f2c 1abe 3686 1b3f
00000350: acc5 f2bc 0acf 94be d7ab 243f e5c3 d8be
00000360: 6a09 84be b38d 8d3f 4e72 e2be 7d3e d3be
00000370: b7dc 56bd 4c5c 563e bc56 893e e5dd 753e
00000380: 1395 fc3e c01d 2bbf 62e7 fd3d d3c5 2ebe
00000390: 5d1d eabe c37f f9bd c3a5 65be 1ead b93f
000003a0: 911b dc3e 7a70 0abf f0a0 d03e 1920 ecbd
000003b0: 1fac aa3e b55d 87be 4c5d a9bf 09c5 9b3f
000003c0: 7197 823d db5b 1c3f 8a77 983f 4308 203f
000003d0: 5d2c d93e c9f0 b53e ff59 183f f43c ff3e
000003e0: 1576 293e f0c0 de3e 5683 983f 08e1 ea3e
000003f0: d900 e43e 3c6f 15bf a513 e13e 0fda b13f

fc2.bias f4 [64]
-0.03820164 -0.11292437 -0.12942736 -0.14497603 -0.035717428 0.06716971 -0.1044019 0.031323735
0.13929424 0.31770977 0.05613083 0.17082049 -0.26421085 -0.11017991 -0.04312701 0.13785885
0.1234179 -0.20139353 -0.06533758 0.09352507 0.09050179 -0.059639584 0.034955204 -0.10658085
-0.06655703 -0.052261397 0.0012448424 -0.14941508 0.102476455 -0.08007645 -0.08334614 -0.023836065
-0.07982773 -0.0041328967 0.016537327 -0.08783346 -0.026036898 -0.25662664 0.014366233 0.34669787
0.054648105 -0.11149991 -0.05818396 -0.42380583 -0.14241892 -0.043502714 -0.2719967 -0.0025187377
0.0022737489 0.06172292 -0.23516478 -0.1813876 -0.16797677 -0.11842028 0.034574535 -0.1428636
-0.13004827 -0.15032506 0.024693271 0.004268001 -0.118212216 -0.07302891 0.21198364 -0.06781656
00000000: 5379 1cbd e444 e7bd 9b88 04be 9974 14be
00000010: 704c 12bd 4690 893d aad0 d5bd 514d 003d
00000020: 26a3 0e3e dbaa a23e 71e9 653d 91eb 2e3e
00000030: a546 87be 01a6 e1bd f3a5 30bd df2a 0d3e
00000040: 86c2 fc3d 1b3a 4ebe b6cf 85bd 128a bf3d
00000050: 0159 b93d a348 74bd 302d 0f3d 1047 dabd
00000060: 0d4f 88bd 0c10 56bd fb29 a33a 4400 19be
00000070: 2ddf d13d 1fff a3bd 62b1 aabd da43 c3bc
00000080: b97c a3bd 406d 87bb 4a79 873c 07e2 b3bd
00000090: 554b d5bc 9164 83be 5960 6b3c 6282 b13e
000000a0: b1d6 5f3d 115a e4bd 4e52 6ebd 14fd d8be
000000b0: 44d6 11be e72f 32bd 2743 8bbe 6811 25bb
000000c0: 2d03 153b 2cd1 7c3d 09cf 70be acbd 39be
000000d0: 1a02 2cbe 5586 f2bd 079e 0d3d d64a 12be
000000e0: 602b 05be d0ee 19be 8b49 ca3c 96da 8b3b
000000f0: 3f19 f2bd 2e90 95bd 3d12 593e 69e3 8abd

fc_mu.weight f4 [1, 64]
0.056033403 0.27698353 0.25823143 0.99161154 -0.047190484 0.0013162622 0.020997448 0.86259943
0.0859727 0.04640321 -0.27505273 0.14737906 0.00040324166 -0.09532848 0.68905616 0.061942335
7.4948273 0.04702093 1.0407977 0.30230743 0.46099573 0.7716181 0.3998207 -0.06357273
-0.2986532 -0.07802055 0.27678788 -0.11246167 -0.15570475 -0.0028384682 -0.073422156 0.28831816
0.08563453 0.08868528 0.4753057 1.058439 0.09236172 -0.7606666 0.005394089 -0.4412775
-0.19092913 0.12853643 -0.017826056 0.09478311 -0.003481481 -0.28435308 -0.040929127 -0.08198667
-0.3981323 -0.08614291 0.0022548442 -0.023847276 -0.020044228 0.10077618 0.14171581 0.10577951
0.109801695 -0.20036504 0.29477134 0.05946662 0.10479221 0.020859463 0.0910129 0.13460462
00000000: 4883 653d c9d0 8d3e e936 843e 41da 7d3f
00000010: cf4a 41bd 6e86 ac3a d702 ac3c 51d3 5c3f
00000020: 7412 b03d 4b11 3e3d b6d3 8cbe 89ea 163e
00000030: 2e6a d339 943b c3bd fc65 303f 3fb7 7d3d
00000040: a0d5 ef40 0599 403d dc38 853f 0ac8 9a3e
00000050: a207 ec3e c488 453f 4cb5 cc3e 6b32 82bd
00000060: 12e9 98be 3dc9 9fbd 24b7 8d3e 4e52 e6bd
00000070: 1171 1fbe 9805 3abb 5b5e 96bd 709e 933e
00000080: 2861 af3d a1a0 b53d 455b f33e ee7a 873f
00000090: 2428 bd3d 0cbb 42bf e6c0 b03b 20ef e1be
000000a0: ed82 43be 0e9f 033e f307 92bc a61d c23d
000000b0: 8f29 64bb ba96 91be 4da5 27bd a1e8 a7bd
000000c0: ffd7 cbbe b26b b0bd 02c6 133b 5d5b c3bc
000000d0: cb33 a4bc be63 ce3d f31d 113e eea2 d83d
000000e0: b6df e03d 7e2c 4dbe 45ec 963e 4593 733d
000000f0: 4c9d d63d 77e1 aa3c f964 ba3d cbd5 093e

fc_logvar.weight f4 [1, 64]
0.994574 0.46295595 0.18421178 -0.7936255 0.36365083 0.44223204 0.37736648 0.38510957
-0.5542152 -1.4011103 -1.0537982 -2.1022224 0.5050061 -0.08766452 0.19647133 -0.7516887
0.8025921 0.22739603 -0.42173973 -2.0454292 0.1943587 1.4709482 0.14481625 0.33459815
-2.0915418 -1.2573242 0.13904126 -2.1421087 0.9285945 -0.07953889 0.38048694 -0.5773708
-0.09480321 0.113167584 0.2401471 0.05060913 -0.05349849 -0.6645843 -0.03891144 -2.3436215
-0.78816533 0.20941177 -0.1677259 -1.6816365 0.062746085 -0.49510166 0.41364 0.2162906
-1.0550823 0.23274417 0.24201442 0.38934636 0.18985377 -0.068870336 -2.1445768 0.28474313
-1.4344901 0.3651883 0.43203044 -0.6228581 -0.085382394 -0.008496823 1.309655 -0.28673917
00000000: 679c 7e3f 9008 ed3e 03a2 3c3e 0a2b 4bbf
00000010: 7130 ba3e 3d6c e23e 2e36 c13e 152d c53e
00000020: 0ce1 0dbf 9557 b3bf dce2 86bf d08a 06c0
00000030: 1448 013f 7589 b3bd c82f 493e ac6e 40bf
00000040: ad76 4d3f 81da 683e 45ee d7be 50e8 02c0
00000050: f805 473e 0848 bc3f b64a 143e 7350 ab3e
00000060: d2db 05c0 00f0 a0bf d560 0e3e 4f18 09c0
00000070: 5fb8 6d3f 49e5 a2bd 2fcf c23e 93ce 13bf
00000080: 2f28 c2bd 68c4 e73d 1fe9 753e 854b 4f3d
00000090: 3c21 5bbd 3222 2abf 9a61 1fbd e5fd 15c0
000000a0: 34c5 49bf 0a70 563e 57c0 2bbe dd3f d7bf
000000b0: 0581 803d f77d fdbe 9fc8 d33e 487b 5d3e
000000c0: f00c 87bf 7d54 6e3e a1d2 773e 6858 c73e
000000d0: 0769 423e e40b 8dbd bf40 09c0 dac9 913e
000000e0: 5f9d b7bf f6f9 ba3e 1833 dd3e a173 1fbf
000000f0: f7dc aebd 4236 0bbc c6a2 a73f 7acf 92be
