heuristic_net_curriculum_8_16_32.pt (torch, 21633 bytes, 5 tensors)

net.0.weight f4 [64, 4]
000000 74 29 16 bf 3f c5 a5 3d ad 6f 4a 3f 08 0b 93 3e
       -0.58657 0.08094262 0.79076654 0.28719354
000010 aa c7 6f 3e 34 8b 96 3e 7c c4 15 3f 33 f2 ad 3e
       0.2341601 0.2940308 0.58502936 0.33973846
000020 54 bf 35 bf 3c c0 0d bf 9f b1 b4 be ab 4a fd 3e
       -0.7099507 -0.5537145 -0.35291764 0.4947103
000030 70 3e 4a 3e 00 6a 8e bb 34 9b 30 be f8 00 9e 3e
       0.1975038 -0.0043461323 -0.17246705 0.30860114
000040 31 e9 22 bf 5a 72 71 bf 4f a4 f4 3e 04 41 06 bc
       -0.6363707 -0.9431511 0.47781608 -0.008194212
000050 73 9b fa 3d 65 e3 29 bf f8 4c 9b 3e 90 1d 37 3e
       0.12236681 -0.663626 0.3033216 0.17882371
000060 15 ec 1e 3f 75 1a 12 3d aa 1d e1 3e 68 5a b7 be
       0.6207898 0.035669763 0.43967944 -0.35811162
000070 cb d2 fd 3c b3 d7 d2 3e ad 1a b1 3e 23 90 ef 3e
       0.030984303 0.4118019 0.34590665 0.46789655
000080 9f 7b a3 be bf 1d 6c 3e c2 65 51 be fa 9e 36 be
       -0.31930253 0.23058222 -0.20448974 -0.17834082
000090 c6 f6 fe be 79 9b 4c be af 63 40 be 5e e4 fd be
       -0.49797648 -0.19981183 -0.18788026 -0.49588293
0000a0 7a 54 c4 3e 15 65 8f 3e bf a9 04 bf 50 c5 34 3d
       0.383457 0.28006807 -0.5182151 0.044133484
0000b0 92 6c 9a be 45 af 17 be 8b 4c 1c be ee 55 ea 3e
       -0.30160958 -0.14812954 -0.15263574 0.45768684
0000c0 f2 43 e8 3c 07 e2 a7 3e 99 96 e9 3e e4 e8 2b 3e
       0.028352711 0.32789633 0.4562271 0.1678806
0000d0 ce ff da be 87 75 c5 be d8 2a d9 bd d1 b4 89 be
       -0.42773288 -0.3856623 -0.10603875 -0.26895764
0000e0 fd af b2 3e e1 d9 0f bf 9a 9f 01 3e 7d 2b 10 bc
       0.34899893 -0.5619183 0.1265854 -0.008799431
0000f0 a2 a7 d1 bd 53 30 34 3d 56 e5 a1 3e 1d 95 1c 3f
       -0.102370515 0.043991398 0.31620282 0.6116503
000100 1f 33 3a 3d a4 67 bc be 4b 52 77 3e 6d 4c 3b be
       0.04545891 -0.36797822 0.24152486 -0.18290873
000110 00 ff bf 3d 8e 49 72 be bf ed 0f 3f bc 25 79 3e
       0.09374809 -0.23660871 0.56222147 0.24330801
000120 66 9f 1d 3e 11 d6 22 bd 5a 33 31 3f d9 46 0d 3e
       0.15392837 -0.03975493 0.6921898 0.13796557
000130 8f f6 fd 3e 3b 8a 8b 3e 17 50 81 be 96 00 30 be
       0.49602172 0.272539 -0.25256416 -0.17187724
000140 ef 7a 88 be ca 47 42 3f 72 ff 11 bf 3c 15 2e 3e
       -0.2665629 0.7589079 -0.57030404 0.17000288
000150 b7 31 a6 be 99 37 44 3b bd d6 12 3f c3 df ec 3e
       -0.32459804 0.0029940365 0.57358915 0.46264467
000160 76 8b 25 bf bf 31 26 3e 83 9a e5 bd ad d9 1b 3f
       -0.64665926 0.16229914 -0.112111114 0.6087902
000170 cd 0f 21 3e 2b f9 ec be 3b 6d e0 3e 19 5e 1c be
       0.15728684 -0.4628385 0.43833336 -0.1527027
000180 42 60 be be 2f a2 21 bf eb 2d 8c bd 47 4e e9 bc
       -0.37182814 -0.631381 -0.06844696 -0.028479708
000190 a9 9f b9 be 48 fa 99 3e 8b b2 49 3e 7c f5 20 3f
       -0.36254624 0.30073762 0.19697015 0.6287458
0001a0 50 76 17 bd a6 b9 8e be 31 2e a2 bb 69 1c a9 3e
       -0.036978066 -0.27876014 -0.004949354 0.33029488
0001b0 73 89 e9 be 7d 58 65 be c4 09 0b bf 99 85 81 3e
       -0.45612678 -0.22397037 -0.54311776 0.2529724
0001c0 28 57 c1 3d 13 88 2d bf b7 6f 97 3e 5b be e8 3e
       0.09440452 -0.6778576 0.2957742 0.4545773
0001d0 8c 64 2f 3e f7 f6 1b bf 8b c1 9a bd e4 60 c9 3e
       0.171282 -0.60923713 -0.07556447 0.39331734
0001e0 81 5b 91 3d 90 5e b4 3c 7c d2 f3 3e 6f ba 0a 3f
       0.07097531 0.022017747 0.47621524 0.54190725
0001f0 5a 05 e6 be 44 a1 e6 be 0b 53 a1 be 4f 65 11 3e
       -0.44925958 -0.4504491 -0.3150867 0.14198802
000200 4a bb 80 be 5a 85 33 3f ed c1 bf be ba cc 5d 3e
       -0.2514289 0.70125353 -0.3745264 0.21660128
000210 ef ca 57 be 35 fe 93 3e e0 1d cb 3e 92 b4 57 3b
       -0.21073507 0.28904882 0.3967123 0.0032914025
000220 83 be 8f be e2 08 20 be f2 15 19 3f 56 59 08 3f
       -0.28075036 -0.15628389 0.5979911 0.53261316
000230 ad 44 45 3e a6 d3 0e bf d6 45 cb be b8 f6 a2 be
       0.19264479 -0.557917 -0.39701718 -0.31828856
000240 12 09 66 3e 61 b5 2f be 82 0f ef 3e 7c 20 ce 3e
       0.22464398 -0.17159034 0.4669152 0.4025916
000250 a0 a7 26 bf a9 ab b7 be 93 ec 08 be 59 a0 da 3e
       -0.65099525 -0.35873154 -0.13371496 0.4270046
000260 16 07 be 3e 5a b3 db be ac d9 7b 3e eb af 03 3f
       0.3711478 -0.42910272 0.24594754 0.51440305
000270 8a 97 40 bf 23 8a ad bd 1d f9 ab be 22 23 05 3f
       -0.7523123 -0.08473613 -0.33588496 0.52006733
000280 f5 d1 85 be 52 16 f7 be 3c b0 39 be d2 86 d0 bd
       -0.26136747 -0.48259217 -0.18133634 -0.10181965
000290 fd fa 6d be d8 19 1a bf dd 45 a0 be b0 4c 0f 3e
       -0.23240276 -0.60195684 -0.313033 0.13994098
0002a0 11 ec 8b 3d 9c af 06 3e 3a 04 77 3e dc f3 a9 3e
       0.068321355 0.13152927 0.24122706 0.33193862
0002b0 03 4e e3 be 75 83 9d be c6 49 c9 be 3e e9 d2 3e
       -0.44395456 -0.30764356 -0.39314097 0.41193575
0002c0 c0 88 1c 3d cf 36 b0 be a5 60 be 3e e7 52 92 3c
       0.038216352 -0.34416816 0.3718311 0.017861797
0002d0 bc 87 20 bf bd 7d eb 3f 99 d1 b1 bc 8b 7a 12 3f
       -0.62707114 1.8397747 -0.02170639 0.57218236
0002e0 dd 20 f9 b9 e4 a5 ad bd 8e 02 07 3f 90 45 ad 3e
       -0.00047517466 -0.08478907 0.52738273 0.33842134
0002f0 14 d0 31 bf 9f 04 e2 3d 7f 24 45 3e 6f f3 0e 3f
       -0.6945813 0.11036038 0.19252203 0.558402
000300 15 bb 3f 3e 25 73 34 bc a0 5c d0 3d c3 80 01 3f
       0.1872371 -0.011013781 0.10173917 0.505871
000310 d5 c5 2d bf e1 a6 ea bd f6 80 dd be 9a 5a 59 be
       -0.6787999 -0.11457611 -0.43262452 -0.21225968
000320 77 ff 6e 3e dc 07 a7 bd 64 82 85 3d 26 d9 1a 3f
       0.2333964 -0.08155796 0.06519011 0.6048759
000330 9b 20 b0 be e3 1e 8c 3d 96 12 f4 3e 54 37 b2 3e
       -0.34399876 0.06841829 0.4767043 0.34807837
000340 c1 c8 dc be 40 7f 8a 3d f4 5f 43 3e 57 fa 21 3f
       -0.43121913 0.06762552 0.19079572 0.63272613
000350 8f 0b ca 3d 53 bd c3 be 88 d0 fe be c6 fa ef be
       0.09865486 -0.3823038 -0.49768472 -0.46871012
000360 c9 38 3c 3e e2 db 7d bc d8 e9 f2 be fd 3d 7e 3e
       0.18381037 -0.015494319 -0.47444034 0.24828334
000370 4b 61 bc be 0e f7 2b 3d 4d c9 26 3e 8f c8 91 be
       -0.3679298 0.041983657 0.16287728 -0.28473327
000380 16 31 1a bf df 57 2c bf 7a b8 aa 3e 29 db 34 be
       -0.6023115 -0.6732158 0.3334387 -0.17661728
000390 a3 4c 5b bd 1a c1 81 be 55 da 31 3e 2a 2b a0 3c
       -0.053539883 -0.25342637 0.17368443 0.019551832
0003a0 1f f8 1f 3f 31 8f 89 3f 47 58 f5 bd f1 47 cb be
       0.6248798 1.0746824 -0.11979728 -0.39703324
0003b0 d0 67 37 3d e0 17 88 bc b8 fd 29 3e b4 15 3f be
       0.044776738 -0.016612947 0.16600692 -0.18660623
0003c0 ec 86 ee be 6f 31 2a bd a9 59 a9 3d 8e b5 01 bf
       -0.46587312 -0.04155105 0.082690544 -0.50667655
0003d0 20 85 1a 3f 72 d6 8a 3e 25 51 82 be c9 ce d6 3e
       0.6035938 0.27116734 -0.25452533 0.4195464
0003e0 d4 1c 36 3f 01 38 8e 3e f2 e9 30 be f7 ac 04 3e
       0.7113774 0.27777103 -0.17276743 0.12956606
0003f0 7b 7f 04 bf a7 3c f5 be 7d 87 34 3e b1 f5 46 be
       -0.5175702 -0.47897837 0.1762981 -0.19429661

net.0.bias f4 [64]
000000 c0 c8 b8 3e d5 7e 66 3e 33 52 c3 be e4 49 fb be
       0.3609066 0.2250932 -0.3814865 -0.49079812
000010 81 db af 3e 78 e4 46 3f 87 a9 83 be f8 9a da 3e
       0.34347156 0.77692366 -0.25715277 0.42696357
000020 0c fe 01 bd 99 0a 1e 3e 86 21 a1 bd d6 2f 40 3f
       -0.03173642 0.1543373 -0.07867722 0.7507299
000030 8d a4 c6 3e 86 69 28 3e c6 11 c4 3e 2c 2f 00 be
       0.38797417 0.16446504 0.3829481 -0.12517995
000040 ee 9b 11 3f e5 02 94 3e 0e e9 92 bc a7 71 a5 3e
       0.56878555 0.28908458 -0.017933395 0.32313272
000050 ac bb db 3e dd 40 5e 3e f4 99 1f 3f c3 14 90 be
       0.4291662 0.21704431 0.6234429 -0.2814084
000060 9b 10 c0 3e be f9 a3 be 2a 15 04 3f 5e 3e bd be
       0.3751267 -0.32026476 0.51594794 -0.36961645
000070 c6 da 2f 3f 1b 40 2e 3f bb e9 f0 3e 89 67 26 3e
       0.68693197 0.6806657 0.47053322 0.16250433
000080 54 bf 9c 3e 6c 38 64 bd 58 98 9f 3e de 59 71 3e
       0.30614722 -0.05571787 0.31170917 0.23569438
000090 ad 15 ba 3d ec 21 d0 3e f9 b9 1a 3f 7b 08 4e 3e
       0.090861656 0.4065088 0.6044002 0.20120423
0000a0 79 08 d8 3d b8 cf 59 be 65 9b 04 3d 64 0b 81 3e
       0.10548491 -0.21270645 0.03237476 0.25204003
0000b0 c1 95 b5 3e 88 bb 7e 3e e8 02 16 bd 6b 26 31 3f
       0.35465816 0.24876225 -0.036623865 0.69199246
0000c0 8c c0 56 3e c1 fc b1 3e 84 2d c4 3d 01 06 9a 3d
       0.20971888 0.34763148 0.09578994 0.075206764
0000d0 fc 62 74 3e 17 47 ca be 65 73 35 be 2c c5 2b 3c
       0.23865885 -0.39507362 -0.17719801 0.010484021
0000e0 c6 3c 33 3e 62 43 b4 be 6b b9 8c be b0 aa ca bd
       0.17503652 -0.3520766 -0.27485213 -0.09895837
0000f0 47 3c 23 be 65 6c 30 be 26 e6 f0 be 57 5b 00 bc
       -0.15940963 -0.17228849 -0.4705059 -0.007834277

net.2.weight f4 [64, 64]
000000 94 78 10 3e 32 c3 45 3e c1 da af 3e 1a 39 a9 bd
       0.14108497 0.19312742 0.34346583 -0.082628444
000010 67 d1 b3 3e ef d8 59 3e 77 49 9f bd e0 65 30 3e
       0.351207 0.2127416 -0.07777684 0.17226362
000020 98 36 b0 bc 4f be f3 3d 38 d6 98 bd 95 44 aa 3e
       -0.021510407 0.11901533 -0.07462734 0.3325545
000030 ee 4e fb 3d ca b0 cd 3c c8 67 f1 3d 14 ce 32 3e
       0.12270914 0.025108714 0.11787373 0.17461425
000040 6b f6 4f 3e 64 75 7c 3e 05 13 f0 3d 69 f4 8f bd
       0.20308845 0.24654156 0.11722378 -0.070290394
000050 e0 36 b2 be 45 27 03 3d 39 83 8f 3e 76 14 b6 bc
       -0.3480749 0.032019872 0.28029802 -0.022226553
000060 5b c2 e9 3d a6 ff 3a 3d 8e f4 e8 3d ea bb 52 3e
       0.114140235 0.04565396 0.1137477 0.20579496
000070 6d 35 13 3f 0e 38 83 3e d1 1d 05 3e 3d 63 29 3e
       0.57503396 0.25628704 0.12999655 0.16541763
000080 5d a9 9a be 31 5c 73 3b 53 55 8e 3c ae f9 69 3d
       -0.3020734 0.0037133808 0.01737467 0.05712288
000090 ef d3 90 bc c7 b6 91 3e f3 d3 b6 3e 02 31 93 3e
       -0.017679183 0.2845976 0.3570858 0.28748327
0000a0 02 72 da bc 78 f4 b1 bd 8e cb 3c 3d 4a 1f 60 3e
       -0.026665691 -0.08689207 0.046092562 0.21886936
0000b0 75 67 37 3e c8 ba d7 3e 68 1a 6e 3e 0c 19 d4 3e
       0.1791056 0.4213469 0.2325226 0.4142536
0000c0 94 3e 0d 3e ea 13 54 bd bc 88 b8 3d e7 4f e5 3d
       0.13793403 -0.051776804 0.09010455 0.11196881
0000d0 61 31 b8 3d 61 74 33 3e 02 94 16 3e 2e 60 48 bb
       0.08993793 0.17524864 0.14704898 -0.0030574906
0000e0 cb c9 74 3e f3 13 db bd 69 ac 01 bf ee 10 9f 3d
       0.23905103 -0.106971644 -0.506537 0.07766901
0000f0 bb 3f c2 3d 5d 21 68 be e7 52 94 be 62 1b ec 3d
       0.09484812 -0.22668977 -0.289695 0.1152866
000100 4f fb 40 3e 3d e1 cc 3d b6 31 92 3e 74 26 64 3d
       0.18845867 0.10003898 0.2855355 0.055700734
000110 4b c4 e8 3e 1b 42 93 3e 69 ef d0 bc 03 8e f2 3d
       0.4546226 0.28761372 -0.025504785 0.11843493
000120 ba b6 90 bc 20 c7 d9 3c 6c d7 81 bc cb 1d 7b 3e
       -0.017665256 0.026584208 -0.015849791 0.24523084
000130 bb 19 93 3d ef ed 24 3e 42 5c dc 3d fd 37 dc 3d
       0.07182642 0.1610639 0.10759784 0.107528664
000140 91 45 ff 3d 76 0e 78 3e 0d 1e 57 3e d5 dc 06 be
       0.124644406 0.24224266 0.21007557 -0.13170178
000150 85 63 00 bf ba d9 d6 3d ff 93 36 3e 3f 1f 06 be
       -0.50151855 0.10490747 0.17829894 -0.13097857
000160 eb 67 10 3e 17 03 d5 bb 2d d5 88 3e 7b c1 51 3e
       0.14102142 -0.0065006125 0.2672514 0.20483963
000170 98 2f 00 3f b1 5e ac 3e 21 07 4b 3d 86 c1 2d 3e
       0.5007262 0.33665994 0.049567346 0.16968355
000180 78 cd 64 be ec 54 db 3d 2a 07 f6 3d 03 f4 68 3b
       -0.22344005 0.10709557 0.12013085 0.0035545833
000190 d6 f9 bb 3d 91 f0 1e 3e cf 2b 65 3e e7 9f b3 3e
       0.09178512 0.15521456 0.22379993 0.35082933
0001a0 7a cd 5a bd 9b fc f7 3d fb 57 44 3e 63 0c 76 3e
       -0.053418614 0.121087275 0.19174187 0.24028163
0001b0 c2 4b 4d 3e 1b b5 d0 3e 6f ad bf 3d e6 d7 b6 3e
       0.2004843 0.40763173 0.09359252 0.35711592
0001c0 cd 2a a9 3d 30 cc 1a 3d 80 bc 4b 3e 05 69 93 3d
       0.08260117 0.037792385 0.19896126 0.07197765
0001d0 04 09 39 3e b8 85 f5 3d 61 a8 62 3e 12 de 03 bd
       0.18069845 0.119883955 0.22134544 -0.032194205
0001e0 eb 77 3d 3e 2f 1d cf bc e4 0f c1 be 26 34 b5 3d
       0.18502776 -0.02528247 -0.37707436 0.08847837
0001f0 1f 77 e8 3d dc 14 50 be 75 58 9a be 76 8b 71 3e
       0.113508455 -0.20320457 -0.30145612 0.23588356
000200 af 1f 3d bd f2 65 17 bc 68 51 e5 bd 54 c4 50 bd
       -0.046172794 -0.009240614 -0.11197168 -0.050968483
000210 56 48 89 3d 2a 6f 21 be 87 be d2 bd 97 f5 e9 3c
       0.0670325 -0.15765062 -0.102902465 0.02855949
000220 53 ce b2 bd 86 ac 8f bd a9 89 22 be 7c 71 9c bd
       -0.087307595 -0.07015328 -0.15872826 -0.07638833
000230 79 4d 82 bd 54 07 30 bd 36 a0 93 3d c0 77 6b bd
       -0.06362433 -0.04297574 0.07208292 -0.05748725
000240 18 7d be 3d 7c 57 31 be de b1 ea bd c5 37 2c be
       0.093012035 -0.17318529 -0.11459707 -0.1681815
000250 16 be 9a bd d2 4e 0e bd ad ca 18 be 40 59 50 3d
       -0.07555787 -0.034743138 -0.14921065 0.050866365
000260 78 75 7b bd 98 e5 3c bc b1 33 31 be c0 eb 76 3d
       -0.061391324 -0.011529349 -0.17304875 0.060283422
000270 86 5a 05 be f0 98 28 bc 7a 1a 22 be a6 bb b0 bd
       -0.13022813 -0.010290369 -0.15830413 -0.08629541
000280 01 c7 8c bd 58 eb b0 bd 79 f0 df bd 24 60 e9 3d
       -0.068738945 -0.08638638 -0.109345384 0.113952905
000290 14 8e 1b be bd 47 01 be 59 80 5e 3d 98 ba 2d be
       -0.15190917 -0.12625022 0.05432162 -0.16965711
0002a0 8a 50 fc bd 40 8b 5f bd 29 1d 3c 3d 1c 28 06 be
       -0.12320049 -0.05457616 0.045926247 -0.13101238
0002b0 48 5f 94 bd c3 26 4d 3d f2 13 f4 bd 4a 3f 25 be
       -0.07244736 0.050085794 -0.11917867 -0.16137424
0002c0 f9 5d 97 bd b0 16 e1 bd 50 67 7d 3d 82 58 1b 3d
       -0.07390971 -0.109906554 0.061866105 0.037926205
0002d0 3b f1 28 be 04 8d 8a bd 84 c5 80 bd 0b 1e 10 be
       -0.16498272 -0.06765178 -0.06287673 -0.1407396
0002e0 6a 4b d6 bd 52 98 91 3d c2 a1 14 bd 56 04 80 bd
       -0.10463603 0.07109131 -0.036287077 -0.06250827
0002f0 aa a6 f8 3d 32 74 d8 bd c5 a5 06 bc 44 03 0c 3d
       0.12141164 -0.105690375 -0.0082182335 0.0341828
000300 bd 4d 73 3e 94 e1 ef 3d 67 ee 82 3e 02 ac b4 3d
       0.23760124 0.117129475 0.25572512 0.088218704
000310 2a 93 76 3e e1 b0 ae 3e 56 53 1b be 67 8d 41 3e
       0.24079576 0.34119323 -0.15168509 0.18901597
000320 dc 74 9f 3d a0 4f 4d 3d 4f 04 5c bd 5e 68 b0 3e
       0.07785961 0.050124764 -0.053715046 0.34454626
000330 32 4b 08 3c 8d b9 e3 bc 29 f6 44 3e 8e c0 16 3e
       0.008318709 -0.027798438 0.19234528 0.14721891
000340 27 8a 8b 3e 6e d8 44 3e e8 b5 20 3e 1a 0e 7b be
       0.2725384 0.19223186 0.15694392 -0.24517098
000350 4f 3a 06 bf b8 26 37 3e f8 8e 6f 3e c6 1d 1a be
       -0.5243272 0.17885864 0.23394382 -0.1505042
000360 b2 54 0d 3e 4a e3 25 bd 4f ab 4f 3e 12 18 a6 3d
       0.1380184 -0.040499963 0.20280193 0.0811006
000370 4f 27 0f 3f 1c 7b a1 3e 99 0d e5 3d 3b 9c f1 3d
       0.55919355 0.31539237 0.11184234 0.11797377
000380 d4 56 81 be 15 2e ab bd d3 8b 35 3e 45 f4 70 3d
       -0.25261557 -0.08358399 0.1772912 0.058826704
000390 06 ea 43 3d 0b 43 58 3e e6 9f 7c 3e 2b 34 6d 3e
       0.047830604 0.21119325 0.24670371 0.23164432
0003a0 80 d6 62 bd ea b2 1e 3d 82 d5 23 3d d5 64 63 3e
       -0.055380344 0.038744844 0.03999854 0.22206433
0003b0 72 00 b7 3e 7c 3a cd 3e 30 8f 77 3e 1c 90 cc 3e
       0.35742527 0.40083683 0.24175715 0.39953697
0003c0 47 7a 73 3e d6 f3 e3 bc fd d9 11 3e 59 d3 52 3d
       0.23777114 -0.027826231 0.14243312 0.051471088
0003d0 63 d0 d6 3d a6 bb d6 3d fd 1e 87 3e 9a 7c a0 bc
       0.10488965 0.1048501 0.2639083 -0.019590665
0003e0 47 41 43 3e 7a 5b 31 bd 9b 1f b1 be 18 60 98 3c
       0.1906787 -0.04330013 -0.34594426 0.018600509
0003f0 16 59 07 be 55 6a 6e be 78 17 34 be a0 37 54 3e
       -0.13217577 -0.2328275 -0.17587078 0.20724344

net.2.bias f4 [64]
000000 a7 a2 a7 3d e0 61 c9 3d fd f5 71 3d 54 3f 7a 3e
       0.0818532 0.09833121 0.059072483 0.2443822
000010 3c 78 24 3e 7c 1a c4 3d 1e 2a 7e 3e 13 d5 f3 3d
       0.16061491 0.09575364 0.24820754 0.11905875
000020 7e c8 7a 3e 06 d1 9c bd 2a 42 75 3e 28 f1 63 bd
       0.24490544 -0.076570556 0.23951021 -0.055649906
000030 f2 d8 f7 bc c9 a7 a4 bd ff 70 ad 3d 6e 23 68 3c
       -0.030254815 -0.08039815 0.08468818 0.014168603
000040 07 c0 2d 3d 67 01 c6 bc bb cc 83 bd 3e f9 88 bd
       0.04241946 -0.02417059 -0.064355336 -0.06688164
000050 d2 ec d9 bd 32 f1 8d 3e da c1 8a 3e e2 08 33 3e
       -0.10640873 0.2772308 0.27101022 0.17483857
000060 30 55 a5 bd 5a 62 8f 3e a3 37 40 3e 4e ce ac 3a
       -0.08072889 0.28004724 0.18771224 0.0013184042
000070 fe ec 9f bd 06 a3 c8 bd c9 38 a7 bd 52 b5 0b be
       -0.078088745 -0.09796719 -0.08165128 -0.13643387
000080 58 96 f0 bd 72 d0 9d bd fd 89 79 bd 6c ee b1 bd
       -0.11747426 -0.077057734 -0.06092261 -0.086880535
000090 47 38 e3 3c 0f 65 14 3e ad 0e a1 bd 13 74 0b bd
       0.027736796 0.14491676 -0.07864127 -0.034046244
0000a0 80 6d fd 3c 1a c8 43 3e ba 9e 05 3d 33 4e 90 3c
       0.030936003 0.19119301 0.032622077 0.017615413
0000b0 1d be 2a be 3e 23 5b 3e 67 dc a9 3e 35 75 17 3e
       -0.16674085 0.21400163 0.33175966 0.14790805
0000c0 f8 df 1e bc 72 6c 43 3d 41 bd 61 3d 5d cd 54 3d
       -0.009696953 0.047710843 0.055112127 0.051953662
0000d0 87 0c 9f bd 3e 79 36 3e 4f 1f c1 3d a6 36 27 bd
       -0.07766061 0.17819688 0.094298 -0.0408236
0000e0 1f 03 c5 bd f9 d2 9e 3e 71 12 17 be ee 92 91 3e
       -0.09619736 0.31020334 -0.14753129 0.2843241
0000f0 ba ea 8c 3e b4 60 2e bd 08 99 a3 3d 2b 69 d2 3d
       0.27522832 -0.042572692 0.07988173 0.102739654

net.4.weight f4 [1, 64]
000000 81 85 a4 3e bc 50 89 3e 4f 97 88 bc 89 2b 9f 3e
       0.32133105 0.26819408 -0.016673712 0.31087902
000010 39 53 58 3e 97 a2 7e 3e 54 31 6d 3e 84 b5 3f 3e
       0.21125497 0.2486671 0.23163348 0.18721586
000020 35 73 90 3e 2a 23 1f 3d fa 5b 3c 3e 18 98 f9 bc
       0.28212896 0.038851894 0.18394461 -0.030468032
000030 ce 4c a1 bc c5 62 4d bd e9 84 aa 3e 1a 99 6e bb
       -0.019689944 -0.050143022 0.33304527 -0.0036407174
000040 a2 5c 18 3d 84 3e 06 bf bc 32 98 bc e6 1f 82 bd
       0.037197717 -0.5243914 -0.01857888 -0.063537404
000050 68 4e 31 bd f9 ea 45 3e bc fc 9f 3e 47 45 3d 3e
       -0.043287665 0.19327916 0.3124751 0.18483458
000060 fc c7 76 3d 33 d3 51 3e 7f 42 a4 3e 4e a1 d7 bc
       0.060249314 0.20490722 0.32081982 -0.026322033
000070 55 3e 95 bc 67 a2 61 bd e1 dc 67 bd f3 c4 a9 bd
       -0.018218199 -0.05508652 -0.05660713 -0.08289518
000080 a3 aa e0 bc 70 97 24 bd 00 b9 58 3d 54 8a b1 bd
       -0.027425116 -0.040183485 0.052910805 -0.08668962
000090 55 99 da 3c d4 49 49 3e 9a 8a 7c bd b0 dd 28 3c
       0.026684443 0.1965707 -0.06165562 0.010306761
0000a0 f1 58 70 bd e0 fa 78 3e 93 d0 76 bd a3 f3 79 bd
       -0.05867857 0.24314451 -0.060257506 -0.061023366
0000b0 cb 38 b4 be 83 92 b4 3e 13 ab 96 3e 7f d5 71 3e
       -0.3519958 0.3526803 0.29427394 0.23616599
0000c0 6d f1 7e bd 38 1c 12 bd 4f 2b be 3c 1e c5 1c 3e
       -0.06224196 -0.035671443 0.02321401 0.15309569
0000d0 56 e9 7f bd 8e 18 85 3e fd 6e 87 3e ef 16 b7 bd
       -0.062478386 0.25995296 0.26451865 -0.08939921
0000e0 b1 ea f9 bb 8f 62 92 3e d2 da 35 3c 7e 1f b9 3e
       -0.0076268543 0.2859082 0.011099534 0.3615684
0000f0 09 2f a4 3e e6 4d d2 3d 9e a9 02 3f b9 6f 9d 3e
       0.32067135 0.10268764 0.51040065 0.307493
