heuristic_net_h32.pt (torch, 21389 bytes, 5 tensors)

net.0.weight f4 [64, 4]
0	0xbecbb404	-0.3978578
1	0x3e8b1afe	0.2716903
2	0x3f024a88	0.50894976
3	0x3e264352	0.16236618
4	0xbf25ccf5	-0.64765865
5	0x3f39687f	0.72425073
6	0xbf255e38	-0.6459689
7	0x3f71226b	0.9419314
8	0x3eebf698	0.46086574
9	0xbe09a5a8	-0.13442099
10	0x3f34395a	0.7040001
11	0xbf9d6e16	-1.229922
12	0xbee6e4fd	-0.4509658
13	0xbd013104	-0.031540886
14	0x3f85ce48	1.0453577
15	0xbf402636	-0.75058305
16	0x3d2bb5f6	0.04192158
17	0xbf4f5cda	-0.81001055
18	0x3e024775	0.12722571
19	0xbeb39558	-0.35074878
20	0x3e58827b	0.21143524
21	0xbf4dbc65	-0.8036559
22	0xbe912208	-0.28346276
23	0xbe3ef7d9	-0.18649234
24	0xbf818685	-1.0119177
25	0x3f689c75	0.90863734
26	0xbe4b0f6d	-0.19830103
27	0xbe959964	-0.2921859
28	0x3ed418ca	0.41425163
29	0x3f50be09	0.8153997
30	0xbe9ebfae	-0.31005615
31	0xbea13464	-0.31485283
32	0x3e1e5fdc	0.15466255
33	0xbecbfc42	-0.39840895
34	0xbed53ee3	-0.4164954
35	0x3f890a3e	1.0706251
36	0xbeb62a33	-0.3557907
37	0x3f19fc66	0.60150754
38	0xbe333dbc	-0.17504019
39	0xbf17f9aa	-0.5936533
40	0xbf9706e3	-1.1798977
41	0x3f4eff26	0.80858076
42	0x3e475a8f	0.19468139
43	0xbf2b7ddf	-0.6698894
44	0xbf508e95	-0.8146756
45	0x3e63028b	0.22168939
46	0xbe0c2dfe	-0.1368942
47	0x3e413930	0.18869472
48	0xbf285053	-0.65747565
49	0xbe5cc27c	-0.21558565
50	0x3e9aff45	0.3027288
51	0x3f885f13	1.0654014
52	0xbf371bfa	-0.71527064
53	0x3f89a8c8	1.0754633
54	0xbea55a40	-0.32295418
55	0xbe3f4845	-0.18679912
56	0xbf0695d5	-0.52572376
57	0xbd0fcf52	-0.035109825
58	0x3e35fcba	0.17772189
59	0x3f3437ae	0.7039746
60	0x3e4c7de5	0.199699
61	0xbe0091b0	-0.12555575
62	0x3f573384	0.8406298
63	0x3faf97d9	1.3718215
64	0x3e4037cd	0.18771286
65	0xbf06f229	-0.5271326
66	0x3f357145	0.7087596
67	0x3f81b40b	1.013307
68	0x3f54dedb	0.8315255
69	0xbf48a982	-0.7838365
70	0xbeabd52f	-0.33561084
71	0xbe2864c9	-0.16444696
72	0x3e1ac7da	0.151153
73	0x3f0a677f	0.5406417
74	0xbf34d6f2	-0.7064048
75	0x3f5fa696	0.87363565
76	0x3adab5b2	0.001668623
77	0xbf5aaeae	-0.8542279
78	0xbc42aca9	-0.011881986
79	0x3f626bf6	0.88445985
80	0xbebd290f	-0.36945388
81	0xbeff6fe5	-0.49890056
82	0x3f1f5132	0.6223327
83	0x3d83544a	0.06412561
84	0xbda119b9	-0.07866234
85	0xbe9470f9	-0.2899244
86	0x3e1c79ec	0.15280885
87	0xbf9c80b4	-1.2226777
88	0x3ea04c4d	0.31308213
89	0x3f7bfbf1	0.9843131
90	0xbf305ebc	-0.68894553
91	0xbea30395	-0.3183867
92	0xbe9d136b	-0.30678877
93	0x3f8633be	1.048454
94	0xbe146a73	-0.14493732
95	0xbe40bb0d	-0.18821354
96	0x3d753c5f	0.059872027
97	0xbf555800	-0.833374
98	0xbf6f8bb3	-0.9357254
99	0x3f06292a	0.5240656
100	0xb967da07	-0.00022111098
101	0xbf415ef7	-0.7553553
102	0xbbb00ffa	-0.0053729983
103	0x3f48a7b4	0.78380895
104	0x3f8b680e	1.089113
105	0xbee8cfd4	-0.4547106
106	0xbec8d5d9	-0.39225653
107	0xbd38c21b	-0.04510699
108	0xbe6e4a3b	-0.23270504
109	0x3fa7a9f3	1.3098739
110	0xbc549e06	-0.012977129
111	0x3e669793	0.22518758
112	0xbcd426a6	-0.025897335
113	0xbec01722	-0.3751765
114	0xbf3faccf	-0.7487306
115	0x3f57f3b6	0.8435625
116	0x3f34b4f2	0.705886
117	0x3edc9543	0.43082628
118	0xbefcae5a	-0.4935177
119	0x3e9e0f40	0.3087101
120	0x3f2e3383	0.6804735
121	0xbe9a33ff	-0.30117795
122	0xbf2d3a04	-0.6766665
123	0x3e8adf30	0.27123404
124	0x3e9bbf97	0.3041961
125	0xbd82f496	-0.06394307
126	0x3fab7511	1.3395101
127	0xbd966b31	-0.07344664
128	0xbe797347	-0.24360381
129	0xbe226cf0	-0.15861869
130	0xbf9ff0e4	-1.2495389
131	0xbf59f3e6	-0.85137784
132	0xbf66f801	-0.90222174
133	0xbed8a5e3	-0.42314062
134	0xbf68d5dc	-0.90951324
135	0x3e6c56b9	0.23079957
136	0x3b9b7975	0.0047447034
137	0xbf3e01a1	-0.74221236
138	0xbc81603d	-0.01579296
139	0x3f447f7b	0.7675702
140	0xbf10ed57	-0.5661215
141	0xbde728c2	-0.11287071
142	0x3f817200	1.0112915
143	0x3f37a177	0.7173075
144	0x3b37b910	0.002803389
145	0x3f3f91fc	0.7483213
146	0x3b735ea9	0.003713528
147	0xbf47ec86	-0.7809528
148	0xbe62837f	-0.22120474
149	0xbee79a9b	-0.45235142
150	0x3f0e2e53	0.55539435
151	0x3f6eadee	0.93234146
152	0x3f12b16a	0.5730196
153	0xb8acb532	-8.2353494e-05
154	0xbf1806dd	-0.5938547
155	0xbb2c871e	-0.0026325653
156	0x3f2ea6bf	0.68223184
157	0xbf81db6a	-1.0145085
158	0x3ef576e9	0.47942284
159	0xbef0319a	-0.46912843
160	0xbf4b4b15	-0.7941144
161	0xbbacf2f4	-0.0052779857
162	0x3f52e074	0.8237374
163	0x3bcb4982	0.006203831
164	0xbf976cd0	-1.1830082
165	0xbf857af4	-1.0428147
166	0xbf089162	-0.53346837
167	0xbf320dda	-0.69552386
168	0xbdf465fe	-0.11933516
169	0xbf4489a3	-0.76772517
170	0x3e671b0e	0.22568914
171	0x3f6e25bd	0.93026334
172	0x3f11b0f9	0.56910664
173	0x3f02e584	0.51131463
174	0xbeded67f	-0.43523023
175	0xbf0eacd3	-0.5573246
176	0xbed374be	-0.41300005
177	0xbf6b86e6	-0.92002714
178	0xbe6f6f11	-0.23382212
179	0x3ecb59ba	0.39716893
180	0x3dbd637c	0.09247491
181	0x3eddf897	0.43353721
182	0x3d2e614c	0.04257326
183	0xbf240db1	-0.6408339
184	0x3f193116	0.59840524
185	0x3f988bf6	1.1917713
186	0xbd2b9b2b	-0.041896027
187	0xbebad39f	-0.3648958
188	0x3f40f4f2	0.75373757
189	0x3d7770c0	0.06041026
190	0xbf44aade	-0.7682322
191	0xbd9588ec	-0.073015064
192	0xbf37b3eb	-0.7175891
193	0xbf06104e	-0.5236863
194	0x3f2c2012	0.67236435
195	0x3f130293	0.574258
196	0xbe8cd6ce	-0.27507633
197	0xbd1581c6	-0.036500715
198	0x3f6b5368	0.9192414
199	0x3f1fddff	0.62448114
200	0xbf2cd843	-0.6751749
201	0x3f4de264	0.8042357
202	0x3eadc7a0	0.33941364
203	0x3f2eabab	0.68230695
204	0xbf45d487	-0.77277416
205	0xbd9161a8	-0.070987046
206	0x3ec6cb84	0.38827145
207	0x3f10a0f0	0.5649557
208	0x3f261500	0.64875793
209	0x3a1764be	0.00057752046
210	0xbf2bbd5b	-0.6708581
211	0xba96d587	-0.0011507728
212	0x3f5af773	0.8553383
213	0x3f456388	0.77105
214	0x3ec82286	0.3908884
215	0xbeaeb599	-0.34122923
216	0x3eebec94	0.46078932
217	0xbf09645a	-0.5366875
218	0xbf0dc10d	-0.553727
219	0x3f213735	0.62974864
220	0xbe874f93	-0.26427898
221	0xbebf9b01	-0.37422946
222	0x3f560fe1	0.8361798
223	0x3f14c100	0.58106995
224	0xbe96a74f	-0.2942452
225	0x3f7bbbde	0.9833354
226	0x3f060681	0.52353674
227	0xbf243c81	-0.6415482
228	0x3f3e34f1	0.7429953
229	0xbed956a9	-0.4244893
230	0xbe9a2290	-0.30104494
231	0xbe22c79b	-0.15896456
232	0x3f0b6cb8	0.54462767
233	0xbf810a9a	-1.008136
234	0xbf17d7f4	-0.59313893
235	0x3d394ddb	0.045240264
236	0xbf705b20	-0.93889046
237	0xbf2f97dc	-0.68591094
238	0x3f15690c	0.58363414
239	0xbeb6358c	-0.35587728
240	0x3f0d8f83	0.55297107
241	0x3e415018	0.1887821
242	0xbf16220d	-0.5864571
243	0xbe9758b0	-0.2955985
244	0xbe44bc45	-0.19212444
245	0x3f788b42	0.9708749
246	0xbf5b040a	-0.8555304
247	0xbea702cf	-0.3261933
248	0x3f107f1d	0.5644396
249	0xbeb03e0a	-0.34422332
250	0xbf524141	-0.8213082
251	0xbe127e72	-0.14306048
252	0x3d0c2309	0.0342131
253	0x3f1a2e81	0.6022721
254	0xbd7605f3	-0.060064267
255	0xbf2e87f0	-0.68176174

net.0.bias f4 [64]
0	0x3f117275	0.5681527
1	0x3e24497f	0.16043662
2	0xbf109d29	-0.5648981
3	0x3ee3837d	0.44436255
4	0x3f1b3136	0.60621965
5	0xbd8217da	-0.063522056
6	0x3ec73941	0.3891087
7	0x3e0e86a1	0.13918544
8	0xbd9f2507	-0.07770734
9	0x3f4c0aa5	0.7970374
10	0x3eadcda8	0.33945966
11	0xbf1a5b5d	-0.6029566
12	0x3d52b191	0.05143887
13	0x3ed10681	0.40825275
14	0x3ea9ec21	0.33187965
15	0x3ed12de6	0.4085533
16	0xbd3448cc	-0.044014737
17	0x3e4b5b25	0.19858988
18	0xbc33222e	-0.010933442
19	0xbc8fc603	-0.017550474
20	0x3d960baa	0.073264435
21	0x3ef6de61	0.48216537
22	0x3d5e73c4	0.05430962
23	0x3eb24722	0.34819895
24	0x3ed8e2b8	0.42360473
25	0xbcb8c291	-0.022553714
26	0xbe836243	-0.25660905
27	0x3efa4f9e	0.48888868
28	0x3d753d79	0.059873078
29	0x3f19ae39	0.6003147
30	0xbdb12310	-0.08649266
31	0x3f854d98	1.0414305
32	0xbef974d4	-0.48721945
33	0xbcf25835	-0.029583076
34	0xbc168656	-0.009187302
35	0x3e446176	0.19177803
36	0x3cb785ac	0.022402607
37	0x3ce21724	0.027598925
38	0xbd3675c6	-0.04454591
39	0xbd79b978	-0.060967892
40	0x3d700a2e	0.058603458
41	0xbe38f880	-0.18063545
42	0x3d9643f0	0.07337177
43	0x3e082956	0.13297018
44	0x3f6c8a7c	0.9239881
45	0x3ee6a42c	0.45047128
46	0x3e8bbdc2	0.2729321
47	0xbd3d109e	-0.046158426
48	0x3c689114	0.014194746
49	0x3e686ab2	0.22696951
50	0x3f21e1c3	0.6323511
51	0xbdf0808e	-0.1174327
52	0xbd4fa24f	-0.0506919
53	0x3f1c8e97	0.61155075
54	0xbe03503f	-0.1282358
55	0x3f2da0a2	0.6782323
56	0x3d9924ba	0.07477708
57	0x3e5d46ee	0.21609089
58	0x3f05132b	0.51982373
59	0xbf061892	-0.5238124
60	0xbd62fc36	-0.05541631
61	0xbbce5fb6	-0.0062980307
62	0x3f299f78	0.66258955
63	0x3d8556e3	0.06510713

net.2.weight f4 [64, 64]
0	0x3e5517e9	0.20809902
1	0xbe003c6b	-0.12523048
2	0xbdd18782	-0.10230924
3	0x3e94b3a5	0.29043308
4	0x3d19e802	0.037574776
5	0x3ca143c1	0.019685628
6	0x3ddeb696	0.10874669
7	0x3e84caa4	0.25935853
8	0x3e876627	0.26445124
9	0x3e0d1c02	0.13780215
10	0x3e816514	0.2527243
11	0x3e78bb8d	0.24290295
12	0x3ea1731a	0.31533128
13	0x3ea7d9ac	0.32783258
14	0x3e497554	0.19673663
15	0xbdd1a67a	-0.10236831
16	0x3dc774f8	0.09739107
17	0x3ebfb2d8	0.37441134
18	0x3e2187f5	0.1577452
19	0x3e0d403f	0.13794039
20	0x3db1e922	0.08687045
21	0x3de0749b	0.10959741
22	0x3ea99750	0.33123255
23	0x3e84603e	0.25854677
24	0x3e03cc44	0.1287089
25	0x3e1228e0	0.14273405
26	0xbea08ab6	-0.31355828
27	0xbe0477e3	-0.12936358
28	0x3e31f912	0.17380169
29	0x3e232599	0.15932311
30	0x3e86bd28	0.2631619
31	0x3e9c9d92	0.30588967
32	0xbf202e64	-0.62570786
33	0x3e6f6277	0.23377405
34	0x3e044fef	0.12921117
35	0x3e87cb97	0.26522514
36	0x3e764b49	0.24052157
37	0x3e91d5b0	0.28483343
38	0x3e0383d1	0.12843253
39	0xbeb1a437	-0.34695598
40	0xbd43088b	-0.04761557
41	0xbe088cf5	-0.13335021
42	0x3e717475	0.23579581
43	0x3e811219	0.2520912
44	0x3eb0c73b	0.34527
45	0xbaaae92f	-0.0013039465
46	0x3eb3092d	0.34967938
47	0x3dd69a14	0.10478607
48	0x3e86207c	0.2619666
49	0x3dcef78a	0.10105808
50	0x3e159d1b	0.14610712
51	0x3e37e4dc	0.17958397
52	0x3d8fa1d6	0.0701329
53	0x3e67b923	0.22629218
54	0x3ee04d09	0.43808773
55	0xbcb3c1d4	-0.02194301
56	0x3bb2ae3b	0.005452899
57	0x3e9d4393	0.30715618
58	0x3db58436	0.08863108
59	0xbe83601e	-0.2565927
60	0x3d8fbe3b	0.070187055
61	0x3e0d3d5b	0.13792937
62	0x3d0ca4b4	0.03433676
63	0x3e8d9b26	0.2765743
64	0x3e2fdd3e	0.17174241
65	0x3c6ac8dd	0.014330116
66	0xbcfb21fc	-0.030655853
67	0x3e9bfca2	0.3046618
68	0x3c007666	0.007840728
69	0x3dd107eb	0.10206588
70	0x3e3126c9	0.17299952
71	0x3ea0b0bc	0.31384838
72	0x3d5e7023	0.05430616
73	0x3e6a50d9	0.22882403
74	0x3e5345f6	0.20632157
75	0x3ebcfb09	0.36910275
76	0x3ee50e40	0.44737434
77	0x3e8bd138	0.2730806
78	0x3d245f20	0.04012978
79	0x3d6445ee	0.055730753
80	0x3c9e916f	0.019356458
81	0x3eb21c90	0.34787416
82	0x3e42985a	0.1900343
83	0x3e252d56	0.16130576
84	0xbd8e6e3e	-0.06954621
85	0x3c031e94	0.008002896
86	0x3e818db0	0.2530341
87	0x3e4a468f	0.19753478
88	0x3ddae4ea	0.10688193
89	0x3e92e8e3	0.28693303
90	0xbeb2b432	-0.34903103
91	0xbe8aad57	-0.27085373
92	0x3e5de805	0.2167054
93	0x3e7dc77d	0.2478313
94	0x3e86a526	0.26297873
95	0x3e298e19	0.16558112
96	0xbf2865aa	-0.6578013
97	0x3e1274aa	0.14302316
98	0x3e3d6071	0.1849382
99	0x3db61fae	0.08892761
100	0x3e86866c	0.2627443
101	0x3e93b7ab	0.28851065
102	0x3e9da268	0.3078797
103	0xbea291f2	-0.31751972
104	0xbd750b78	-0.05982539
105	0xbda5e83a	-0.08100934
106	0x3d763ef4	0.06011863
107	0x3e7f6c7b	0.24943726
108	0x3ea6c033	0.3256851
109	0x3e0086da	0.12551442
110	0x3e379436	0.17927632
111	0x3e58886c	0.21145791
112	0x3e0550d7	0.13019119
113	0x3db9cee7	0.090726666
114	0x3e2a46ed	0.16628619
115	0x3dd2b357	0.102881126
116	0x3e81ca6e	0.25349754
117	0x3d60f295	0.054918844
118	0x3ee39c0c	0.44454992
119	0xbda7b5ac	-0.08188948
120	0x3dcbd867	0.09953385
121	0x3e8ffa73	0.28120765
122	0xbc2677bd	-0.010160384
123	0xbdc313e3	-0.095252775
124	0x3e930949	0.28718022
125	0x3dd7c0ac	0.10534796
126	0x3e521d41	0.20518972
127	0x3e8a88ce	0.270575
128	0x3e998a54	0.29988348
129	0xbe3bcfd7	-0.18341003
130	0xbdcc39e2	-0.09971978
131	0x3eaa43f1	0.3325496
132	0x3e1366c5	0.14394672
133	0x3e2dc579	0.16969861
134	0x3e89a14d	0.26880875
135	0x3ea25bc9	0.31710652
136	0x3e7d1b60	0.24717474
137	0x3e6fc492	0.2341483
138	0x3e484537	0.19557653
139	0x3eb672b1	0.35634378
140	0x3e856707	0.26055166
141	0x3e6b9682	0.23006633
142	0x3d82f946	0.063952014
143	0x3de452ad	0.11148582
144	0x3d98dcd6	0.07463996
145	0x3ea9fd89	0.33201244
146	0x3e60b51f	0.21944092
147	0x3e8fb741	0.280695
148	0x3d06a9a4	0.032876626
149	0x3bf28da5	0.0074021393
150	0x3e8185c0	0.25297356
151	0x3e6db13a	0.23212138
152	0x3bd8ea11	0.0066196998
153	0x3dd3d014	0.10342422
154	0xbe9f20f0	-0.31079817
155	0xbe9c62a3	-0.30544004
156	0x3eaf6bc8	0.34261918
157	0x3e6d821d	0.23194166
158	0x3ec184cd	0.3779663
159	0x3e87c35c	0.26516235
160	0xbf0d3d7b	-0.55171937
161	0x3e0fca09	0.14041914
162	0x3e76c516	0.2409862
163	0x3d90aa35	0.070637144
164	0x3ddbc504	0.10730937
165	0x3da6c5ed	0.0814322
166	0x3e6f2244	0.23352915
167	0xbe8bca40	-0.27302742
168	0x3d840d28	0.06447822
169	0xbd5a0a86	-0.053232692
170	0x3e7a680d	0.24453755
171	0x3e870ebf	0.26378438
172	0x3ece3a22	0.40278727
173	0x3d3db407	0.046314266
174	0x3e4a83af	0.19776796
175	0x3e840e81	0.25792316
176	0x3e97c247	0.2964041
177	0x3e4e3cad	0.20140333
178	0x3e3ee0f5	0.18640502
179	0x3e857bb6	0.26070946
180	0x3ea02135	0.31275335
181	0x3e61bbf3	0.22044353
182	0x3ed66d86	0.41880435
183	0x3d8c7882	0.068589225
184	0x3dc5e338	0.09662479
185	0x3e5d20f8	0.21594608
186	0xbb788cc4	-0.00379257
187	0xbcfecff8	-0.031105027
188	0x3e2dd16a	0.16974416
189	0x3e43c846	0.19119367
190	0x3da24f3a	0.079252675
191	0x3ef610b3	0.48059615
192	0xbc7df179	-0.015499466
193	0xbde9ea75	-0.11421672
194	0x3d95b848	0.073105395
195	0x3cfaa4d0	0.030596167
196	0xbd987383	-0.07443907
197	0x3da77d70	0.08178222
198	0x3d346fe9	0.04405204
199	0xbe1f18db	-0.15536825
200	0x3d8a1f5e	0.06744264
201	0xbe00619c	-0.12537235
202	0xbe0c84fb	-0.13722603
203	0x3c3d1834	0.011541415
204	0x3d61bbae	0.055110626
205	0x3d57337b	0.05253933
206	0xbd27d5ec	-0.040975496
207	0x3cf47f82	0.029845957
208	0xbe1739b6	-0.14768109
209	0xbe09d0ae	-0.13458511
210	0x3d82e88e	0.063920125
211	0xbb845c8b	-0.0040393523
212	0xbdfdecd9	-0.12398691
213	0x3c55a143	0.013038936
214	0xbc72b888	-0.0148145035
215	0x3d8388b0	0.064225554
216	0x3d02b569	0.031911287
217	0x3c285f80	0.010276675
218	0xbe0c3b76	-0.13694558
219	0xbe13b733	-0.14425354
220	0x3cd742ad	0.02627691
221	0xbd8c95cb	-0.06864508
222	0x3d4b4a13	0.04963119
223	0x3bb40d19	0.0054947254
224	0x3d7c0654	0.061529472
225	0xbd2cb7c1	-0.04216743
226	0xbd220752	-0.039557762
227	0xbce7a206	-0.028275501
228	0xbd18627f	-0.03720331
229	0x3cfecfd1	0.031104954
230	0xbd02d0d7	-0.031937446
231	0xbd90a835	-0.07063333
232	0x3c9a520a	0.018837947
233	0xbdb851b0	-0.08999956
234	0xbd4887fb	-0.048957806
235	0xbdc00576	-0.093760416
236	0x3d0915c3	0.03346802
237	0xbce240a8	-0.027618721
238	0x3da41539	0.080118604
239	0x3af7fed9	0.0018920555
240	0xbc77a678	-0.015115373
241	0x3cf2e8e2	0.029652063
242	0xbd9d4e22	-0.07680918
243	0x3c011af0	0.007879958
244	0xbe115b68	-0.14195025
245	0xbdb65e9a	-0.089047626
246	0xbc894662	-0.016757194
247	0x3d830542	0.06397487
248	0x3d09eb0b	0.03367142
249	0x3d1a0afd	0.037608135
250	0x3d1357e9	0.03597251
251	0xbd15f5ba	-0.036611296
252	0xbc88f7eb	-0.016719779
253	0x3d3738ec	0.04473202
254	0xbc11e724	-0.008905206
255	0x3dc7a8fb	0.09749027

net.2.bias f4 [64]
0	0x3de27192	0.11056818
1	0x3e4bcdcd	0.19902726
2	0x3e3824f3	0.17982845
3	0xbc55f8a9	-0.0130597735
4	0x3e097d24	0.13426644
5	0x3e87b97c	0.265087
6	0x3db5a666	0.088696286
7	0x3cf7a26f	0.030228822
8	0xbc50970c	-0.012731325
9	0x3d93bbb8	0.07213539
10	0x3e644f6c	0.22295922
11	0xbdb0d364	-0.086340696
12	0x3ed95360	0.42446423
13	0x3d5d5d0e	0.054043822
14	0xbe46fd22	-0.194325
15	0xbec0243d	-0.37527648
16	0xbf7b62ad	-0.9819744
17	0xbe748629	-0.23879303
18	0x3e08bcc1	0.13353254
19	0x3e832bb9	0.25619295
20	0x3e871f12	0.26390892
21	0xbd75b2ff	-0.059985157
22	0x3e3dc511	0.18532206
23	0x3e3d6755	0.1849645
24	0x3f0812b9	0.5315357
25	0x3d4407c0	0.047858953
26	0xbde561a3	-0.11200263
27	0x3e53f059	0.20697154
28	0x3d3b2b48	0.045695573
29	0x3e9baf71	0.3040729
30	0x3d67d0e8	0.056595713
31	0x3e34dcce	0.17662355
32	0xbce3fa99	-0.027829455
33	0x3e03d6b1	0.12874867
34	0x3e09db16	0.13462481
35	0x3d246521	0.040135507
36	0x3d1f592a	0.038903393
37	0x3e034d4d	0.12822457
38	0x3cde58db	0.027141979
39	0x3d86530f	0.06558811
40	0xbdf46527	-0.11933356
41	0x3e0595ea	0.13045469
42	0x3d950780	0.07276821
43	0x3cbf5167	0.023354245
44	0x3e1ffe2c	0.15624303
45	0x3e5f4ca0	0.21806574
46	0x3d98051f	0.07422852
47	0xbbaedded	-0.005336514
48	0xbd8815b8	-0.066447675
49	0x3d8c902c	0.06863436
50	0xbd2d0e53	-0.04224999
51	0xbdb933c2	-0.09043075
52	0x3c03937a	0.008030767
53	0x3e903e80	0.28172684
54	0x3e578c32	0.21049574
55	0xbdf1fe44	-0.118160754
56	0x3db411af	0.087924354
57	0xbb927f36	-0.004470731
58	0x3dfa995f	0.122362845
59	0x3d979957	0.07402294
60	0x3e58ef69	0.21185078
61	0xbd6019a1	-0.05471194
62	0x3e7dd952	0.24789932
63	0x3b9e79fd	0.0048363195

net.4.weight f4 [1, 64]
0	0x3ea8d218	0.3297279
1	0x3e9b4193	0.30323467
2	0x3e762851	0.24038817
3	0xbd8f16bd	-0.06986759
4	0x3e9c9fb5	0.30590597
5	0x3f1720bc	0.59034324
6	0xbd728461	-0.059208278
7	0x3e85676b	0.26055464
8	0xbd390061	-0.045166377
9	0x3e70c5e1	0.23512985
10	0x3e4ae78e	0.19814894
11	0xbd86aba3	-0.06575706
12	0x3f698a98	0.912271
13	0x3e71dec1	0.2362013
14	0xc00318d0	-2.0483894
15	0xbfe4a352	-1.7862341
16	0x4061155e	3.5169291
17	0xbf9c618e	-1.2217271
18	0x3e627ac9	0.22117151
19	0x3e71bce1	0.23607208
20	0x3e6ab528	0.22920668
21	0xbd091fb7	-0.03347751
22	0x3e90deb4	0.2829491
23	0xbfe5b13f	-1.7944716
24	0x3fe65c60	1.7996941
25	0x3e5fb615	0.21846803
26	0xbb90c3ee	-0.004417888
27	0x3e68ab5f	0.22721623
28	0x3e8657a7	0.26238748
29	0xc01d0aa4	-2.4537745
30	0xbd8e56e3	-0.06950166
31	0x3e9b69e5	0.3035423
32	0xbd4d5b38	-0.05013582
33	0x3e6e6eba	0.23284426
34	0x3e938b2d	0.2881712
35	0xbfcd7d6d	-1.6053902
36	0x3e97901b	0.2960213
37	0x3e7a2ee8	0.24431956
38	0xbd97591b	-0.073900424
39	0x3e5ba993	0.21451406
40	0xbd0f36da	-0.03496442
41	0x3e9a2839	0.30108812
42	0xbd7352bf	-0.059405085
43	0x3e667b5d	0.22507997
44	0x3e8be5ec	0.27323854
45	0x3ea49e1a	0.32151872
46	0xbfee2477	-1.8604878
47	0xba7615da	-0.00093874114
48	0xbdd53e08	-0.10412222
49	0xbdb3cefb	-0.08779713
50	0xbd9ca3bc	-0.07648417
51	0xbdeaa968	-0.11458093
52	0x3e915e64	0.28392327
53	0xbfea0250	-1.8281956
54	0x3e7600d5	0.24023755
55	0xbfc404ba	-1.5313942
56	0xbdbf1db1	-0.09331835
57	0xbdc72bce	-0.09725152
58	0x3e970483	0.2949563
59	0xbdc34708	-0.095350325
60	0xbfe4c464	-1.7872434
61	0xbd42249b	-0.04739819
62	0x3e59d172	0.21271303
63	0x3e9eaba1	0.30990317
